weights/model_weights_ramp_fully_recurr.pth (torch, 58194 bytes, 16 tensors)

rnn.weight_ih_l0 f4 [96, 9]
0	0xbe783f1b	-0.24242823
1	0xbf489487	-0.78351635
2	0x3f1071d1	0.5642367
3	0x3bf9f03b	0.0076275147
4	0x3e82265a	0.25419885
5	0xbf117d31	-0.5683165
6	0xbe5c6208	-0.21521771
7	0x3dc1256e	0.09430967
8	0xbf8e8d97	-1.113696
9	0xbef82752	-0.484675
10	0xbf4c985f	-0.7992
11	0xbe437978	-0.19089305
12	0x3f522d3d	0.8210028
13	0xbe3817a7	-0.17977773
14	0xbf88a3dc	-1.0675006
15	0xbe962f6f	-0.29333064
16	0xbf1aad8e	-0.60421073
17	0x3f44d795	0.7689145
18	0xbef26f80	-0.47350693
19	0xbee87bb0	-0.45406866
20	0xbf95d36f	-1.170515
21	0xbf97a886	-1.1848304
22	0xbfbca1a9	-1.4736835
23	0x3d4f9530	0.050679386
24	0xbb0dc459	-0.0021631925
25	0xbe010994	-0.1260131
26	0xbf51b3d2	-0.8191501
27	0x3d50703d	0.05088829
28	0xbeefdefd	-0.46849814
29	0x3ea11daf	0.3146796
30	0x3f8bbfb0	1.0917873
31	0x3f2f9fe0	0.68603325
32	0x3d1e5d5c	0.038663253
33	0x3e3d7768	0.18502581
34	0x3eaef803	0.34173593
35	0x3fe8ea74	1.819655
36	0x3df74e58	0.1207549
37	0xbe8f9be5	-0.28048626
38	0xbf272e8f	-0.6530542
39	0xbe04aa48	-0.12955582
40	0xbeffc258	-0.4995296
41	0x3e40684f	0.1878979
42	0xbe2b2106	-0.16711816
43	0xbe9bbd10	-0.3041768
44	0x3f41fb5e	0.7577418
45	0xbe31c6a9	-0.17360939
46	0xbb4b5ba6	-0.0031029969
47	0x3eed3b2f	0.46334216
48	0xbf917dfb	-1.1366571
49	0xbe6e618d	-0.232794
50	0xbf11ecef	-0.57002157
51	0x3e337db8	0.17528427
52	0x3c564290	0.013077393
53	0x3d70c138	0.058778018
54	0x3dd87824	0.1056979
55	0xbf103f35	-0.56346446
56	0x3e92ebf5	0.28695646
57	0xbc5a3484	-0.013318185
58	0xbe038635	-0.12844165
59	0xbee8045d	-0.4531583
60	0xbf197d6d	-0.5995701
61	0xbeed85bc	-0.46391094
62	0x3f2a29cb	0.6647002
63	0x3dbd62ec	0.092473835
64	0xbe957183	-0.29188165
65	0xbf4a8060	-0.79102135
66	0x3ec6071b	0.38677296
67	0xbf0f4843	-0.5596964
68	0xbe8df624	-0.27726853
69	0xbebbf817	-0.36712715
70	0xbe92668f	-0.2859387
71	0xbf8c00f5	-1.0937792
72	0xbe4c9295	-0.19977792
73	0xbed4cef9	-0.41564158
74	0xbf0913d6	-0.5354589
75	0x3e388151	0.1801808
76	0xbefd9a40	-0.49531746
77	0x3e240b7e	0.16020009
78	0xbec97e9d	-0.3935441
79	0xbf8e5dc6	-1.1122367
80	0x3f88c843	1.0686115
81	0x3e34a22a	0.17639986
82	0xbfb0769b	-1.3786196
83	0x3fd01eb0	1.6259365
84	0xbcd012b8	-0.02539955
85	0x3f39aa48	0.72525454
86	0xbf9a78f1	-1.2068158
87	0xbf89a724	-1.0754132
88	0xbf615a38	-0.8802829
89	0xbec553ba	-0.3854044
90	0x3ec44e94	0.383412
91	0xbd88f3ca	-0.06687124
92	0x3e3c845c	0.18409866
93	0x3e630632	0.22170332
94	0x3de80cea	0.11330588
95	0xbe1f3bbf	-0.15550135
96	0xbe1d0f66	-0.15337905
97	0xbe1c4e67	-0.15264283
98	0xbf12aaf2	-0.5729209
99	0xbcec2a12	-0.028828654
100	0xbf6dfa44	-0.9296
101	0x3f685028	0.9074731
102	0x3f881ded	1.0634133
103	0x3f1e969c	0.6194856
104	0xbd0fcfe4	-0.03511037
105	0xbde15537	-0.110025816
106	0x3d790658	0.060797065
107	0x3f9bdb51	1.2176305
108	0x3df372c4	0.11887124
109	0xbf17bb22	-0.59269917
110	0xc1059a5e	-8.350187
111	0xc0b647c4	-5.6962605
112	0xc0bf4d1e	-5.9781637
113	0x3f56c376	0.83892
114	0x3e2dc0f1	0.16968133
115	0x3f04aea2	0.5182897
116	0xc0220740	-2.5316925
117	0xbe75998a	-0.23984352
118	0xbf3bb8fe	-0.7332915
119	0x3e48e287	0.19617663
120	0x3e810992	0.25202614
121	0xbe12651b	-0.14296381
122	0xbf10b21b	-0.5652177
123	0xbf1fe5ac	-0.62459826
124	0xbf1aaa64	-0.60416245
125	0x3ec52458	0.3850429
126	0x3f219253	0.631139
127	0xbf647ab2	-0.8924972
128	0x4014c5af	2.3245656
129	0x4033012c	2.7969465
130	0x40269b2e	2.6032214
131	0xbd6e6746	-0.058203958
132	0x3f6bf6b7	0.9217333
133	0x3f5661e9	0.8374315
134	0x3fabcece	1.3422487
135	0x3e03be67	0.12865601
136	0xbe976652	-0.29570252
137	0xbf20ec48	-0.62860537
138	0xbf0c3470	-0.54767513
139	0xbe9dfbd3	-0.3085619
140	0xbe865a76	-0.2624089
141	0xbe85ddd5	-0.26145807
142	0xbd7b7806	-0.06139376
143	0xbdb58a57	-0.08864277
144	0x39b4c44c	0.00034478528
145	0xbf306001	-0.6889649
146	0xbfa38cb5	-1.2777315
147	0x3fa67292	1.3003714
148	0xbe61778a	-0.22018257
149	0xbe981e7e	-0.29710764
150	0xbe8565d7	-0.2605426
151	0xbe52c2d6	-0.20582137
152	0x3fbad062	1.4594843
153	0xbe148326	-0.14503154
154	0xbec7f6c1	-0.39055446
155	0xbf1617ad	-0.58629876
156	0x3e8976eb	0.2684854
157	0xbe11f9a4	-0.14255387
158	0xbf05792b	-0.5213801
159	0xbe5a79c1	-0.21335508
160	0xbeea17ce	-0.45721287
161	0x3fa0109e	1.2505071
162	0x3e70aa33	0.23502426
163	0xbf534f32	-0.8254272
164	0xbe180f74	-0.14849645
165	0x3d8f6b73	0.07002916
166	0x3ddcc21c	0.10779211
167	0xbedd1a5d	-0.43184176
168	0xbe85b8dd	-0.26117602
169	0xbe3bb085	-0.18329056
170	0x3f91702c	1.1362357
171	0xbdcb0154	-0.09912363
172	0xbeffd341	-0.4996586
173	0xbec84ceb	-0.39121184
174	0xbd5bc816	-0.053657614
175	0xbe80d2cf	-0.25160834
176	0xbc0d1c3f	-0.008612691
177	0x3c9b2968	0.018940642
178	0xbe3f82fb	-0.18702309
179	0x3f76ef07	0.96458477
180	0xbe751275	-0.23932822
181	0xbf84d38a	-1.0377057
182	0xbcce1698	-0.025157258
183	0x3c755367	0.014973498
184	0xbd5852a7	-0.0528132
185	0xbec0e5d4	-0.37675345
186	0xbd2a347e	-0.041553967
187	0xbe00189b	-0.12509386
188	0x3f4b4767	0.79405826
189	0x3da0e705	0.078565635
190	0xbf905de9	-1.1278659
191	0xbef1424f	-0.47120902
192	0xbe59273c	-0.21206373
193	0xbe3b3e31	-0.18285443
194	0xbee69998	-0.45039058
195	0xbe87875d	-0.2647046
196	0xbebfdca8	-0.37473035
197	0x3f451a40	0.7699318
198	0xbe94fbbb	-0.29098305
199	0xbf962603	-1.173035
200	0x3fd443ed	1.6583229
201	0xbfc13a18	-1.5095854
202	0x3efad601	0.48991397
203	0xbc997d7b	-0.018736592
204	0xbebe9ca2	-0.37228876
205	0xbeee93c6	-0.46597117
206	0x3ec5d9ab	0.3864263
207	0x3c1264ab	0.008935134
208	0xbf11fee9	-0.5702959
209	0xbf8310c6	-1.0239494
210	0xbd351440	-0.044208765
211	0xbec4a4ed	-0.38407078
212	0x3df1cdf1	0.11806858
213	0x3e0ea2ce	0.13929293
214	0xbdfd11e7	-0.1235693
215	0x3fdefb0a	1.7420361
216	0xbd18d78f	-0.037314948
217	0xbea80e2a	-0.32823306
218	0x3f3f825c	0.7480829
219	0xbf1e4d6b	-0.6183688
220	0x3f07065b	0.5274407
221	0xbda8382e	-0.082138404
222	0x3e9bcdd5	0.30430475
223	0x3e68141e	0.22663924
224	0xbf86701f	-1.0502967
225	0xbf27bd0d	-0.65522844
226	0xbf7ecbb8	-0.995296
227	0xbf2b250c	-0.66853404
228	0xbec83f32	-0.39110714
229	0xbf382a86	-0.71939886
230	0xbf094b0c	-0.5363014
231	0xbeee70e7	-0.46570513
232	0xbef5fee6	-0.48046035
233	0x3e08e193	0.133673
234	0xbddfce65	-0.109280385
235	0xbe5a2bac	-0.21305722
236	0x3debe4d9	0.115182586
237	0x3f9e7cbf	1.238182
238	0x3e531e86	0.20617113
239	0xbea82146	-0.32837886
240	0xbd26f1a5	-0.040757794
241	0xbe0a2524	-0.1349073
242	0x3fcccb6b	1.5999578
243	0x3da5f361	0.081030615
244	0xbe525b95	-0.20542748
245	0x3f81bdd5	1.0136057
246	0x3ead4b54	0.33846533
247	0x3ee09416	0.4386298
248	0x3c9eec27	0.019399716
249	0xbe40fb86	-0.18845949
250	0x3e628ee6	0.22124824
251	0xbfbf438e	-1.4942491
252	0x3bcbd855	0.006220857
253	0xbf8a9311	-1.0826131
254	0x3d260a7f	0.040537354
255	0x3e2b915d	0.1675467

rnn.weight_hh_l0 f4 [96, 32]
0	0x3ddcb231	0.10776175
1	0xbd891969	-0.066943
2	0xbbd52ce9	-0.006505598
3	0x3e14a9ca	0.14517894
4	0x3dd2df35	0.102964796
5	0x3e1068fe	0.14102551
6	0x3d9f38cd	0.07774506
7	0xbcef95da	-0.02924626
8	0x3dd1b463	0.10239484
9	0x3e04be56	0.12963232
10	0x3cc36d08	0.023855701
11	0x3d9184e5	0.07105426
12	0x3e1e556a	0.1546227
13	0xbd3d3f47	-0.046202924
14	0x3dcccf57	0.100004844
15	0x3ce7e4f9	0.028307425
16	0xbde214ff	-0.11039161
17	0xbdc56530	-0.096384406
18	0xbc1d8ed0	-0.009616569
19	0xbdda37c0	-0.10655165
20	0x3e2c39d0	0.16818929
21	0x3d889299	0.06668586
22	0xbdb348da	-0.0875413
23	0xbc97e6c1	-0.01854265
24	0xbc6b9821	-0.014379532
25	0x3dd244d1	0.10267032
26	0xbdcd9b9b	-0.10039445
27	0x3e04157a	0.12898818
28	0x3e12b196	0.14325556
29	0xbdbadef0	-0.09124553
30	0x3dfe45e2	0.12415673
31	0x3e03f47e	0.12886235
32	0xbe10ef9a	-0.141539
33	0x3dfd9b25	0.12383107
34	0xbcfda8ee	-0.030964341
35	0x3d6b5f30	0.057463825
36	0xbdfddf7e	-0.123961434
37	0xbdf17c8b	-0.11791333
38	0x3e17c747	0.14822112
39	0x3d0470e3	0.03233422
40	0xbe1238b9	-0.1427945
41	0x3dfd89f0	0.12379825
42	0x3da8b30d	0.08237276
43	0xbe0c4755	-0.13699086
44	0x3e0ff082	0.1405659
45	0x3d27a49b	0.040928464
46	0x3dd8d62c	0.10587725
47	0x3e08519b	0.1331238
48	0xbd5a03e0	-0.05322635
49	0xbdc6f303	-0.097143196
50	0xbce810ef	-0.028328387
51	0x3db89a22	0.090137735
52	0x3cc6aeab	0.02425321
53	0x3da36bfe	0.07979582
54	0x3d3437db	0.04399858
55	0xbda5d77c	-0.08097741
56	0xbd647c41	-0.05578256
57	0x3ce0b495	0.027429858
58	0xbb4b0b1a	-0.003098196
59	0x3d82fe71	0.06396187
60	0xbdc9d064	-0.098542005
61	0xbdf8c2e0	-0.121465445
62	0x3e225742	0.15853599
63	0xbe294a20	-0.16532183
64	0xbc940759	-0.01806991
65	0xbe1724c6	-0.14760122
66	0x3e12f81e	0.14352462
67	0xbcda1e6a	-0.02662583
68	0xbe22e599	-0.15907897
69	0xbe3105ac	-0.1728732
70	0xbd3b1a78	-0.04567954
71	0x3e29624e	0.16541407
72	0x3dcfc6ce	0.10145341
73	0xbe287ac0	-0.16453075
74	0xbe0dbab6	-0.13840756
75	0xbdeefb88	-0.116690695
76	0xbcc0501f	-0.023475705
77	0x3dd7c9cd	0.10536537
78	0x3de86493	0.11347308
79	0x3e21b611	0.15792109
80	0xbe2c5892	-0.16830662
81	0xbe07eed2	-0.13274696
82	0x3e0bfd21	0.1367078
83	0x3d0bf947	0.034173276
84	0x3d793376	0.060840093
85	0x3dd2d500	0.10294533
86	0x3e1d43ba	0.15357867
87	0x3e0011ee	0.1250684
88	0x3e22aebb	0.15886967
89	0xbe1c4281	-0.15259744
90	0x3d0bfff9	0.03417966
91	0xbde7061f	-0.112804644
92	0xbe2e4744	-0.17019373
93	0x3dafd1f1	0.08584965
94	0xbe0d2195	-0.13782342
95	0xbd138a74	-0.03602071
96	0x3e1e41db	0.1545481
97	0xbd88f2f9	-0.06686968
98	0xbdb1017a	-0.0864286
99	0x3e18b3fa	0.14912406
100	0x3d65718e	0.056016497
101	0xbe21ab65	-0.15788038
102	0xbe17e5a6	-0.14833698
103	0xbac9a86e	-0.0015385279
104	0xbd1ceb84	-0.038310543
105	0xbde3149d	-0.11087916
106	0x3ccdbc5b	0.025114229
107	0xbdd5b749	-0.104353495
108	0x3e122f1f	0.14275788
109	0x3d976541	0.073923595
110	0xbde853db	-0.11344119
111	0xbccc89c8	-0.024968043
112	0x3dfd1454	0.12357393
113	0x3d8fbb72	0.07018174
114	0x3dc9467f	0.09827899
115	0xbdb95d40	-0.09050989
116	0x3d0bee9b	0.0341631
117	0xbc9ec363	-0.019380277
118	0x3c6ebe3b	0.014571722
119	0x3e08bb05	0.13352592
120	0xbdc328be	-0.09529255
121	0x3daa57d9	0.08317537
122	0x3e12a5c2	0.14321044
123	0x3dd10024	0.10205105
124	0xbcd360f0	-0.02580306
125	0x3e272f59	0.16326655
126	0xbdca27a0	-0.09870839
127	0x3e120a4d	0.14261742
128	0x3dcf1fdd	0.10113499
129	0xbe16466f	-0.14675306
130	0x3e038df3	0.12847118
131	0x3c5088f9	0.012727969
132	0x3d392292	0.045198984
133	0xbe16572c	-0.14681691
134	0xbdccf90a	-0.10008438
135	0x3c5adc46	0.013358181
136	0x3e031af5	0.12803252
137	0x3dff50fc	0.124666184
138	0x3e153a42	0.14573005
139	0xbe00add9	-0.12566318
140	0x3db20499	0.08692283
141	0xbe31384d	-0.17306633
142	0x3dced1f0	0.10098636
143	0xbd82722b	-0.06369432
144	0x3e07a25d	0.1324553
145	0xbb03ed9c	-0.002013064
146	0xbcce02b6	-0.025147777
147	0xbe14aafe	-0.14518353
148	0x3e0d1e83	0.1378117
149	0xbda92587	-0.08259111
150	0x3e1ff2d6	0.15619978
151	0xbe3286d0	-0.1743424
152	0x3dd456ef	0.10368144
153	0xbc0e8c8d	-0.008700502
154	0x3e1a57a5	0.15072496
155	0x3da438c4	0.0801864
156	0xbdf753e8	-0.12076551
157	0xbd947ea0	-0.07250714
158	0xbd99889c	-0.07496759
159	0x3e2c0470	0.16798568
160	0xbd6fd26f	-0.058550294
161	0x3e0df485	0.13862808
162	0xbd8c48f0	-0.06849849
163	0xbd72ae7d	-0.059248436
164	0xbe2f39cb	-0.1711189
165	0xbdb6d045	-0.08926443
166	0x3dc51b8f	0.09624397
167	0xbdf55f69	-0.11981089
168	0x3b06234b	0.0020467814
169	0x3d48e7de	0.04904925
170	0x3d5a25d1	0.05325872
171	0x3ddbb9eb	0.107288204
172	0xbbe26856	-0.0069094105
173	0x3e2559a4	0.16147476
174	0x3d8b5998	0.06804198
175	0x3e201040	0.15631199
176	0xbd3278be	-0.04357218
177	0xbca3807f	-0.019958733
178	0xbd604092	-0.05474908
179	0xbb2f4e74	-0.0026749643
180	0xbddf705e	-0.10910104
181	0xbe301833	-0.17196731
182	0xbe2ba803	-0.1676331
183	0xbd5fd327	-0.05464473
184	0x3d958400	0.073005676
185	0x3d4f65a8	0.050634056
186	0x3e057464	0.13032681
187	0xba528890	-0.00080312137
188	0x3a988ce1	0.0011638665
189	0xbacc83a3	-0.0015603196
190	0x3d6c8974	0.057748273
191	0x3c9dd052	0.019264374
192	0xbe2d30e3	-0.1691318
193	0x3da7955c	0.08182785
194	0x3e21dd70	0.15807128
195	0xbe01a509	-0.12660612
196	0xbd088998	-0.033334345
197	0xbcccef9a	-0.025016595
198	0xbda81dad	-0.08208785
199	0x3d83344b	0.064064585
200	0xbe2e3767	-0.17013322
201	0xbcc9628b	-0.024583122
202	0x3d83d30f	0.064367406
203	0xbddcc8d7	-0.10780495
204	0x3d375eb5	0.044768054
205	0xbd9d3883	-0.076767944
206	0x3dbb9b10	0.09160435
207	0x3ced2dbf	0.028952477
208	0xbd04f5c2	-0.032460935
209	0xbe2410b5	-0.16021998
210	0x3d73be15	0.05950745
211	0xbc8f2bc2	-0.01747692
212	0xbd353f73	-0.044249963
213	0x3e2fb488	0.17158711
214	0x3e08e935	0.13370211
215	0x3db6455e	0.088999495
216	0xbe03d8ba	-0.12875643
217	0xbe1cf894	-0.153292
218	0x3dc72017	0.097229175
219	0xbde76c26	-0.112999246
220	0x3de364f3	0.11103239
221	0xbd0fb06e	-0.035080366
222	0x3e0e344c	0.13887137
223	0x3e0199cb	0.12656324
224	0x3de7dff1	0.1132201
225	0xbe114b0c	-0.14188784
226	0xbcafef11	-0.0214763
227	0xbdc8028d	-0.097661115
228	0x3decb84a	0.11558588
229	0x3e1d5fa5	0.15368517
230	0xbe049526	-0.1294752
231	0xbd5e83b5	-0.054324824
232	0x3c2f6d20	0.01070717
233	0xbe01f9f7	-0.1269301
234	0xbb1ec363	-0.0024225346
235	0xbdfe4a48	-0.12416512
236	0xbd0b1323	-0.033953797
237	0x3dc3f858	0.09568852
238	0x3dfcad11	0.12337697
239	0xbcc905a1	-0.024538817
240	0x3e1f14e0	0.15535307
241	0xbdb68e5d	-0.089138724
242	0xbd433236	-0.047655307
243	0x3d93c136	0.072145864
244	0x3e25ebea	0.16203275
245	0xbd562db9	-0.0522897
246	0x3d95f1a3	0.07321479
247	0xbde584b4	-0.11206952
248	0xbe083db9	-0.13304795
249	0xbddf56bc	-0.10905215
250	0x3d7ca01e	0.061676137
251	0x3de64019	0.112426944
252	0x3e0691b4	0.13141519
253	0x3de570c3	0.11203148
254	0x3e17717b	0.14789383
255	0xbd31459d	-0.04327928

rnn.bias_ih_l0 f4 [96]
0	0xbf83e5b4	-1.0304475
1	0xbf4540f6	-0.7705225
2	0xbf20fd97	-0.6288695
3	0xbf172dcd	-0.5905426
4	0x3d7b6ae7	0.061381247
5	0xbf031702	-0.5120698
6	0xbf80251c	-1.0011325
7	0xbf3226b7	-0.69590324
8	0x3d705399	0.058673475
9	0xbed68c33	-0.4190384
10	0xbef6c87e	-0.48199838
11	0xbf6d7879	-0.9276195
12	0xbe86b7f1	-0.2631221
13	0xbf378345	-0.71684676
14	0xbec32ce0	-0.38120174
15	0xbf281189	-0.65651757
16	0xbf10cf3c	-0.56566215
17	0xbf0bdf62	-0.5463773
18	0xbf58a4f5	-0.84626704
19	0xbf883b64	-1.0643125
20	0xbfa9b016	-1.3256862
21	0xbf99dd50	-1.2020664
22	0xbf8ef42d	-1.1168267
23	0xbf689efe	-0.908676
24	0xbe6ef627	-0.23336087
25	0xbfa025e0	-1.2511559
26	0xbf03c84f	-0.5147752
27	0xbdd4cc1d	-0.10390494
28	0xbf8fc5d0	-1.1232243
29	0xbf4a973b	-0.7913701
30	0xbedeb161	-0.43494704
31	0xbf91ea33	-1.1399597
32	0x3f551451	0.83234125
33	0x3d26a6b4	0.040686324
34	0x3fc9c44e	1.5763032
35	0x3f2ebd4a	0.6825758
36	0x3f9c1111	1.2192708
37	0x3efba8c3	0.49152192
38	0x3f86a058	1.0517683
39	0xbf4af4bd	-0.7927969
40	0x3eea5da1	0.45774558
41	0x3fab05fe	1.3361204
42	0x3fc437c9	1.5329524
43	0x3f71e23f	0.9448585
44	0x3ed46d60	0.41489697
45	0x3f84d4a3	1.0377392
46	0x3e571849	0.21005358
47	0x3f92f5ad	1.1481224
48	0x3da748c3	0.08168175
49	0x3e3256b6	0.1741589
50	0x3f3f15c3	0.7464258
51	0x3f663dc7	0.89938015
52	0x3f724138	0.94630766
53	0x3f70bd53	0.94038886
54	0x3f526328	0.8218255
55	0xbd8a8697	-0.06763952
56	0x3e6b2e6b	0.22966926
57	0x3fa02a23	1.2512859
58	0x3f62c07e	0.8857497
59	0x3f090afc	0.53532386
60	0x3f0738b1	0.5282088
61	0x3f9ff128	1.249547
62	0xbf2e931b	-0.68193215
63	0xbe167300	-0.14692307
64	0x3d88b737	0.066755705
65	0x3e5b02c6	0.21387777
66	0x3e705c62	0.23472741
67	0xbe67537a	-0.22590438
68	0xbc5887d8	-0.013215981
69	0x3dac3dca	0.08410223
70	0x3d3a035a	0.045413353
71	0xbc6b5458	-0.014363371
72	0x3e51a030	0.20471263
73	0xbe9630dc	-0.29334152
74	0x3cbed508	0.02329494
75	0x3d3fd4ed	0.04683392
76	0xbdb117ba	-0.086471036
77	0xbca31f5b	-0.019912412
78	0x3eea6b25	0.4578487
79	0xbe894c13	-0.26815853
80	0xbcb5ef0d	-0.022208715
81	0xba35b4cc	-0.0006931543
82	0x3d47ce1a	0.04878054
83	0x3cc5bfc8	0.0241393
84	0xbd2c4b71	-0.042064134
85	0x3b6ea316	0.0036413125
86	0x3e948bda	0.29012948
87	0x3c842e93	0.01613549
88	0x3cd715f5	0.026255587
89	0xbe0da909	-0.13834013
90	0xbd8c2742	-0.06843425
91	0x3da819e1	0.08208061
92	0x3c8c96c0	0.017161727
93	0x3e08c690	0.13356996
94	0x3d21ca27	0.039499428
95	0x3c50bcaa	0.0127402935

rnn.bias_hh_l0 f4 [96]
0	0xbfa09634	-1.2545838
1	0xbf8448e0	-1.033474
2	0xbf63209d	-0.8872164
3	0xbf35810a	-0.70900023
4	0x3d9aaea9	0.07552845
5	0xbf03ebe0	-0.5153179
6	0xbf885152	-1.0649817
7	0xbf46e565	-0.7769378
8	0x3d130dd1	0.03590185
9	0xbec39a9c	-0.38203895
10	0xbf45b6ee	-0.77232254
11	0xbf79c2c1	-0.97562796
12	0xbed034ee	-0.40665382
13	0xbf519782	-0.8187181
14	0xbe9aeb15	-0.30257478
15	0xbf3f19eb	-0.7464892
16	0xbf05c09c	-0.52247024
17	0xbf361297	-0.71122116
18	0xbf6166a5	-0.8804725
19	0xbf882d7a	-1.0638878
20	0xbfb582fa	-1.4180596
21	0xbfb36928	-1.4016466
22	0xbf9696ff	-1.176483
23	0xbf508d3b	-0.814655
24	0xbd9a910f	-0.07547199
25	0xbf878ffa	-1.0590813
26	0xbeb81bd0	-0.3595872
27	0xbeca3374	-0.3949238
28	0xbf81ffda	-1.0156205
29	0xbf3466d6	-0.70469415
30	0xbe9f7a2f	-0.31147906
31	0xbfa3cc53	-1.279673
32	0x3f86a8d8	1.0520277
33	0x3e0567ef	0.13027929
34	0x3fbdbe84	1.4823766
35	0x3f6a4041	0.91504294
36	0x3f9eb334	1.2398438
37	0x3f1080cc	0.5644653
38	0x3f5dfec8	0.8671689
39	0xbf2b841d	-0.66998464
40	0x3f26f523	0.652178
41	0x3f935bc8	1.1512384
42	0x3facef5a	1.3510544
43	0x3f89a0c2	1.0752184
44	0x3d8aada6	0.06771402
45	0x3fa8ddd9	1.3192703
46	0x3ea30b39	0.318445
47	0x3fa83bfc	1.3143306
48	0xbb361607	-0.0027784125
49	0x3dedf9f4	0.116199404
50	0x3f143010	0.5788584
51	0x3f76e8a1	0.96448714
52	0x3f8e0782	1.1096041
53	0x3f5eb77a	0.86998713
54	0x3f069689	0.5257345
55	0xbe21ce1b	-0.15801279
56	0x3f0a1ef0	0.53953457
57	0x3fb2f202	1.3980105
58	0x3f262dda	0.64913714
59	0x3f2f3696	0.68442667
60	0x3eea647c	0.45779788
61	0x3fbe79a0	1.4880867
62	0xbefffdbe	-0.49998277
63	0xbe662bda	-0.22477666
64	0xbe2da6b1	-0.16958119
65	0x3e0f0394	0.13966209
66	0x3deddb6d	0.11614118
67	0x3d605fb4	0.05477877
68	0xbe878638	-0.26469588
69	0x3e2c6ecb	0.16839139
70	0x3d32ac58	0.04362139
71	0xbd9b6f23	-0.07589557
72	0x3e968eb7	0.29405758
73	0xbe76ff26	-0.24120769
74	0x3c994d6f	0.018713681
75	0xbd101e93	-0.035185408
76	0xbee7b983	-0.45258722
77	0xbd2e9ec4	-0.04263188
78	0x3efe1918	0.4962852
79	0xbde35ee4	-0.11102083
80	0x3dbecd21	0.09316469
81	0x3d75f741	0.060050253
82	0xbd110f95	-0.03541525
83	0xbcc5d674	-0.02415011
84	0xb9fc83e0	-0.0004816344
85	0x3c737a45	0.014860694
86	0x3e484e1f	0.19561051
87	0xbd51919c	-0.051164255
88	0xbe0c1893	-0.1368125
89	0x3d10065e	0.035162322
90	0xbe0463c3	-0.12928681
91	0xbe25a9bf	-0.16178034
92	0x3d03acb2	0.032147117
93	0x3e465cdc	0.1937136
94	0xbdc64473	-0.096810244
95	0x3d206f5a	0.039168693

rnn.weight_ih_l1 f4 [96, 32]
0	0x3e9e0a69	0.30867317
1	0xbee5a6f1	-0.4485393
2	0x3f040cb8	0.5158191
3	0x3e725a0b	0.23667161
4	0xbe2131ad	-0.15741606
5	0x3ec793fe	0.38980097
6	0xbd440074	-0.047851995
7	0x3daa5883	0.083176635
8	0x3c4b825d	0.012421218
9	0x3d8bb03a	0.06820722
10	0xbefe47f7	-0.4966428
11	0xbe206d60	-0.15666723
12	0x3eb69b06	0.35665148
13	0xbe59143c	-0.21199125
14	0x3e6d7974	0.23190862
15	0xbed3ae68	-0.41344
16	0x3d96151f	0.07328247
17	0x3d557042	0.05210901
18	0x3d7aacaa	0.06119982
19	0x3d1c3bf2	0.038143106
20	0xbe04f05b	-0.12982313
21	0x3e0175fb	0.12642662
22	0xbecd3ff4	-0.40087855
23	0xbe2515a5	-0.16121538
24	0x3f3210d2	0.69556916
25	0x3eb4a7ac	0.35284173
26	0x3e0a82a1	0.13526393
27	0x3ea08fb4	0.31359637
28	0x3e28bcf0	0.16478324
29	0x3e805241	0.25062755
30	0xbec78ea3	-0.3897601
31	0xbf264f0f	-0.64964384
32	0x3ee4c3ae	0.44680542
33	0xbe33bfb0	-0.17553592
34	0x3dbb3e08	0.09142691
35	0xbd37e081	-0.044891838
36	0xbea0d6d8	-0.31413913
37	0xbd8f6104	-0.07000926
38	0x3ea3b30e	0.31972545
39	0xbf3e8444	-0.7442057
40	0x3ec42362	0.38308245
41	0xbf0d213f	-0.55128855
42	0xbe8c7a14	-0.27436888
43	0x3dfaeb40	0.122519016
44	0xbe909f0f	-0.28246352
45	0xbede0b1d	-0.43367854
46	0x3eb49b76	0.35274857
47	0xbec8803f	-0.39160344
48	0xbf141a47	-0.57852596
49	0xbe7862b2	-0.242564
50	0x3f053863	0.52039164
51	0x3de75184	0.11294845
52	0xbe6c15eb	-0.23055236
53	0xbd62e75a	-0.055396415
54	0x3f00f8c7	0.50379604
55	0xbdb7628a	-0.08954342
56	0x3f14c338	0.5811038
57	0x3e106618	0.14101446
58	0x3d628e9a	0.055311777
59	0x3e2f3e52	0.17113617
60	0x3f1ac8f6	0.6046289
61	0x3da86c74	0.08223811
62	0x3e4f773d	0.2026033
63	0x3e5bb0b7	0.2145413
64	0x3ea998da	0.3312443
65	0xbf57a66e	-0.84238327
66	0x3da37324	0.07980946
67	0x3e8c2dd7	0.27378723
68	0x3eafa7b1	0.34307626
69	0x3d456fde	0.048202388
70	0xbe4513df	-0.19245861
71	0xbebe8d21	-0.37217048
72	0xbf13d95b	-0.57753533
73	0x3ed7a85a	0.4212063
74	0x3d806d59	0.062708564
75	0x3eb6f280	0.35731888
76	0xbf235762	-0.6380521
77	0xbe7a28e9	-0.24429668
78	0xbf6198ad	-0.8812359
79	0x3e62f05c	0.22162002
80	0x3dff309e	0.12460445
81	0x3e58306d	0.21112223
82	0xbf03c9a1	-0.51479536
83	0xbe068e85	-0.13140304
84	0xbeb7141a	-0.35757524
85	0xbd3ec34b	-0.046572965
86	0xbebb6221	-0.36598304
87	0xbe74af49	-0.23894991
88	0xbea82581	-0.32841113
89	0x3e3217d1	0.17391898
90	0x3efb882c	0.49127328
91	0xbe639798	-0.22225797
92	0xbd8fe398	-0.07025832
93	0x3c8803bc	0.016603343
94	0xbd57103c	-0.052505717
95	0x3ec200d3	0.37891254
96	0x3d9e9aff	0.07744407
97	0xbf440d4b	-0.76582783
98	0x3dd2f0c1	0.102998264
99	0x3e6749f1	0.225868
100	0x3eafeeca	0.3436187
101	0x3dfe47bd	0.12416027
102	0xbde3e4fa	-0.11127658
103	0x3e35cb77	0.17753397
104	0xbe91febf	-0.28514668
105	0xbdb32f78	-0.08749288
106	0xbdb8188e	-0.089890584
107	0x3e909fd5	0.28246942
108	0x3ed67c0e	0.4189152
109	0xbdba472f	-0.090956084
110	0xbeaa240e	-0.33230633
111	0xbecb2740	-0.39678383
112	0xbdbf9f5b	-0.093565665
113	0xbd0c5a9b	-0.034266096
114	0xbe6da45d	-0.23207231
115	0xbd761d54	-0.060086563
116	0xbdc7ebf9	-0.09761805
117	0x3e44916f	0.19196104
118	0xbe5b00d2	-0.21387032
119	0xbe866e9e	-0.2625627
120	0xbf0c360f	-0.54769987
121	0xbcc2be66	-0.02377243
122	0x3e4f2703	0.20229726
123	0x3eaf6bd2	0.34261948
124	0x3bdef527	0.006804127
125	0x3d91ba00	0.07115555
126	0x3e053060	0.13006735
127	0xbdd5cb71	-0.10439194
128	0x3db02570	0.08600891
129	0xbe3228c6	-0.17398366
130	0xbdd1e7cf	-0.10249292
131	0x3d96b7a6	0.07359247
132	0x3c879bd1	0.016553791
133	0x3e73c590	0.23805833
134	0x3d1a3bef	0.037654813
135	0x3f1ece26	0.6203331
136	0xbf02c238	-0.51077604
137	0x3e30aa53	0.17252474
138	0x3d4121eb	0.047151487
139	0x3c61a887	0.01377309
140	0x3e93104a	0.28723365
141	0xbdcf05c2	-0.1010852
142	0x3db56ec8	0.088590205
143	0x3ed3038e	0.4121365
144	0xbe3b2e4d	-0.18279381
145	0xbebd33ce	-0.36953586
146	0xbdeff7e0	-0.117172
147	0xbcd2e727	-0.025744988
148	0xbe873afa	-0.26412183
149	0xbe238ace	-0.15970919
150	0x3d168455	0.036747295
151	0x3f54c8c2	0.8311883
152	0xbe0e0c21	-0.13871814
153	0x3c106784	0.008813743
154	0xbdb592d3	-0.08865895
155	0xbd9c5f7c	-0.076354
156	0xbd13f5c8	-0.036123067
157	0xbce0c4b1	-0.02743754
158	0x3ef49198	0.4776733
159	0x3f0b63c1	0.5444909
160	0x3e726ddd	0.23674722
161	0xbf2b8102	-0.66993725
162	0x3da9a5c7	0.08283573
163	0xbe2ad5e7	-0.1668316
164	0x3e0a7175	0.13519843
165	0x3eb50ef2	0.35362965
166	0x3ef006a0	0.46880054
167	0xbed8f3f1	-0.42373613
168	0xbf318359	-0.69341046
169	0xbf19444c	-0.5986984
170	0x3d196df9	0.037458394
171	0x3e314ac0	0.17313671
172	0xbcefcd96	-0.029272836
173	0xbe87dfc3	-0.26537904
174	0xbf5b56f7	-0.8567957
175	0xbe6b489e	-0.2297692
176	0xbddfb802	-0.109237686
177	0xbdc11d2f	-0.094293945
178	0x3f31ec19	0.6950088
179	0x3efb3cfe	0.4906997
180	0xbee63f13	-0.44969997
181	0xbe9978e8	-0.29975057
182	0x3ea368db	0.31915936
183	0xbe664f95	-0.22491296
184	0xbe527a95	-0.20554574
185	0x3e6978c1	0.2279997
186	0x3e8464d1	0.25858167
187	0xbebbe838	-0.36700606
188	0xbc9aadf8	-0.018881783
189	0x3e71c0e2	0.23608735
190	0xbe6452b2	-0.22297171
191	0xbd3d7943	-0.046258222
192	0xbdcd782f	-0.10032689
193	0xbed889db	-0.42292675
194	0xbdd7af68	-0.10531503
195	0x3e32da10	0.17465997
196	0x3ea14630	0.3149886
197	0xbe27506f	-0.16339277
198	0xbc0d4aa9	-0.008623757
199	0xbf20a2c8	-0.62748384
200	0xbf093086	-0.53589666
201	0xbd07937f	-0.033099648
202	0x3e4766b8	0.19472778
203	0x3dfeae8d	0.12435637
204	0xbe952f01	-0.29137424
205	0x3d967877	0.073471956
206	0xbf73a650	-0.9517565
207	0x3e37a811	0.17935206
208	0xbd1aa1e0	-0.037752032
209	0x3e0dfb59	0.13865413
210	0xbdeb3886	-0.1148539
211	0x3e0656d2	0.13119057
212	0x3da64e44	0.08120397
213	0x3e33d63a	0.1756219
214	0xbe2ab4f1	-0.16670586
215	0xbe36eb93	-0.17863302
216	0xbf0732f3	-0.5281212
217	0xbdeee863	-0.11665418
218	0x3e51825b	0.20459883
219	0x3e053672	0.1300905
220	0x3d4627f7	0.048377957
221	0x3d8b3094	0.06796375
222	0xbdb39d97	-0.08770292
223	0xbcf655b6	-0.030070167
224	0x3f74513c	0.95436454
225	0xbf7ed0a3	-0.99537104
226	0x3ec1f398	0.3788116
227	0xbe1e0b25	-0.15433939
228	0xbf298758	-0.66222143
229	0x3e22f089	0.1591207
230	0x3eeb93a7	0.46011087
231	0xbf58a428	-0.8462548
232	0x3f16ed41	0.5895577
233	0xbede12a8	-0.4337361
234	0xbef7372e	-0.48284286
235	0x3ebe1bc1	0.3713055
236	0x3f000c5a	0.50018847
237	0xbf194d4d	-0.59883577
238	0x3e4b0f6b	0.198301
239	0xbf496a44	-0.78677773
240	0xbf2e6a7d	-0.6813124
241	0xbf5c81b4	-0.8613541
242	0x3ef1a5c6	0.47196788
243	0x3f3bf640	0.7342262
244	0xbf1a07af	-0.60167974
245	0xbf112595	-0.5669797
246	0x3ee89ca6	0.45432013
247	0x3ec81fbc	0.3908671
248	0xbe6491b9	-0.22321214
249	0x3f29d0a3	0.6633398
250	0x3ef5916e	0.47962517
251	0x3cf7fefa	0.03027295
252	0x3f00d40a	0.50323546
253	0x3f1aef2b	0.6052119
254	0xbe6db62a	-0.23214021
255	0xbdfe1995	-0.12407223

rnn.weight_hh_l1 f4 [96, 32]
0	0x3dc4b4ad	0.09604774
1	0x3cfbd08a	0.030739088
2	0xbdaf47ae	-0.08558594
3	0x3c714424	0.014725719
4	0xbdfd0687	-0.123547606
5	0x3d9bfa47	0.07616096
6	0xbcf29837	-0.029613597
7	0xbd47d774	-0.048789456
8	0x3e172d44	0.14763361
9	0x3c5998fa	0.013281101
10	0x3d18ca0b	0.03730206
11	0xbdad40e8	-0.084596455
12	0xbe109df7	-0.14122759
13	0x3d41bb39	0.04729769
14	0x3de50416	0.1118242
15	0x3e0261f2	0.12732676
16	0x3c56b7be	0.013105331
17	0xbd84aa4c	-0.06477794
18	0x3e02dcd2	0.12779549
19	0xbc84bbd2	-0.016202841
20	0x3e0c0398	0.13673246
21	0xbd864c21	-0.06557489
22	0xbd271d98	-0.040799707
23	0xbd4a7e4c	-0.049436852
24	0xbc5dcd2a	-0.013537684
25	0xbce8b9b6	-0.028408866
26	0x3e212d7a	0.15740004
27	0x3e0273d6	0.127395
28	0xbe0f0916	-0.1396831
29	0x3e2bd9a5	0.16782244
30	0x3d033ae3	0.03203858
31	0xbd93cfc6	-0.07217364
32	0xbbc03b16	-0.0058664186
33	0x3bc6f4b7	0.0060716528
34	0xbdc9f11f	-0.09860443
35	0x3dc01103	0.09378245
36	0xbd07aa91	-0.03312165
37	0x3b0e53fe	0.0021717544
38	0x3e29f734	0.16598207
39	0x3e26952d	0.16267844
40	0x3c068880	0.008211255
41	0xbe0b5fbd	-0.1361074
42	0xbe04c1c0	-0.12964535
43	0x3dab03bd	0.083503224
44	0xbe279703	-0.163662
45	0x3d6408d8	0.055672497
46	0xbdd410d2	-0.10354771
47	0x3dbdd7fe	0.09269713
48	0xbdc74918	-0.097307384
49	0xbd7b60d1	-0.06137163
50	0x3ca88fbe	0.020576354
51	0x3d27ebc2	0.04099632
52	0xbe25b0a3	-0.16180663
53	0x3d8160d1	0.063172944
54	0x3e06f0a7	0.13177739
55	0xbc713db0	-0.01472418
56	0x3d9c005e	0.076172575
57	0xbc118085	-0.008880739
58	0xbe0515d5	-0.1299661
59	0xbdf06569	-0.117380925
60	0x3e2d0bc1	0.16899015
61	0x3c8f09c6	0.017460715
62	0xbca4fca8	-0.020140007
63	0x3d3fa0c3	0.046784174
64	0x3d67547b	0.05647705
65	0xbdb22dc4	-0.08700135
66	0xbe2a32bb	-0.16620915
67	0x3daf958e	0.08573447
68	0x3d2719ae	0.040795974
69	0xbdbfd45b	-0.093666755
70	0x3d43a87f	0.047768112
71	0xbe32e5c8	-0.17470467
72	0xbda0a5c2	-0.07844116
73	0xbd7ef4c1	-0.062245134
74	0x3deb58cd	0.11491547
75	0x3e303ba6	0.17210254
76	0x3dd18ee4	0.10232332
77	0xbe2016a0	-0.15633631
78	0x3e1566de	0.14590022
79	0xbd7a4fb2	-0.06111116
80	0xbdd6fe52	-0.104977265
81	0x3dea7029	0.11447174
82	0x3e0de6f1	0.13857628
83	0xbdcab5da	-0.09897967
84	0x3d1d38ad	0.03838413
85	0xbc97a887	-0.018512977
86	0x3e151168	0.14557421
87	0x3e277275	0.16352256
88	0x3d83e084	0.06439307
89	0x3e10134a	0.14069858
90	0xbe09a19a	-0.13440552
91	0x3daaa3e5	0.08332042
92	0x3e10d370	0.14143157
93	0xbcc463c5	-0.023973355
94	0xbdb3f5d1	-0.0878712
95	0xba8f4646	-0.0010930977
96	0xbe0216a4	-0.12703949
97	0x3cb1cb58	0.021703407
98	0xbe176961	-0.14786293
99	0xbd01a29f	-0.03164923
100	0xbe1ad129	-0.15118851
101	0x3d62e041	0.055389646
102	0xbdfb13d4	-0.12259641
103	0x3dd0dbdf	0.10198187
104	0xbd9fff84	-0.078124076
105	0xbe0780f7	-0.1323279
106	0xbd379f57	-0.044829693
107	0x3d0f6360	0.03500688
108	0xbd8f0cb9	-0.069848485
109	0xbcc36508	-0.023851886
110	0x3ce636dc	0.02810233
111	0x3dbacac9	0.091207094
112	0x3cbbc9f8	0.022923455
113	0xbd14ad24	-0.036297932
114	0x3e10f04e	0.14154169
115	0x3cb6b67b	0.02230381
116	0xbdf9939e	-0.12186359
117	0xbd849ebd	-0.064755894
118	0x3d78f257	0.06077799
119	0xbe05c154	-0.1306203
120	0xbe1b232f	-0.1515014
121	0x3e229f46	0.1588107
122	0x3e30d866	0.1727005
123	0xbba2fa6a	-0.0049736993
124	0xbcef5ed3	-0.02922002
125	0x3e0d5eb4	0.13805658
126	0xb923fb18	-0.00015638431
127	0x3ca15c67	0.019697381
128	0xbca8a697	-0.020587249
129	0xbdebe611	-0.11518491
130	0x3d1ad564	0.03780116
131	0x3b5391bb	0.0032282907
132	0x3e2e506e	0.17022869
133	0xbd82531f	-0.0636351
134	0x3dd083ec	0.10181412
135	0x3d12c2bd	0.03583025
136	0xbcbed2c5	-0.023293862
137	0x3dbcbfbc	0.09216258
138	0xbdba9cd2	-0.09111942
139	0xbde009f8	-0.109394014
140	0xbcfe0718	-0.031009242
141	0x3df98522	0.12183596
142	0xbd6e8fd4	-0.058242634
143	0x3d5630c0	0.052292585
144	0x3e017f24	0.12646157
145	0xbdd14962	-0.10219075
146	0x3dfb8f52	0.122831956
147	0x3ded3b12	0.115835324
148	0x3e158c88	0.1460439
149	0xbc1d3014	-0.009593982
150	0xbded3273	-0.11581888
151	0xbe288652	-0.16457489
152	0xbd7e1ed8	-0.062041134
153	0x3d8572dc	0.06516048
154	0x3da45ec6	0.08025889
155	0xbe232229	-0.15931
156	0x3cd59322	0.026071135
157	0xbd92b376	-0.07163136
158	0xbded36a9	-0.11582691
159	0xbcc2601c	-0.02372747
160	0x3e106345	0.14100368
161	0x3d87e870	0.06636131
162	0xbdf928d2	-0.12165989
163	0x3dda533a	0.106604055
164	0xbe1e7dce	-0.15477678
165	0xbd99229c	-0.07477304
166	0x3c790f77	0.015201441
167	0xbe2f0da9	-0.17095055
168	0xbb86e7df	-0.0041169967
169	0xbdaaee24	-0.08346203
170	0x3e1f7202	0.15570834
171	0xbc9d319a	-0.01918869
172	0xbd0cac66	-0.0343441
173	0xbd1942f6	-0.037417375
174	0xbdad1b5b	-0.08452483
175	0x3dc29f71	0.09503067
176	0x3d0f7519	0.035023782
177	0xbe0cd87f	-0.13754462
178	0xbe0f27c6	-0.13980016
179	0xbd6ffd2b	-0.05859105
180	0xbe16a1fd	-0.14710231
181	0x3d9bdf22	0.076109186
182	0x3d881418	0.066444576
183	0xbe2501d5	-0.1611398
184	0x3e0ec71b	0.1394314
185	0x3e255de1	0.16149093
186	0x3e3231bc	0.17401785
187	0xbd814c60	-0.063133955
188	0x3e2cd865	0.16879423
189	0xbd8fb9fa	-0.07017894
190	0xbc68146a	-0.014165023
191	0xbe310b10	-0.17289376
192	0x3d15365d	0.036428798
193	0x3c83ed4d	0.016104365
194	0xbd2b87df	-0.041877624
195	0x3c61d6f0	0.013784155
196	0x3e03fb0f	0.1288874
197	0x3d431d81	0.04763556
198	0xbd2f300c	-0.04277043
199	0xbdd87f83	-0.10571196
200	0xbe1c9def	-0.15294622
201	0x3d870ef0	0.06594646
202	0x3e2f6a34	0.17130357
203	0x3d3a9c65	0.045559306
204	0xbdad3598	-0.08457488
205	0x3d20a2eb	0.03921787
206	0x3e256e20	0.1615529
207	0xbe040849	-0.12893786
208	0x3d4b9b38	0.049708575
209	0x3e2e9649	0.17049517
210	0xbdeefde5	-0.1166952
211	0xba3001d9	-0.00067141425
212	0x3cf9224b	0.03041186
213	0x3d23c28c	0.039980456
214	0x3ddc206d	0.10748372
215	0xbe2eeaae	-0.1708171
216	0xbd017640	-0.031606913
217	0xbdcccd1f	-0.10000061
218	0xbe1f96ae	-0.15584823
219	0xbdf8c770	-0.12147415
220	0x3d9d2b58	0.07674283
221	0x3e1ce3a0	0.15321207
222	0x3a7d5c57	0.0009664944
223	0x3e123827	0.14279233
224	0x3e06132b	0.1309325
225	0x3ad3e969	0.0016167584
226	0xbd099cd6	-0.033596836
227	0x3daffda3	0.08593299
228	0x3d1fdc28	0.039028317
229	0xbdd659be	-0.10466336
230	0xbe12df03	-0.14342885
231	0xbe102e5c	-0.14080185
232	0xbd39baee	-0.045344286
233	0x3d971694	0.07377353
234	0x3d6653c9	0.056232248
235	0xbdc703ad	-0.09717498
236	0xbdf67324	-0.1203368
237	0xbd530db9	-0.05152676
238	0x3bf0c79a	0.007348013
239	0xbdd57c95	-0.10424153
240	0xbe1b8861	-0.15188743
241	0xbe1d21c7	-0.15344916
242	0xbc0a3d9d	-0.008437541
243	0xbd2880a0	-0.04113829
244	0xbc7dfdd3	-0.015502411
245	0xbdcee1e4	-0.10101679
246	0x3dc3c4a6	0.09558992
247	0x3d25ee22	0.040510304
248	0x3d8f11d9	0.06985826
249	0xbd8e842c	-0.069588035
250	0x3dcce146	0.10003905
251	0x3def371d	0.11680434
252	0x3e044586	0.12917146
253	0xbe1b8831	-0.15188672
254	0xbd8088f9	-0.062761255
255	0xbc1764c7	-0.009240336

rnn.bias_ih_l1 f4 [96]
0	0xbf51e61a	-0.8199173
1	0xbf6790b5	-0.9045518
2	0xbe8f5987	-0.2799799
3	0xbf34f1d1	-0.7068148
4	0xbeaac515	-0.33353487
5	0xbf4c4886	-0.7979816
6	0xbf23939b	-0.63897103
7	0xbfb54437	-1.4161443
8	0xbef62a75	-0.48079267
9	0xbf7b8c24	-0.9826071
10	0xbf084f02	-0.53245556
11	0xbf3df0af	-0.7419538
12	0xbf0672f0	-0.5251913
13	0xbf7e93e6	-0.99444425
14	0xbf072db7	-0.5280413
15	0xbf13e3f7	-0.5776972
16	0xbf1b7340	-0.6072273
17	0xbeb1444d	-0.34622422
18	0xbee1fce6	-0.4413826
19	0xbe9bbb63	-0.30416402
20	0xbfb189dd	-1.3870198
21	0xbfab8e59	-1.3402816
22	0xbf0edd84	-0.55806756
23	0xbf5d0e69	-0.86350113
24	0xbf86bef2	-1.0527022
25	0xbef8ac8c	-0.48569143
26	0xbfd6319d	-1.6733891
27	0xbf193538	-0.5984683
28	0xbde5d6bd	-0.11222599
29	0xbf26ef77	-0.65209144
30	0xbff21095	-1.891131
31	0x3c21f5e1	0.009885282
32	0x3fcfe7c4	1.6242604
33	0x3f3156c4	0.6927302
34	0x3f7f5334	0.9973633
35	0x3f870a4f	1.0550021
36	0x3fcde146	1.6084373
37	0x3fa0a26d	1.2549568
38	0x3fbecd9f	1.49065
39	0x3f8e30f3	1.1108688
40	0x3fae9c98	1.3641539
41	0x3f9cb891	1.2243825
42	0x3f86b264	1.052319
43	0x3f693f79	0.91112477
44	0x3f845b03	1.0340275
45	0x3fa270c6	1.2690666
46	0x3f848870	1.0354137
47	0x3f9a93fc	1.2076411
48	0x3f7d2927	0.9889092
49	0x3fcdd51c	1.6080661
50	0x3f920ea1	1.1410714
51	0x40096ed1	2.1473887
52	0x3f853aba	1.0408547
53	0x3f948a77	1.1604756
54	0x3f53f1a3	0.82790583
55	0x3f938213	1.152407
56	0x3f793cac	0.973582
57	0x3f080172	0.53127205
58	0x3fb86ff3	1.4409164
59	0x3f69d22f	0.9133634
60	0x3fd49d2f	1.6610469
61	0x3f97a75c	1.1847949
62	0x3f3bfdb9	0.73434025
63	0x3f9e1118	1.2348967
64	0xbcf77327	-0.030206276
65	0x3d843b7b	0.064566575
66	0x3e1f907a	0.15582457
67	0xbbf04b9d	-0.0073332326
68	0xbce0648b	-0.027391693
69	0xbcd14240	-0.025544286
70	0x3d586a92	0.05283601
71	0x3e2cc8e1	0.16873504
72	0x3cc0e6b5	0.02354751
73	0xbd4e7ee9	-0.050414
74	0x3e0329c2	0.12808898
75	0xbcb47268	-0.02202721
76	0x3d814bbb	0.063132726
77	0xbd0c10ab	-0.034195583
78	0xbc3bbc2a	-0.011458436
79	0x3cf9677b	0.030444851
80	0x3cc62d52	0.024191532
81	0xbd035030	-0.032058895
82	0xbc7bee10	-0.015376583
83	0x3cc9a8a4	0.024616547
84	0xbcbe9889	-0.023266094
85	0xbae243b6	-0.0017262611
86	0xbdd639ab	-0.10460218
87	0x3bdc95e4	0.0067317355
88	0xbc9aa7b6	-0.018878799
89	0xbe12bc93	-0.14329748
90	0xb892cbcc	-6.9997826e-05
91	0xbcfd7069	-0.03093739
92	0xbd5de86d	-0.054176737
93	0xbc3891bb	-0.011265214
94	0x3adc0b62	0.001678806
95	0x3d91b4d0	0.07114565

rnn.bias_hh_l1 f4 [96]
0	0xbf34cd2d	-0.70625573
1	0xbf9542ab	-1.166097
2	0xbe807ede	-0.25096792
3	0xbf52c961	-0.8233853
4	0xbe9019bd	-0.28144637
5	0xbf1f35c2	-0.621914
6	0xbef9d961	-0.4879866
7	0xbfac028a	-1.3438275
8	0xbec2990a	-0.38007385
9	0xbf8bca2d	-1.0921074
10	0xbed1910a	-0.4093097
11	0xbf7f4e14	-0.9972851
12	0xbf2175a2	-0.6307012
13	0xbf49dbe0	-0.7885113
14	0xbf177068	-0.59155893
15	0xbf245ead	-0.64206964
16	0xbef21807	-0.47283956
17	0xbf03a9d5	-0.5143102
18	0xbe3e6ddd	-0.18596597
19	0xbee54dc4	-0.44785893
20	0xbfb5ee87	-1.4213418
21	0xbf8cd1bb	-1.1001505
22	0xbf2e8681	-0.68173987
23	0xbf858aee	-1.0433023
24	0xbf669206	-0.90066564
25	0xbf004da4	-0.5011847
26	0xbfcc2e3d	-1.5951611
27	0xbf3bc52c	-0.73347735
28	0xbe573e09	-0.21019758
29	0xbeda2abe	-0.42610735
30	0xc0001abd	-2.001632
31	0xbe157f6f	-0.14599393
32	0x3fd1012a	1.632848
33	0x3ef6e307	0.48220083
34	0x3f5d3d03	0.8642122
35	0x3fad9c8b	1.3563398
36	0x3fa98645	1.3244101
37	0x3f995a71	1.1980726
38	0x3faaf99d	1.3357426
39	0x3fa30206	1.2734993
40	0x3fc46c37	1.5345525
41	0x3f8d1dbe	1.1024702
42	0x3f6307dc	0.8868387
43	0x3f7418e5	0.95350486
44	0x3f4a954a	0.7913405
45	0x3fc454eb	1.5338415
46	0x3f961418	1.1724882
47	0x3fb1771b	1.3864473
48	0x3f997d32	1.1991332
49	0x3fd625d3	1.6730293
50	0x3f8679c2	1.0505908
51	0x401039c4	2.2535257
52	0x3fa5c7fe	1.2951658
53	0x3f6b8633	0.92001647
54	0x3f7aabdd	0.9791849
55	0x3fa902b9	1.3203956
56	0x3f413f96	0.7548765
57	0x3f0f3e60	0.5595455
58	0x3f9fd1a0	1.2485847
59	0x3f4ec799	0.8077331
60	0x3fdd264c	1.7277312
61	0x3fa11cf5	1.2586962
62	0x3f438e61	0.7638913
63	0x3fb20b48	1.3909693
64	0x3c666128	0.01406125
65	0x3e5f4a9e	0.21805808
66	0xbd8d931b	-0.06912824
67	0x3b258a29	0.0025259352
68	0x3da4f035	0.08053628
69	0x3d07f2e2	0.033190615
70	0xbce62445	-0.028093467
71	0x3d4d3508	0.050099403
72	0xbce39ca2	-0.02778465
73	0xbdb787a6	-0.0896142
74	0x3e34ebe2	0.17668107
75	0xbd28ad24	-0.041180745
76	0x3d321434	0.0434763
77	0xbcad360f	-0.021143941
78	0xbdb04089	-0.08606059
79	0x3e201b18	0.15635335
80	0x3d0fe808	0.03513339
81	0x3d092b10	0.033488333
82	0xbd4d966c	-0.05019228
83	0xbd9c2826	-0.07624845
84	0xbbd77ddb	-0.0065762824
85	0xbc13f56a	-0.009030679
86	0xbe0da7fc	-0.13833612
87	0x3c9ca3fa	0.019121159
88	0xbde4d516	-0.111734554
89	0xbda07996	-0.07835691
90	0xbae7fc66	-0.0017699122
91	0x3da3fd7f	0.08007335
92	0x3e248e86	0.16069993
93	0x3c0fdd61	0.008780808
94	0xbbf645d8	-0.0075156502
95	0xbe178a45	-0.1479884

fc.weight f4 [64, 32]
0	0x3e5daa58	0.21647012
1	0xbe5b730e	-0.21430609
2	0xbea23150	-0.31678247
3	0xbd72306c	-0.05912821
4	0x3ebd6d2f	0.36997363
5	0xbe747892	-0.23874119
6	0xbd4e4b7e	-0.050364964
7	0xbe688acd	-0.22709198
8	0x3eba04f8	0.36331916
9	0xbe32568b	-0.17415826
10	0xbdb7642a	-0.08954652
11	0xbec77e45	-0.38963524
12	0xbe53ea30	-0.20694804
13	0x3e5b45d2	0.21413353
14	0x3e09775c	0.13424438
15	0xbe7be618	-0.24599493
16	0xbe2267aa	-0.15859857
17	0xbe8f7f49	-0.28026798
18	0x3e99eda5	0.3006412
19	0xbe295573	-0.16536503
20	0x3dc0224b	0.09381541
21	0xbd3d370d	-0.04619508
22	0x3d9c5b0a	0.07634552
23	0xbd517c0d	-0.051143695
24	0x3e486c60	0.19572592
25	0x3ee752d3	0.45180377
26	0x3e2b7ee9	0.16747631
27	0x3edf3818	0.43597484
28	0x3f16405b	0.5869195
29	0xbe97d5ef	-0.29655406
30	0xbe6f4bef	-0.2336881
31	0x3f0b7bf0	0.5448599
32	0xbdb50eb5	-0.08840696
33	0xbdff754e	-0.12473546
34	0xbdb53b06	-0.088491485
35	0x3e767625	0.24068506
36	0xbdc7c2ab	-0.09753927
37	0x3e527734	0.20553285
38	0x3e201861	0.156343
39	0x3b9be340	0.004757315
40	0x3e90143b	0.28140435
41	0x3c9ec719	0.019382047
42	0xbe073ec8	-0.13207543
43	0xbde8444b	-0.11341151
44	0xbe62bf78	-0.22143352
45	0x3e3dcb52	0.18534592
46	0x3d2ba83e	0.041908495
47	0xbebb0928	-0.36530423
48	0x3e004dc0	0.1252966
49	0x3e539509	0.20662321
50	0x3d3be66f	0.045874055
51	0x3d20cca6	0.039257668
52	0xbdaa238b	-0.083075605
53	0x3eab38db	0.33441815
54	0x3e070bc6	0.13188085
55	0x3e860d44	0.26181996
56	0xbe462a5e	-0.193521
57	0xbdfac094	-0.122437626
58	0x3e4b5aa3	0.19858794
59	0x3cbe0855	0.023197332
60	0xbe2ddd7c	-0.16979021
61	0xbdb5ef3f	-0.08883523
62	0x3da03d10	0.07824147
63	0x3def7e5f	0.11694025
64	0xbed0e698	-0.4080093
65	0xbe8b6cea	-0.27231532
66	0xbc13a870	-0.009012327
67	0xbe40866a	-0.18801275
68	0x3e315142	0.17316154
69	0x3cc01eaf	0.023452131
70	0xbdf8c929	-0.12147743
71	0x3ef07b6b	0.4696916
72	0x3ea71779	0.32635096
73	0x3e46a574	0.19399053
74	0x3e0dc00a	0.13842788
75	0xbe495d3d	-0.19664474
76	0x3e8637ad	0.26214352
77	0xbdfe411c	-0.124147624
78	0xbf349aba	-0.70548594
79	0x3e8b8253	0.27247867
80	0xbe946a6c	-0.28987443
81	0xbc676576	-0.014123311
82	0x3d2b073d	0.04175495
83	0xbe88a05b	-0.26684842
84	0x3c74d578	0.014943473
85	0xbf15b00c	-0.5847175
86	0xbf06eb7c	-0.5270307
87	0x3e597574	0.21236211
88	0xbdac479c	-0.08412096
89	0xbf40429a	-0.75101626
90	0x3e21c7e3	0.15798907
91	0xbe809ddb	-0.25120434
92	0xbf93b515	-1.1539637
93	0x3ecad42b	0.39614996
94	0x3e38311a	0.17987481
95	0xbf0a01e0	-0.5390911
96	0x3da134ee	0.07871424
97	0xbe50bf20	-0.20385408
98	0x3e060d44	0.13090998
99	0x3dc282fd	0.0949764
100	0x3eee763c	0.4657458
101	0xbd3d3783	-0.04619552
102	0xbd74e576	-0.059789144
103	0xbe0d1e57	-0.13781105
104	0x3ea6f1fd	0.32606497
105	0x3c040df3	0.008059966
106	0xbe490fa8	-0.19634879
107	0x3e280df9	0.1641158
108	0xbdcbe860	-0.099564314
109	0x3e135be2	0.1439052
110	0xbceb498f	-0.028721599
111	0xbd6d3cf6	-0.057919465
112	0xbd0cf0bd	-0.034409273
113	0xbe0e0024	-0.13867241
114	0xbd0601e3	-0.032716643
115	0x3d752a84	0.059855
116	0xbe295932	-0.16537932
117	0x3de4ff0f	0.11181461
118	0x3e3faaea	0.18717542
119	0xbd485b6f	-0.048915323
120	0xbdb4c8e2	-0.08827378
121	0x3e11ffa7	0.1425768
122	0x3e882ea5	0.26598087
123	0xbe17aa01	-0.14810945
124	0xbd90aa24	-0.07063702
125	0xbcfae335	-0.030625919
126	0x3d84cee9	0.064847775
127	0x3d0cf2e9	0.034411345
128	0xbe043971	-0.12912537
129	0xbeb16aab	-0.34651694
130	0xbdc6e6de	-0.09712003
131	0x3e366d1e	0.17815062
132	0x3d3e9ec7	0.04653814
133	0xbd93b98a	-0.07213123
134	0xbbfe3f42	-0.0077590058
135	0x3dbc3682	0.09190084
136	0x3dc0e6bd	0.0941901
137	0x3d00b0ae	0.031418495
138	0xbe753242	-0.23944953
139	0x3b58f8e9	0.0033107346
140	0xbdc991ab	-0.09842237
141	0x3c5d25ac	0.013497751
142	0xbc65040b	-0.013978015
143	0x3d2cf5f3	0.042226743
144	0xbd54906f	-0.051895555
145	0x3d0c5a7a	0.034265973
146	0x3d9f8a45	0.07790045
147	0xba94bf36	-0.0011348489
148	0xbc0b733b	-0.00851136
149	0x3e2631f5	0.16229995
150	0x3e1167b6	0.14199719
151	0xbcf27d98	-0.029600903
152	0x3a10548f	0.0005505764
153	0x3de185e1	0.110118635
154	0xbe023cc7	-0.12718497
155	0xbeec9536	-0.4620759
156	0xbef01533	-0.46891174
157	0x3e3db434	0.18525773
158	0x3bb57c27	0.0055384818
159	0xbef2cdce	-0.47422642
160	0xbe1d67b6	-0.15371594
161	0xbe828da8	-0.254987
162	0xbe08386a	-0.1330277
163	0xbd80e1d9	-0.06293077
164	0x3e7780e8	0.24170268
165	0x3c50e610	0.012750164
166	0x3cbd4dbb	0.023108354
167	0xbe7a9b22	-0.24473241
168	0x3e2cd924	0.16879708
169	0xbb0a7630	-0.0021127574
170	0xbe8604e5	-0.2617561
171	0xbe91722c	-0.2840742
172	0xbe307bc9	-0.1723472
173	0x3dd65b05	0.10466579
174	0x3dbdeb25	0.09273366
175	0xbd0a55f5	-0.03377338
176	0x3c70e4b0	0.014702961
177	0xbdacc889	-0.084366865
178	0x3c06b030	0.008220717
179	0xbd6685ef	-0.056280073
180	0xbbaddb8d	-0.0053057135
181	0x3e89de42	0.26927382
182	0x3e6c7a52	0.23093536
183	0xbdaad1c3	-0.0834079
184	0x3e0b31f6	0.13593277
185	0xbc177ab6	-0.009245565
186	0xbce4df16	-0.027938407
187	0xb9ebd430	-0.00044980785
188	0xbde1433a	-0.109991506
189	0xbe8d55f2	-0.27604634
190	0x3dc96cb2	0.09835185
191	0x3dc2583e	0.09489487
192	0x3b1a80bc	0.0023575267
193	0x3eb95c5c	0.36203277
194	0xbe1d42ea	-0.15357557
195	0xbd331a70	-0.043726385
196	0x3d0b726c	0.034044668
197	0x3cc84a18	0.024449393
198	0xbe3f18f8	-0.18661869
199	0xbee676ae	-0.4501242
200	0xbf55140b	-0.8323371
201	0xbe33e138	-0.17566383
202	0xbe9b0f02	-0.30284888
203	0xbeae67b6	-0.340635
204	0xbb3b30c6	-0.0028563007
205	0x3e881cb6	0.26584405
206	0x3d887275	0.06662456
207	0xbdec6f9f	-0.115447275
208	0x3e4f2ad0	0.20231175
209	0x3d3b31d5	0.04570182
210	0x3c038d94	0.00802936
211	0xbe03cc91	-0.12871005
212	0x3e6a02f5	0.2285269
213	0x3dfac87c	0.122452706
214	0x3deab0a8	0.11459476
215	0x3d7b08b0	0.061287582
216	0xbdfaba9a	-0.12242623
217	0x3f019235	0.5061372
218	0xbc95ba92	-0.01827744
219	0x3f22ed4d	0.6364334
220	0x3ef4f54f	0.47843406
221	0x3e5af921	0.21384098
222	0x3e032d13	0.12810163
223	0x3d15de2e	0.03658884
224	0xbc41c0cc	-0.0118257515
225	0xbd9b9cc2	-0.075982586
226	0xbdedc0ce	-0.1160904
227	0x3e03a0f1	0.12854363
228	0x3e746760	0.2386756
229	0x3acb7860	0.0015523545
230	0xbe0b4391	-0.13599993
231	0x3e0c098a	0.13675514
232	0xbde6abc1	-0.11263228
233	0x3d1d30ed	0.038376737
234	0xbd3777f2	-0.044792123
235	0xbe6baac6	-0.23014364
236	0x3e84803f	0.25879094
237	0xbd2589b0	-0.040414512
238	0x3bc832e7	0.0061095837
239	0x3e05f062	0.1307998
240	0xbe7d408e	-0.24731657
241	0xbc90bdc2	-0.017668609
242	0x3dcf055e	0.101084456
243	0x3e0bc6ef	0.13650106
244	0x3dbdec44	0.0927358
245	0x3e7a64f8	0.24452579
246	0x3d04d276	0.032427274
247	0xbcfd5d70	-0.030928344
248	0x3d88f034	0.0668644
249	0xbdd96eb5	-0.10616819
250	0xbe084cfe	-0.1331062
251	0xbe661636	-0.2246941
252	0xbd038451	-0.03210861
253	0x3ca84d7f	0.020544766
254	0x3dd4bdd6	0.10387771
255	0x3c1e85e4	0.009675477

fc.bias f4 [64]
0	0x3ecb94fd	0.39762107
1	0xbde759af	-0.11296403
2	0xbdd2ef5f	-0.10299563
3	0xbd1c8b78	-0.038218945
4	0x3e0715cb	0.13191907
5	0xbd9b035e	-0.075690016
6	0x3d94b358	0.072607696
7	0xbecad230	-0.39613485
8	0x35c95ba0	1.5002333e-06
9	0xbf965033	-1.1743225
10	0xbe54458c	-0.20729655
11	0xbf4e3fbd	-0.80566007
12	0xbf0332c8	-0.5124936
13	0xbf4e4cf6	-0.80586183
14	0xbd4c0ef9	-0.049818967
15	0x3ea94d42	0.33066756
16	0xbf094917	-0.5362715
17	0xbf16d720	-0.58922005
18	0xbebc9020	-0.3682871
19	0xbeb027cd	-0.34405366
20	0xbc638b71	-0.013888226
21	0xbba9fc99	-0.0051875827
22	0x3ee60bc1	0.44930843
23	0xbbd50abb	-0.0065015233
24	0x3dd4515f	0.10367083
25	0xbe910f6e	-0.28332084
26	0xbf0546ec	-0.52061343
27	0x3b876583	0.004131974
28	0xbcf1c51e	-0.029512938
29	0xbebd9a58	-0.37031817
30	0xbea207cf	-0.31646582
31	0x3e0d0ba3	0.1377397
32	0xbed5e0d3	-0.4177309
33	0xbf546b67	-0.8297638
34	0x3e9fd148	0.31214356
35	0xbebe11d9	-0.37122992
36	0xbed941ca	-0.42433006
37	0xbfa57c5e	-1.2928579
38	0xbf27c18d	-0.6552971
39	0xbf231d1a	-0.6371628
40	0x3d9e7fe7	0.07739239
41	0xbf244d0a	-0.6418005
42	0x3ea282bb	0.31740364
43	0xbe4ad77b	-0.19808762
44	0xbd855593	-0.065104626
45	0xbf2fdf56	-0.6870016
46	0xbe02cb94	-0.12772971
47	0xbf46bccc	-0.7763183
48	0xbd0607c9	-0.03272227
49	0xbd353e28	-0.04424873
50	0xbeeb63d9	-0.45974615
51	0x3e56d7a0	0.20980692
52	0x3d3a4919	0.045479868
53	0x3dad3b21	0.084585436
54	0xbbba44d1	-0.005684473
55	0xbee0ef10	-0.4393239
56	0xbebebfb6	-0.3725564
57	0xbf197055	-0.5993703
58	0x3b8df550	0.004332222
59	0xbecd7cb1	-0.40134194
60	0x3e80582d	0.25067273
61	0x3dd37828	0.10325652
62	0xbf721a0f	-0.9457101
63	0xbeca3419	-0.39492872

pi.weight f4 [3, 64]
0	0xbe8c237a	-0.27370816
1	0xbd899003	-0.06716921
2	0xbe657fdd	-0.22412057
3	0x3ea2754e	0.3173012
4	0x3dd454c4	0.1036773
5	0xbd89ee40	-0.06734896
6	0x3d58d982	0.052941807
7	0xbc3c3a13	-0.011488455
8	0x3e2a1ad5	0.16611798
9	0x3f00c89b	0.503061
10	0xbebb1d43	-0.36545762
11	0xbededeae	-0.43529266
12	0xbdbfee8a	-0.093716696
13	0xbc71bebe	-0.014754949
14	0x3eb18e66	0.34678954
15	0xbe248e8e	-0.16070005
16	0x3de603f2	0.11231221
17	0xbf8f15a3	-1.1178478
18	0x3f034c5f	0.5128841
19	0x3d43a40e	0.047763877
20	0x3e8695d5	0.26286188
21	0x3ef75913	0.48310146
22	0xbdaee227	-0.08539229
23	0x3bdfc2c5	0.0068286383
24	0xbd857ccf	-0.06517946
25	0xbd3b085f	-0.04566228
26	0xbe8039c3	-0.2504407
27	0x3e2dd7a1	0.16976787
28	0xbeb34e41	-0.3502064
29	0xbd971e67	-0.07378846
30	0xbeb1489e	-0.34625715
31	0xbe934cb4	-0.28769457
32	0xbcda9195	-0.026680747
33	0xbe50f4d7	-0.20405899
34	0x3e189829	0.14901794
35	0x3f2c8243	0.67386264
36	0x3e892e0a	0.26792938
37	0x3ead709a	0.3387497
38	0x3d8e22ee	0.06940256
39	0x3d0112ee	0.031512193
40	0x3e3a6a10	0.18204522
41	0xbc403909	-0.011732348
42	0xbe252bf2	-0.16130045
43	0x3e410268	0.18848574
44	0x3df63c29	0.120231934
45	0xbe0aac99	-0.13542403
46	0xbde36e15	-0.11104981
47	0x3f4c6dd3	0.7985508
48	0xbe2ec87d	-0.17068668
49	0xbbb1aa8a	-0.005421941
50	0xbd84a727	-0.06477194
51	0xbe6f9147	-0.23395263
52	0x3e4cb4dc	0.19990867
53	0x3de30cca	0.11086424
54	0x3d8cba6a	0.06871493
55	0x3f578287	0.84183544
56	0xbef68c11	-0.48153737
57	0xbd678c29	-0.05653015
58	0xbda9d499	-0.08292503
59	0xbdfc18dd	-0.1230943
60	0x3e07d24d	0.13263817
61	0x3dc71ca2	0.09722258
62	0xbe61f11c	-0.22064632
63	0xbfa0f2e4	-1.2574124
64	0xbd50b486	-0.05095341
65	0xbe9bddcc	-0.30442655
66	0x3d6e53af	0.058185276
67	0x3e99823a	0.29982167
68	0xbd2f84d5	-0.042851288
69	0xbc2a8186	-0.010406857
70	0x3ac506a5	0.0015031887
71	0xbd5154ec	-0.05110638
72	0x3e1ffe90	0.15624452
73	0xbf169657	-0.5882315
74	0xbd7fefd3	-0.062484574
75	0x3f1929ec	0.5982959
76	0xbe682e6a	-0.22673956
77	0xbed2fb0e	-0.41207165
78	0x3e0b7996	0.136206
79	0x3d6cfb8f	0.057857092
80	0x3b8c1380	0.0042747855
81	0xbed885c4	-0.42289555
82	0x3efd0bdb	0.49423108
83	0x3dc93e43	0.098263286
84	0x3e2e88ca	0.17044368
85	0x3eeb975c	0.46013916
86	0xbe0d075d	-0.1377234
87	0xbeced827	-0.40399286
88	0xbc751b8e	-0.014960183
89	0x3e62d9d8	0.22153413
90	0x3cb0dddc	0.021590166
91	0x3d413031	0.0471651
92	0x3ec2811c	0.37989128
93	0x3e134b1e	0.14384124
94	0x3f0d9571	0.55306154
95	0xbdd94831	-0.106094725
96	0xbda92b46	-0.08260207
97	0x3e5a30e9	0.2130772
98	0x3d9555b7	0.072917394
99	0x3f2efa99	0.6835113
100	0xbf2f3155	-0.6843465
101	0xbcb28d9a	-0.021796037
102	0xbb2dfb98	-0.0026547667
103	0x3daeb776	0.08531086
104	0x3e80de6e	0.251697
105	0x3d0adc26	0.033901356
106	0xbe154334	-0.14576417
107	0xbe019bd3	-0.12657098
108	0xbeac4f84	-0.33654416
109	0x3f1c9940	0.6117134
110	0xbf0fe301	-0.56205755
111	0x3fb72282	1.4307406
112	0xbe307189	-0.1723081
113	0x3e8c5951	0.27411893
114	0x3c9b0d36	0.018927198
115	0x3d1847a6	0.037177704
116	0x3dc3a051	0.09552062
117	0xbec6a692	-0.38798958
118	0xbdf83c1f	-0.12120842
119	0x3f8738d3	1.0564216
120	0xbe55428c	-0.20826167
121	0x3e30bbea	0.17259184
122	0xbe64f362	-0.22358468
123	0x3db74ee7	0.08950596
124	0x3e32f0b9	0.17474641
125	0x3d10f7a5	0.035392422
126	0x3d5b57ff	0.053550716
127	0xbf5657f3	-0.8372795
128	0xbe1f6aa8	-0.1556803
129	0x3e81f182	0.25379568
130	0xbdc2f603	-0.09519579
131	0xbd9e0601	-0.07715989
132	0x3df6697a	0.12031837
133	0xbe373ff4	-0.1789549
134	0x3dfcff6d	0.12353406
135	0x3e1f58e9	0.1556126
136	0x3e45d584	0.19319731
137	0x3e980839	0.29693773
138	0xbde0e122	-0.10980441
139	0xbe8f759e	-0.28019422
140	0x3dc88d20	0.097925425
141	0x3e8b51c7	0.2721083
142	0x3e8c19e4	0.27363503
143	0xbd0eeb18	-0.03489217
144	0x3c69de69	0.014274218
145	0x3fae28f4	1.3606248
146	0xbe3ba3d5	-0.18324216
147	0x3e696950	0.2279408
148	0xbea48455	-0.3213221
149	0xbe839390	-0.2569852
150	0xbd148ab0	-0.036265075
151	0x3beaeeb4	0.007169569
152	0x3cbfc353	0.023408568
153	0xbd77897f	-0.06043386
154	0x3e7ef413	0.24897794
155	0x3ba07fca	0.004898046
156	0xbe34b078	-0.17645442
157	0x3e09549d	0.13411184
158	0x3e2f84a2	0.17140439
159	0xbe3d0ee0	-0.18462706
160	0x3e6f57a9	0.23373283
161	0xbdc4a837	-0.09602397
162	0xbccb4c18	-0.024816558
163	0xbf750e3b	-0.9572484
164	0x3e4f5e81	0.20250894
165	0xbe522359	-0.20521297
166	0x3efb214d	0.49048844
167	0xbeddd490	-0.43326235
168	0x3de48e68	0.11159974
169	0x3d4eedc3	0.050519716
170	0xbd79aadb	-0.060953956
171	0x3d0cd17f	0.03437948
172	0x3ed0c154	0.40772498
173	0x3c8c7e9b	0.017150214
174	0x3e8f2653	0.27958927
175	0xbf780c9d	-0.96894246
176	0xbe080183	-0.13281827
177	0xbe682b00	-0.22672653
178	0xbea15613	-0.31510982
179	0xbdceb158	-0.100924194
180	0x3e53eea4	0.20696503
181	0xbc24f04f	-0.01006706
182	0xbea11f37	-0.31469128
183	0xbf9629c3	-1.1731495
184	0xbe35cced	-0.17753954
185	0xbe0b010d	-0.1357462
186	0xbe365788	-0.17806828
187	0x3e388e6d	0.18023081
188	0xbcabf15b	-0.02098911
189	0xbdb2cb72	-0.0873021
190	0xbe97cb57	-0.29647323
191	0x3f8418ff	1.0320128

pi.bias f4 [3]
0	0x3d1fc8fc	0.039010033
1	0xbdbf1a22	-0.09331156
2	0xbd08ac56	-0.033367477
