weights/model_weights_ramp_enc.pth (torch, 30802 bytes, 12 tensors)

rnn.weight_ih_l0 f4 [96, 2]
000000 40 fe 13 bc ea 76 be 3c a7 7c a2 3d fc 28 14 3e
       -0.009032786 0.023250062 0.07933932 0.1446876
000010 62 c0 a4 bd e2 12 c4 ba 5b 3e 0a be 8e 4e 5f 3e
       -0.080445066 -0.0014959241 -0.13500349 0.2180731
000020 96 61 0a 3e 5e bb 81 bb 16 73 84 bd f9 be c2 3d
       0.13513789 -0.0039591035 -0.064672634 0.095090814
000030 3e 65 88 bd 09 f2 6b 3e be da 82 bd 0a 9a 53 be
       -0.066599354 0.23041548 -0.06389378 -0.2066423
000040 f1 1d d3 bc 56 be c8 3e 72 f2 9f 3d 4a d7 f3 bd
       -0.025771113 0.39207715 0.07809915 -0.119062975
000050 2e ec d0 3d e3 18 db 3c 5f 15 ad 3c fa 30 bb bd
       0.10201298 0.026745265 0.021128355 -0.09140201
000060 02 3c 9b 3d e8 2f 21 3e 1d 23 16 be ff 17 4b be
       0.07579805 0.15740931 -0.14661832 -0.19833373
000070 51 cb 62 be c0 7c 64 bd b8 0d cb bd 0c d0 9a 3d
       -0.22147872 -0.055783033 -0.09914726 0.07559213
000080 9a c9 b7 3d 88 b1 09 3d ed 79 13 be 91 51 56 be
       0.08973999 0.033616573 -0.1440198 -0.20929553
000090 ee ad e4 bd 5d 2b d5 bc 50 14 34 be 16 60 02 3d
       -0.11165987 -0.026021654 -0.17585874 0.031829916
0000a0 18 a0 d4 bd ef 14 23 bd 26 ef 8e bd 1c c9 8c bd
       -0.10382098 -0.039814886 -0.06979208 -0.06874296
0000b0 8b 7b 18 be a9 b2 17 3b f2 a8 6e 3e 0a bb db bc
       -0.14890878 0.0023147261 0.23306635 -0.026822586
0000c0 40 16 b6 3d 36 68 eb 3d ff c1 2a be a6 2f ab bd
       0.088909626 0.11494486 -0.16675566 -0.083586976
0000d0 d0 06 ab 3d 39 0c 48 3e 11 0f 9f 3c 67 b7 ef 3a
       0.08350909 0.19535913 0.019416364 0.0018288911
0000e0 94 f4 9a 3a 6a 11 2f 3e 54 cf 96 3c 3b 06 80 be
       0.0011822158 0.17096487 0.018409409 -0.25004753
0000f0 4c b2 aa 3d 53 3e aa bd d8 0c cb bd 6a 0d dc 3e
       0.08334789 -0.08312669 -0.09914559 0.42978984
000100 5a 3a 0d 3e ee 97 c4 3b f6 7e 02 3e 32 47 88 be
       0.1379179 0.0059995567 0.12743744 -0.26616818
000110 20 4b ef bd 15 a3 72 3e ef 8a 2c 3d 4e 66 2e bd
       -0.11684251 0.23695023 0.042124685 -0.042578034
000120 fd 90 18 bd de 14 18 3e 86 4b 63 bc 17 d7 c1 bc
       -0.037247647 0.1485171 -0.013872987 -0.023662133
000130 6f ec 38 3e 6b d1 76 3d ec 81 0e be c3 67 fc bc
       0.18058942 0.06025831 -0.13916749 -0.030811196
000140 ca 7a af 3d 41 62 d2 bd a8 7b 0c bd 15 7e 8d be
       0.08568342 -0.10272647 -0.034297615 -0.27635255
000150 e7 11 9e bd 1d 00 c8 bd c6 00 99 3c 45 08 d1 bd
       -0.07718258 -0.097656466 0.018677127 -0.102066554
000160 6a d9 33 3d 03 1a b0 3d 0a 46 f8 3d 41 b8 cb 3e
       0.043908514 0.08598711 0.12122734 0.39789012
000170 ee 9d 49 3d b3 90 28 bc a2 dc 4b 3e 18 1c ad be
       0.04922288 -0.010288405 0.19908383 -0.33810496
000180 1d b7 0e 3d 2b 27 9f 3c 28 fe 0b be 0b 0c 80 3e
       0.0348426 0.019427856 -0.13671172 0.25009188
000190 cb f4 f6 bd 6f 23 a6 be 5d ad 20 be a2 66 9a 3e
       -0.12058409 -0.3244891 -0.15691133 0.30156428
0001a0 51 fb 1b 3e 34 ff 34 bc 07 69 b5 bd cd b3 60 be
       0.15232588 -0.011047173 -0.08857923 -0.21943589
0001b0 6f fc 25 3e 55 8a 09 bd 1d f7 f9 bc b7 63 48 be
       0.16209577 -0.03357919 -0.03051334 -0.19569288
0001c0 44 51 0c 3d aa 94 de 3e 43 29 48 3d 9a 0a 0d bf
       0.03425719 0.43472797 0.048867475 -0.550943
0001d0 b4 e3 b3 bd de b3 6a bc 54 34 26 bd 6b 43 89 bd
       -0.08783665 -0.01432511 -0.040577248 -0.06702312
0001e0 6d 9c 6e be 46 6a aa 3e 00 0d 50 bd fc d5 fc 3d
       -0.23301859 0.33284205 -0.050793648 0.12345502
0001f0 41 6d d1 bc ee 23 4a 3e f0 50 0c 3e 4d 26 d6 be
       -0.025564792 0.19740269 0.1370275 -0.41826096
000200 15 e5 dd bd e3 c4 7d 3e ce 29 8a 3d 2e b7 06 be
       -0.108347096 0.24782138 0.06746255 -0.13155815
000210 b4 76 5e 3b 07 c4 a3 bc c8 1c 8c bc 08 9c 72 3e
       0.0033945264 -0.019990934 -0.017103568 0.23692334
000220 5c 0e 12 bc 86 1a c9 bd 6b 48 0c be 25 e5 5b be
       -0.008914556 -0.09819512 -0.136995 -0.2147413
000230 dc 72 bc bc 72 60 20 be 17 4b 2b bd d0 a9 67 3e
       -0.023003988 -0.15661791 -0.041819658 0.22623372
000240 29 ce 0a bd 7d 22 11 be 89 68 12 bd 14 c6 94 be
       -0.033888016 -0.14173312 -0.035744224 -0.29057372
000250 f0 87 df 3d 77 7e 89 3e 26 51 d2 bc 1c 75 e5 be
       0.109146 0.26854298 -0.02567346 -0.4481591
000260 2b 00 d4 ba fa 85 b7 bd c6 02 6f 3d 72 0d bd 3b
       -0.0016174366 -0.08961101 0.058352254 0.005769425
000270 21 cf 7b 3d da f7 3f 3e 44 0b 6b bd f5 f4 16 be
       0.06147683 0.18746892 -0.05738379 -0.14741881
000280 3e d0 ab bd 09 9c 4f 3e e8 2f d1 3c 37 67 15 be
       -0.083893284 0.20274366 0.025535539 -0.14590155
000290 3a ed 2f bb 7b 13 29 3e d6 34 b0 3a d4 4c 91 bd
       -0.002684428 0.16511337 0.0013443481 -0.07094732
0002a0 18 71 5a bd 50 0a b5 be 5f ee 48 bd 6b 7e ae 3e
       -0.05333051 -0.3535943 -0.049055453 0.34080824
0002b0 75 b2 0f 3d f4 26 8d 3e 4f 04 07 bd 2c 2f b8 3e
       0.0350823 0.2756878 -0.032963093 0.3597349
0002c0 ae 4b 8d bd ee 07 8d 3d a9 6f 50 3d 8d 4e d8 be
       -0.068992004 0.06886278 0.050887737 -0.4224743
0002d0 96 8b 44 bd 21 ee 38 bc 68 3d a5 ba 18 9e 2c 3e
       -0.047984682 -0.011287243 -0.0012606801 0.16857183
0002e0 7d 46 db 3c 9c 3e 0b bd bc fe 80 3d 8c 84 49 3e
       0.02676701 -0.033995256 0.06298587 0.19679469
0002f0 e2 02 a7 3d dc ec 2a be 63 c6 88 bd 78 c4 72 be
       0.08154847 -0.16691917 -0.06678464 -0.2370776

rnn.weight_hh_l0 f4 [96, 32]
000000 e8 f5 c5 3d a0 bd 95 3d 03 01 d5 bc 9a 19 10 3e
       0.096660435 0.07311559 -0.026001459 0.14072266
000010 1d 0c 94 bd 85 55 79 3d 9c 74 2a 3e 63 fc 9a 3d
       -0.07228873 0.060872573 0.16646045 0.0756767
000020 08 af f1 ba d9 45 82 bd 49 44 7d 3c f7 1c ea 3d
       -0.0018439004 -0.06360979 0.015458175 0.11431306
000030 38 d5 d7 bd 3c 30 87 bd 17 45 8e bd 8c 5d 9d bd
       -0.10538715 -0.06600997 -0.069467716 -0.07683858
000040 d0 0a 09 bd d8 7a 33 bd c7 dc 7d 3d 12 18 32 be
       -0.033457577 -0.043818325 0.061978128 -0.17391995
000050 de 27 2e 3e 2e bc b8 3d 34 40 36 3d 58 37 f9 3d
       0.17007396 0.090202674 0.044494823 0.12168759
000060 00 9c c8 3d 05 b4 2d bd 9e 7a b0 bd 7e f0 01 be
       0.0979538 -0.042408008 -0.08617137 -0.12689397
000070 1e 65 30 bd cb 49 da 3c 54 1f 8d bd 2b d3 e9 bd
       -0.043065183 0.026646515 -0.06890741 -0.1141723
000080 43 7a 31 be 2f 7a a6 bd c1 e8 16 bd aa 36 a0 3d
       -0.17331795 -0.081287734 -0.036843065 0.07822926
000090 b1 7c f2 3d a5 4a cb bd 83 db 7e bd 9e d6 11 3d
       0.11840189 -0.09926347 -0.06222106 0.035605066
0000a0 2f e1 c0 3d 6f 41 a7 bb 7e 9d 0e 3e 8e 08 94 3d
       0.0941795 -0.005104236 0.13927266 0.07228194
0000b0 a4 20 23 bd 0c cd d0 bd c2 fd ab 3d d7 3a 89 3d
       -0.03982605 -0.101953596 0.0839801 0.06700676
0000c0 79 93 dd bc 09 1e 2d be 3a ce 9a bd 36 a7 15 be
       -0.02704786 -0.16905989 -0.07558866 -0.14614567
0000d0 98 49 1d 3d bc e1 32 3d a7 f4 94 3d 68 64 a6 3d
       0.038400263 0.04367231 0.07273226 0.0812462
0000e0 96 db 91 bd 45 4b 0a 3e 80 34 0b bc 25 06 33 be
       -0.07121961 0.13505276 -0.008496404 -0.17482813
0000f0 b4 4a b8 3d e3 0d 91 3c 8c 14 3d 3d a7 36 db 3d
       0.089986235 0.017706817 0.046162173 0.107037835
000100 c9 04 04 3e 01 dd a8 bd 92 c0 20 3e bb 29 84 bd
       0.1289245 -0.08245278 0.1569846 -0.06453272
000110 d3 88 32 3e 14 66 45 bd 12 f7 9f bd 4a 67 8b 3d
       0.17435007 -0.048193052 -0.07810797 0.0680681
000120 6d c1 84 3d 89 e8 37 bd e5 17 d2 bc 15 f5 2a be
       0.064822055 -0.044899497 -0.02564616 -0.16695054
000130 8f e7 26 3e 44 75 20 3d b3 c8 a1 bc a1 a7 e0 3d
       0.1629927 0.039174333 -0.019749021 0.10969473
000140 06 6c cd 3d 91 fa cc bd bf d2 0c 3e 7d 28 37 3d
       0.100303695 -0.10008729 0.13752268 0.044716347
000150 d8 36 d4 3d 18 6a 22 be af df b3 bd b6 39 55 3d
       0.10362023 -0.15860784 -0.08782899 0.05205699
000160 9e 82 1b be 3b a7 9d 3d 59 d5 0a 3e 35 a2 3e bc
       -0.15186545 0.07697912 0.13557948 -0.011635353
000170 55 36 e1 3d 2b 59 0b be 71 ea be bd d7 96 09 3c
       0.10996691 -0.13608234 -0.0932206 0.008397779
000180 eb 40 1c 3d 47 b6 00 be 8d 0b 18 3e 17 cb 08 be
       0.038147848 -0.12569533 0.14848156 -0.13358723
000190 78 6d 21 be e3 84 2b 3e d3 17 e2 bd 66 4d 85 3d
       -0.15764415 0.16749911 -0.110397 0.06508903
0001a0 1b e5 f3 3d b7 d5 55 3c dc d1 e6 3d 18 50 62 bd
       0.11908933 0.013051442 0.11270496 -0.055252165
0001b0 f9 11 a2 3d 6a ea a8 bd 2f 9a 92 bd 58 f0 ea bd
       0.07913584 -0.08247836 -0.071583144 -0.11471623
0001c0 9c 5e 88 3c 48 da ea 3d 86 de 1f be af 62 d2 3d
       0.016646676 0.11467415 -0.1561223 0.10272729
0001d0 9b c9 83 bc b4 36 32 bb 1c 06 45 bd eb 69 34 be
       -0.016087344 -0.002719325 -0.04810153 -0.1761853
0001e0 ec b1 f2 bc 5f fa de bd fd 59 5f bd f9 fc dd bd
       -0.029625855 -0.10887598 -0.05452918 -0.10839266
0001f0 bb 15 df bb 6f e4 1d be 4c c2 cc 3c 38 25 1e ba
       -0.0068080104 -0.15419172 0.024994992 -0.00060327677
000200 3a e5 9d bd 4c b5 45 bd 00 b3 2b 3e 60 9f d4 bd
       -0.07709737 -0.0482686 0.16767502 -0.10381961
000210 f3 46 ce 3d b3 2b c9 3d 6d 03 1e 3e 0a 23 40 3d
       0.10072126 0.09822788 0.15430994 0.046908416
000220 c9 5f 1b 3e c7 3e 0a 3e 9e c7 04 be d3 ac 96 bd
       0.15173258 0.1350051 -0.12966773 -0.07357182
000230 2f f1 18 be 08 1b 05 3e 5d 38 f0 bd 17 53 87 3d
       -0.14935754 0.12998593 -0.117295004 0.06607645
000240 c9 ea 0d be 6e f1 cc 3d ee f9 d6 bc f3 83 32 3e
       -0.13859095 0.100069866 -0.026242223 0.17433147
000250 af b0 ff 3c c2 1f 31 be bc 37 09 3c dd 87 52 3d
       0.031212179 -0.17297271 0.0083751045 0.0513991
000260 e9 d4 85 bd fa a4 30 bc c4 e8 ad 3d eb 7f 61 bc
       -0.0653475 -0.010781521 0.08491662 -0.013763408
000270 ef fb 1a be a8 8d cb bd 47 ea 92 bd a3 5a 9c 3d
       -0.15135168 -0.09939128 -0.07173591 0.07634475
000280 9b 38 13 3e 4e 49 8f bd e1 fa 00 bd aa dd 33 be
       0.14377062 -0.06996404 -0.031489257 -0.17565027
000290 4c be 29 be 34 85 07 3e e5 44 d0 3c c1 98 aa 3d
       -0.16576499 0.13234407 0.025423476 0.08329917
0002a0 e6 2e 2b be 78 4e 75 bd fc 6c cf bd 6f 2d 8e 3c
       -0.16717109 -0.059889287 -0.10128209 0.017355649
0002b0 be 7b 23 3e 81 16 52 bd 49 ab 5a 3d 11 4a e1 3d
       0.15965173 -0.051290993 0.053386007 0.11000455
0002c0 51 0d 3a bd bd 2b bf 3b f4 61 a6 bd 0e b3 31 be
       -0.045422856 0.0058340714 -0.08124152 -0.1735346
0002d0 3b 58 b1 3c b1 31 cc bd 82 35 00 bc 48 c3 19 be
       0.021648517 -0.099704154 -0.007825257 -0.150159
0002e0 d3 2b 68 3d 27 e0 d6 3d a8 6b 2b be 35 59 1f 3d
       0.05668242 0.104919724 -0.16740286 0.038903434
0002f0 c0 a6 a9 3d c3 f5 b5 bd 2e 7d 2c be 5b cc 0b 3e
       0.08283758 -0.08884766 -0.16844627 0.13652174
000300 ed e9 09 3c ea 53 32 3d bd 71 09 3e c4 75 45 3d
       0.008417589 0.043537058 0.13422294 0.048208013
000310 c7 6f 63 bb 5e 65 ca bc 42 9a 2f 3e 88 14 9f bc
       -0.0034704076 -0.024706539 0.17148688 -0.01941897
000320 6c 05 ca 3c 6d 9f 9c bb 6a 61 97 3d ac 12 e9 bc
       0.024660788 -0.004779747 0.07391627 -0.028451286
000330 c2 af 21 be 55 4b a7 3d c4 a6 06 3d 46 31 a0 3c
       -0.15789703 0.08168665 0.032873884 0.019554745
000340 2e 57 06 be 77 98 ea 3c 81 37 d0 bd fe 30 a5 3d
       -0.13119194 0.028637154 -0.101668365 0.08065985
000350 24 6c 22 3e 28 7c 1b 3e 3e cd 68 3c b4 f4 80 bd
       0.15861565 0.1518408 0.01420909 -0.062966734
000360 8c 81 e8 bd 5d f7 84 bc 87 40 2b 3c 81 4d 45 3d
       -0.11352834 -0.016231233 0.010452396 0.048169617
000370 7e 6c 24 bd 27 a1 b9 bc e8 d9 87 bd b9 d4 fb bc
       -0.04014253 -0.022659851 -0.06633359 -0.030741083
000380 8c 86 35 3d f5 07 f5 bd 13 61 13 3e a0 c7 30 3d
       0.044317767 -0.11964408 0.143925 0.043159127
000390 45 44 3f bd 1f 27 b7 bd 8e 21 2e be 01 71 17 be
       -0.046695966 -0.08943009 -0.17004988 -0.14789201
0003a0 95 10 99 3d 82 32 7b bd de 74 11 be 37 3e aa bc
       0.07473866 -0.061327465 -0.14204738 -0.02078162
0003b0 69 c4 e0 3d db be 4b bd 01 78 31 3d 85 c7 70 bd
       0.10974962 -0.04974256 0.043327335 -0.058784027
0003c0 a4 d0 2f 3e dd ef dc bc 0a 2d 9e bd 54 c5 1b 3d
       0.17169434 -0.026969844 -0.07723434 0.038029984
0003d0 44 16 a5 bd 9c 97 dc bd 97 2e 93 3d d2 c2 10 be
       -0.080608875 -0.10771105 0.07186621 -0.14136818
0003e0 91 64 92 bd 75 ed 8e bc 74 d7 89 3b 2e 22 1a 3e
       -0.07148088 -0.017447213 0.004206592 0.15052101
0003f0 4d 82 03 be ef 04 2f 3b cd 5d 84 3d dc 0a 41 bd
       -0.12842675 0.0026705822 0.064632036 -0.047129497

rnn.bias_ih_l0 f4 [96]
000000 0d 0d 97 bd 54 11 a1 bd 62 96 22 be 80 28 30 3e
       -0.07375536 -0.07864633 -0.15877679 0.1720295
000010 ff 91 45 be 89 ec 8d 3c dd bc f2 3d 67 b9 bb bc
       -0.19293974 0.017324703 0.11852429 -0.022915555
000020 10 28 04 3e f6 90 43 be e9 ca ca bb 8b fc 46 3c
       0.12905908 -0.19098267 -0.0061887396 0.012145172
000030 8c 19 45 3d 26 00 39 3e 66 3b 54 3c 23 d1 44 3e
       0.048120067 0.18066463 0.012953615 0.19220404
000040 cb c8 d3 3d 52 69 fb bd b0 9e 8d be 79 90 18 be
       0.103410326 -0.12275948 -0.2766013 -0.14898862
000050 12 e0 94 3d 71 1f 37 be 80 e3 ee bd 72 dc 15 be
       0.072693005 -0.17883088 -0.11664486 -0.14634874
000060 be 0c 06 bd 74 ae be bd 0f b0 f6 3d 3e e3 1e bd
       -0.032726996 -0.09310618 0.12045299 -0.038790934
000070 5b 39 9c bd d9 6e e4 bc fd 69 e0 bd 68 9e 0a be
       -0.07628127 -0.027884888 -0.10957716 -0.1353699
000080 9c 6d 16 3b cb 7a 0f be 15 86 ea 3b 07 c4 23 be
       0.0022953516 -0.14011686 0.007157097 -0.15992747
000090 e5 78 4a 3e ef ed de 3b da 8c 6a 3d 6f 8c 7c bd
       0.1977268 0.0068032662 0.057263233 -0.061657365
0000a0 9e 07 81 3c 1f 4d c2 bd 34 98 5c be 54 de 01 be
       0.015750702 -0.09487366 -0.21542436 -0.12682468
0000b0 32 f2 85 bd 2a ff 8a 3e 53 f0 68 3d 6f 9f f9 bc
       -0.06540336 0.271478 0.056869816 -0.030471532
0000c0 c8 72 21 be 28 dd 08 bd 61 1a ba 3d ef 76 d5 3d
       -0.15766442 -0.033414036 0.090870626 0.104230754
0000d0 22 2f 09 3d 2a 7b 4a bd d3 50 31 bd 81 9a 65 be
       0.033492215 -0.049433865 -0.04328997 -0.2242222
0000e0 70 fb 45 3b 4a 5a 0f be ce 78 97 3d 05 c2 11 be
       0.0030209683 -0.13999286 0.073960885 -0.14234169
0000f0 f1 db 42 3e df 71 87 3d 91 5f 87 bd 90 d0 4a be
       0.19029213 0.06613516 -0.06610025 -0.19806123
000100 5b bb f1 3d 4d f3 7f be 56 c9 b3 3c a1 46 bd 3d
       0.11803313 -0.24995156 0.02194659 0.09241987
000110 ae 3d 39 3d 81 1a 16 be 79 3e e2 3c 61 8c 29 3e
       0.045224838 -0.14658548 0.02761768 0.16557457
000120 d3 59 f7 bd 1a e8 37 be 7c a3 4c 3e 3d e3 ba bd
       -0.120776795 -0.17959633 0.1998424 -0.091253735
000130 6e 8d 8e 3d 9c b4 9c bd 43 5d 23 3e 61 29 37 be
       0.06960569 -0.07651636 0.15953545 -0.17886879
000140 9b 97 15 3e f8 38 37 bc 42 ae 4d 3e 9d ea b1 3d
       0.14608614 -0.011183016 0.20086005 0.08687327
000150 93 b3 5c be d0 01 37 3e 63 5e a9 bd 7c 11 df 3d
       -0.21552877 0.17871785 -0.08269956 0.10892007
000160 d4 9f bd bd bc cf 87 bd 9a 5c d0 3d 9d 0f 4a 3e
       -0.092590004 -0.06631419 0.10173912 0.19732518
000170 3d 4d 86 3b b3 57 03 be 12 14 db 3d 4f 67 63 be
       0.004098563 -0.12826423 0.106971875 -0.22207378

rnn.bias_hh_l0 f4 [96]
000000 37 85 48 be 9e 85 b3 3d 91 27 d0 3c 61 32 84 3d
       -0.19582067 0.0876572 0.025409492 0.064549215
000010 43 cd 2c be 7f 1d 12 3e a9 a6 0b 3e 03 d4 19 be
       -0.16875176 0.14269064 0.13637795 -0.15022282
000020 ab b9 d2 3d 1f f9 da 3c ed 01 ae be 63 23 8b be
       0.102893196 0.026730118 -0.33985844 -0.27175435
000030 32 f5 b5 bd df a4 88 bc c2 41 f3 3c f7 b7 15 3e
       -0.08884658 -0.01668018 0.029694442 0.14620958
000040 51 11 94 bd 7b 4a e4 bd 22 bb 67 be 78 dc 6e bc
       -0.07229865 -0.111470185 -0.22629979 -0.014578931
000050 f9 83 54 be 3d 71 4a be 94 98 f5 bd ca 0a da be
       -0.20753469 -0.1976976 -0.119919926 -0.42586356
000060 39 f3 62 3d de 65 82 be d1 3b d0 bb 88 d2 8b be
       0.055407736 -0.25468343 -0.006354787 -0.2730906
000070 6b 6f 89 bd 04 e4 37 be a3 e2 0c be ac 6e c4 bd
       -0.067107044 -0.17958075 -0.1375833 -0.095914215
000080 88 4e ee bc d2 a3 58 be 60 f9 99 3d a4 f4 80 be
       -0.029090181 -0.21156242 0.07518268 -0.25186646
000090 cd e4 ab 3b 22 7d 58 bd 23 b5 b5 3d d4 3f c8 bd
       0.005245781 -0.05285371 0.0887244 -0.09777799
0000a0 85 f0 f4 bd d0 8b bc bd 25 34 b4 bd bc 61 a1 3b
       -0.11959938 -0.092063546 -0.08799008 0.004924981
0000b0 8a 40 6a bd 37 0f 83 3e 99 87 ab 3d 2f fe a9 bd
       -0.057190455 0.25597546 0.083754726 -0.08300435
0000c0 95 7e cc bd b2 3b 06 bd 26 3c 64 bd 31 73 7f bd
       -0.09985081 -0.032771774 -0.055721425 -0.062365714
0000d0 16 3d 85 be e0 4a 15 be 14 17 93 3d 57 71 69 be
       -0.26023167 -0.14579344 0.07182136 -0.22797142
0000e0 65 1e 19 3e c4 70 4f bd b6 c9 31 3e 93 ab 26 be
       0.14953001 -0.05064465 0.17362103 -0.16276388
0000f0 51 82 87 bd 40 58 26 3e 25 49 3c 3e 7e 5a 41 be
       -0.06616653 0.16244602 0.18387277 -0.18882176
000100 49 ac 24 bb ac 6a fa bd 79 71 b1 bc 25 6b 16 3e
       -0.0025127104 -0.12227377 -0.021660553 0.1468931
000110 42 21 5d 3d 7f 36 28 bd 4b 3b 06 be f5 44 74 bd
       0.053986795 -0.041067597 -0.13108556 -0.059636075
000120 17 70 9e bd b4 8f 08 3e e1 01 be ba 7c 77 aa 3d
       -0.07736223 0.13336068 -0.001449641 0.08323571
000130 30 b7 12 be 19 fd 63 3e 1b 9a e3 3d d1 81 14 be
       -0.14327693 0.22264518 0.11113378 -0.14502646
000140 15 5f 4e 3e 29 30 59 3d dc 0c a8 bd 90 e9 9c bd
       0.20153458 0.053024445 -0.08205578 -0.07661736
000150 a5 c0 51 bd f5 c6 6c bd 6b 64 bc 3c ef 1f 4d 3b
       -0.05120911 -0.057806928 0.022997102 0.0031299551
000160 61 16 c7 3d 16 3e 00 3d e4 7a 2b 3e 15 6d 12 bd
       0.09721065 0.03130921 0.16746098 -0.03574856
000170 11 f4 63 be 5a 88 b8 bc 29 55 b2 3d d2 94 ca bd
       -0.22261073 -0.022525955 0.08707649 -0.098916665

fc.weight f4 [64, 39]
000000 48 be bc be bb df d6 3c be 18 45 bc 56 db 87 3d
       -0.36863923 0.02622973 -0.012029825 0.06633632
000010 cd 02 a7 3b b9 10 bd 3c 31 c7 2c bd 2a d1 25 bd
       0.0050967694 0.023079263 -0.04218215 -0.040482678
000020 c7 fc 58 3e 02 6a 33 3d 42 fb 42 be 55 71 ce 3d
       0.21190177 0.04380227 -0.1904116 0.1008021
000030 1d 58 df 3d b2 f4 54 3e bb d8 27 be 58 74 c1 3d
       0.10905478 0.20796469 -0.1639127 0.09446019
000040 09 66 bb be 0c 96 87 3e 07 98 86 bd 15 6f c5 3e
       -0.36601284 0.26481664 -0.06571966 0.3856131
000050 ef 64 ca 3e 07 be bf be 68 66 34 be f4 68 be bd
       0.3953013 -0.37449667 -0.1761719 -0.09297362
000060 84 ae 75 be 89 42 ed 3c 4a 1b 8c be 72 97 31 be
       -0.23992354 0.02896239 -0.2736457 -0.17342928
000070 79 c0 86 3d e4 d5 2e 3d fb 8c 45 3e e0 ba 96 3e
       0.0657968 0.04268445 0.19292061 0.2943945
000080 e1 e7 89 3e 21 eb 51 3d 18 31 84 3e d5 d4 3e be
       0.26934722 0.051249627 0.25818706 -0.18635876
000090 e5 78 96 be bf 86 6d 3d 7b 0e f6 3e ec 93 f3 bd
       -0.2938911 0.057989832 0.48057923 -0.11893448
0000a0 0d f0 83 ba 14 ff e9 b9 2a 34 ae be a4 f8 68 bd
       -0.0010066048 -0.0004463127 -0.34024173 -0.056877747
0000b0 d1 09 24 bd 1f 9e 6d 3e 0d 5d ae bc 69 16 ca bd
       -0.040048424 0.2320485 -0.021284604 -0.09867556
0000c0 fb ca 82 3c 44 ff 99 be c7 8f 44 3e a0 a8 82 bd
       0.01596593 -0.30077565 0.19195472 -0.06379819
0000d0 94 3e 92 bd a1 fb a0 bd 75 26 27 bd 3c a5 de bd
       -0.07140842 -0.078604944 -0.04080816 -0.1087136
0000e0 d2 bf 0c bd fb 53 99 be e6 c5 73 3c d2 09 42 3e
       -0.03436262 -0.29946885 0.014878726 0.18949059
0000f0 de 44 ec bd 85 8b fa bd 0c 16 2b be ee 6f d8 bc
       -0.11536573 -0.122336425 -0.16707629 -0.02642056
000100 73 11 05 3e ef 14 a7 bc a9 1e 0f bd 0b 07 8b bd
       0.12994938 -0.020395724 -0.03494135 -0.06788453
000110 80 1b 16 be ec bc 02 be 2e ff 88 3d cf 38 ce 3c
       -0.14658928 -0.1276738 0.06689297 0.025173573
000120 13 3a 17 3e a3 69 e1 bd ad 45 b8 be 53 fe 19 bd
       0.14768247 -0.11006477 -0.35990658 -0.037596058
000130 60 76 97 be f6 dd 48 3e e0 d2 51 3d 1e 74 9a be
       -0.295825 0.19615921 0.051226497 -0.30166715
000140 ff 27 a6 bc 91 f0 01 be da f1 b2 be ee 66 44 3c
       -0.020282743 -0.12689425 -0.34950143 0.011987431
000150 ad e5 51 be 91 39 78 3e 79 86 76 be f0 ed 90 be
       -0.2049777 0.2424071 -0.24074735 -0.28306532
000160 a6 71 6d 3c 87 13 6c be 03 61 8c be bc 7b 05 be
       0.014492428 -0.23054324 -0.27417764 -0.13035482
000170 3f 51 4e 3e 94 9f ca bd 2c d4 14 bd 8f ab 7d be
       0.2014818 -0.09893718 -0.036335155 -0.24772476
000180 00 3a b9 3d 09 59 88 be c0 03 a0 be 47 e3 10 bd
       0.09044266 -0.26630428 -0.3125286 -0.035373
000190 3d d1 95 bd eb ed 0c 3c 0a 09 2a be 9a c4 7a be
       -0.073153 0.008601646 -0.1660501 -0.2448906
0001a0 d4 de bd bd 9e 4f c9 3c 4b e3 5f 3e 73 ef 28 3e
       -0.09271017 0.024574097 0.21864049 0.16497593
0001b0 80 9a 67 bd 45 bf a0 be 91 53 3b be aa a9 18 bc
       -0.056543827 -0.31395927 -0.18293597 -0.009317795
0001c0 da 4e 9c 3d 58 2b 23 3e 4c f5 a0 3e 9e 45 be 3e
       0.07632227 0.15934503 0.31437147 0.3716249
0001d0 b3 80 07 3f fc 34 80 bd 70 a6 a7 3e cd ad 29 bd
       0.52930754 -0.06260106 0.3274417 -0.041425515
0001e0 aa b1 c0 be e1 f1 f7 3c 9e af c4 3d f1 68 93 3e
       -0.37635547 0.030266704 0.09603809 0.28791
0001f0 95 b8 10 be 2b 66 05 3e 11 39 3c 3e 33 1c 24 bd
       -0.14132912 0.13027255 0.18381144 -0.040065955
000200 3d 5d b5 3e c2 4e d9 3d cf 33 24 be e9 53 c7 be
       0.35422698 0.10610725 -0.16035388 -0.38931206
000210 8f 24 45 3c 3e 2f 2b bb 7e dc 96 bc ce d2 81 be
       0.012032642 -0.0026120688 -0.018415686 -0.25356144
000220 36 13 8e 3e 5a 02 62 3d 4e 3b 1b 3d 27 c6 38 be
       0.27749032 0.055178024 0.037898354 -0.18044339
000230 5c 5d 8b bd 22 c0 c7 3c b7 09 9d 3e fb 00 b0 be
       -0.06804916 0.024383608 0.30671474 -0.34375748
000240 ce de 8c be 92 62 12 bd 94 88 75 3e 0f 3e f8 3d
       -0.27513736 -0.035738535 0.23977882 0.12121212
000250 5a b3 96 3e fe 83 6a 3d f4 e4 aa bd 51 da 9d be
       0.2943371 0.057254784 -0.083444506 -0.30830625
000260 bd 67 9a bc 02 73 6e bd 91 3b 84 be 54 7a c4 bc
       -0.018848294 -0.05821515 -0.25826696 -0.023984112
000270 06 91 2f 3e 3c 17 b7 3c a9 0a 1d 3d 98 87 09 3d
       0.17145166 0.022349946 0.038340244 0.033576578
000280 94 d2 23 be 50 45 bf bc bc ec e8 bb de 08 71 3e
       -0.15998298 -0.02334848 -0.007108299 0.23538539
000290 c4 64 48 3c c0 7c eb 3c 2d e9 3f 3e b3 14 7d bd
       0.012231056 0.028746009 0.18741293 -0.06178732
0002a0 b0 c7 be bd 39 1e bb bd 0d 4c f3 bd 39 39 99 3d
       -0.09315431 -0.09136624 -0.1187974 0.074816175
0002b0 e8 c0 63 3e 6e f3 41 bd 32 45 88 3e 3f 9b 47 3c
       0.22241557 -0.047351293 0.26615292 0.01218301
0002c0 09 c1 b0 bd e9 2b 03 3e 72 8e 03 3e 43 33 96 3e
       -0.086305685 0.12809719 0.12847307 0.29335985
0002d0 46 14 31 bc ff 20 45 be 91 6b c0 3b e6 23 d0 bc
       -0.010808056 -0.19250868 0.005872198 -0.025407743
0002e0 33 1c 00 be c5 7d 17 be dc ab 95 bc a8 03 9c be
       -0.12510757 -0.14794071 -0.018270425 -0.3047154
0002f0 67 69 a0 be 47 84 ae 3e df 67 ca 39 e0 75 3e 3d
       -0.31330416 0.34085295 0.00038605832 0.046499133
000300 e8 2e d0 bd 73 64 f4 3d 20 c1 10 3e 84 e7 8c bc
       -0.10165197 0.11933222 0.14136171 -0.017200239
000310 74 f3 15 3e 80 77 63 3e 69 9c 51 be 26 c4 a2 3e
       0.14643651 0.22213554 -0.20469822 0.31790274
000320 77 ea 51 3e 1b c3 f0 3c ce d0 8c be 35 5e b2 3c
       0.20499597 0.029389909 -0.27503055 0.021773437
000330 97 9c a8 3e 59 f3 89 bd 22 90 19 3e 52 5d f5 3a
       0.3293197 -0.06735868 0.14996389 0.0018719828
000340 63 ce 19 3e b7 de 12 3e 2a fe 99 3d fd 4a 38 be
       0.15020137 0.14342771 0.07519181 -0.17997356
000350 f4 8f a5 3d 29 93 37 3d 69 2a 54 3e bc 4d 73 bd
       0.080840975 0.044818077 0.20719303 -0.059400305
000360 f6 16 94 be 0e f5 71 be 35 2e 9d be 46 c2 18 3e
       -0.28923768 -0.23628637 -0.30699316 0.1491786
000370 21 19 d6 bd 82 a9 6e be d4 46 02 3e a4 7c 55 be
       -0.10454012 -0.2330685 0.12722331 -0.20848328
000380 79 ce 8c be d0 51 a1 3d 17 f2 4e 3e 76 3e 5d 3e
       -0.27501276 0.078769326 0.20209537 0.21605858
000390 06 f7 3d bd 6a 64 09 bd 50 92 da 3d 9a f9 7e be
       -0.046378158 -0.033543028 0.10672438 -0.24899903
0003a0 a4 a1 98 be f7 64 19 3f 9c 69 76 3e 32 1a c7 bd
       -0.29810822 0.59919685 0.24063724 -0.09721793
0003b0 13 a7 0a 3e 95 e7 c1 3d 44 15 af be 80 5b 87 be
       0.13540296 0.09467999 -0.34195912 -0.26436996
0003c0 8c d7 e9 bd 69 64 85 3e 16 58 24 be 06 b5 80 be
       -0.114180654 0.2605317 -0.16049227 -0.2513811
0003d0 73 cd 03 bd 2b cc f3 3d de da 9b be 9c ad 5c be
       -0.032178354 0.11904176 -0.3044042 -0.21550602
0003e0 71 1b ac 3e 5e 15 80 be 51 05 ad 3a 76 89 06 bd
       0.33614686 -0.25016302 0.0013200437 -0.032845937
0003f0 ca 1f 53 3e 1e 4e ca bc e7 37 65 bd 42 78 23 3d
       0.20617595 -0.024695452 -0.055961516 0.03990961

fc.bias f4 [64]
000000 98 93 80 be d5 50 37 be 1e b8 d4 3d 66 ae 75 be
       -0.25112605 -0.17901929 0.1038668 -0.23992309
000010 0f 0b 28 3e 52 ca 56 be ef 92 03 3d 43 68 44 bd
       0.16410469 -0.20975617 0.03212255 -0.047950994
000020 45 64 99 3d 7f a4 58 bc e5 5b 0e 3e 31 86 ac bb
       0.07489828 -0.013222813 0.13902242 -0.0052650203
000030 eb 30 42 be bd 5b 89 bc 32 80 41 3c fd 15 3f bd
       -0.18963973 -0.016767377 0.011810349 -0.04665183
000040 ad d9 c4 3c 9c 8c 1c 3e e3 26 a6 bc 70 ba 53 3d
       0.024029577 0.15288013 -0.020282215 0.051691473
000050 98 c8 02 be 87 7a c8 3d 7e e9 03 be df b5 72 bd
       -0.12771833 0.09788995 -0.12882039 -0.059255477
000060 b3 77 12 bd 1c 5e 39 be 5a f0 03 3e 53 8e 0c 3e
       -0.035758685 -0.18102306 0.12884656 0.13726167
000070 4a 4c 81 3c 15 4b c4 bd 38 75 93 bd e7 62 3e 3e
       0.015783448 -0.09584633 -0.07200092 0.18592416
000080 8c 52 5f bd 5f 5d ea 3d 5c b7 15 bc 15 e0 62 3e
       -0.054522082 0.114435904 -0.009137955 0.22155793
000090 2d c8 08 3e f2 01 7c bc b1 2b 9b bc a9 44 44 3e
       0.13357611 -0.015381323 -0.018941732 0.19166817
0000a0 9b c2 89 3d 07 f1 12 bb 15 c1 09 3e 8e 07 4c be
       0.06726571 -0.0022421496 0.13452561 -0.19924757
0000b0 f6 e9 18 bd 92 1a a2 3d 3c 13 6f be e2 c2 9f bd
       -0.037332498 0.07915224 -0.23347181 -0.07800843
0000c0 78 0d 40 3e cf 60 b5 bd a0 3f 10 3e e7 ef 86 3d
       0.18755138 -0.088563554 0.14086771 0.065887265
0000d0 93 c1 84 3c bf 1d 6f bd 5b 66 06 be 6c aa fb bc
       0.016205585 -0.058377977 -0.13124983 -0.030720912
0000e0 53 e4 19 be 9a 81 68 be 3a c2 03 3e 21 aa 03 be
       -0.15028505 -0.22705689 0.1286706 -0.12857868
0000f0 d5 38 3c 3d 5b 77 90 be 70 82 2e bd 63 ca 34 3e
       0.045952637 -0.2821606 -0.042604864 0.1765533

pi.weight f4 [3, 64]
000000 fa 00 62 3e fa fc 17 bd 77 f8 0b 3e b8 e3 65 be
       0.22070685 -0.03710649 0.13669 -0.22450149
000010 a3 c0 84 be fe df 13 3e f9 1a 4f 3e 03 74 3b be
       -0.2592822 0.14440915 0.20225133 -0.18305974
000020 e2 b6 ef 3d 23 34 34 3e c4 c0 6b be f0 52 35 bc
       0.11704804 0.17598014 -0.23022753 -0.011067137
000030 73 ce 35 3e 5b 37 e7 bd 17 02 a3 3d 0c b0 d2 bd
       0.17754535 -0.11289855 0.07959383 -0.102874845
000040 5b 18 21 bd 6a 79 71 3e 03 1e 4d 3e e8 c4 17 be
       -0.039329868 0.23581472 0.2003098 -0.14821208
000050 f3 19 16 3e 4a d6 1e 3d 5c b7 bf bd 5c e1 bb 3d
       0.14658336 0.03877858 -0.09361145 0.09173843
000060 6d 4e a0 3d 51 a3 27 3e 10 58 16 3e 92 cb 23 3e
       0.078274585 0.16370894 0.1468203 0.15995625
000070 bb c5 d7 3d fb e8 81 3e eb 9d 87 be 9e 17 8b 3e
       0.10535761 0.25373062 -0.2648767 0.27166456
000080 c4 64 99 3e 55 48 1a be 8a 3e fd bd ec 2a 65 3e
       0.2995969 -0.15066655 -0.12365444 0.22379655
000090 6e e8 98 3e 29 05 5b be b5 b7 21 3d 2a 5f 01 bd
       0.2986483 -0.21388687 0.039481837 -0.031584896
0000a0 b0 71 ba 3a 96 67 e9 3a 02 53 7f 3b c1 92 e0 3d
       0.0014224555 0.001780736 0.0038959389 0.10965491
0000b0 de 1b 5f be e0 6a 31 3e b5 d5 90 bc c6 c6 b4 3d
       -0.21787974 0.17325926 -0.017680028 0.088269755
0000c0 0f a2 11 3e 84 02 f2 3d fb 87 4e 3e 92 d7 83 be
       0.14221977 0.11816886 0.2016906 -0.25750405
0000d0 be 79 5e 3e af 98 0b be 48 13 78 3e 9d 3e 69 be
       0.21726128 -0.13632463 0.24226105 -0.22777791
0000e0 f6 f9 5e be ef 07 49 be 0b 44 48 3d f6 81 bd bd
       -0.2177504 -0.19631933 0.048893016 -0.09253304
0000f0 e0 0e f1 bc d7 2f 18 3e 71 2c d3 bd 2e 8b f2 bd
       -0.029426038 0.14862 -0.10311211 -0.11842953
000100 e6 e3 5e be 5f 0a 09 bd 4c 66 62 3b ed 1e ad bb
       -0.21766624 -0.033457156 0.0034545837 -0.0052832277
000110 62 bc e0 3d 48 c1 f4 bd bf 34 7c bd d5 e9 30 bd
       0.10973431 -0.11950928 -0.06157374 -0.04319175
000120 0f 25 95 bd 25 2f a5 be 95 04 4a 3e 82 c4 20 3e
       -0.07282459 -0.3226253 0.1972831 0.15699962
000130 0d 26 58 be 9a 1d 6f bd 0c 0f 34 3d fc a2 64 3e
       -0.21108265 -0.05837784 0.043959662 0.22327799
000140 b0 ac 9f 3e 2b 80 84 3c bd ae fb bd 8d 80 9a 3e
       0.31186438 0.016174396 -0.12289188 0.301762
000150 6b 41 53 3d 70 83 9d be f4 46 10 be 4e 67 20 3d
       0.05157606 -0.3076434 -0.14089566 0.03916102
000160 b3 b9 d6 bd 85 ac 0b 3e d5 47 f6 bd f3 50 f9 3d
       -0.10484638 0.1364003 -0.120254196 0.12173643
000170 ea d7 cd 3d 8f 52 54 bd eb 55 ac 3e 55 9d 02 be
       0.10050948 -0.051836547 0.336593 -0.1275533
000180 a9 0b 8c be 8c ab 76 be 72 f3 06 be 87 ca 38 be
       -0.27352646 -0.24088877 -0.13178805 -0.18046008
000190 df b7 1a 3d 0e 0a 06 3e 14 04 2c 3e 9a d5 98 3e
       0.03777301 0.13089773 0.1679843 0.29850465
0001a0 e5 7a cf 3d 2a ca 3d be d5 63 cb 3d c0 50 bb 3d
       0.10130862 -0.1853415 0.09931151 0.09146261
0001b0 bc 1a 11 bd 1a 26 99 3e 7a c5 b4 3d 45 77 48 bd
       -0.035425887 0.29911882 0.08826728 -0.04894187
0001c0 80 59 48 3e 41 e5 e0 bd 3b 96 bc 3d 4e 0d 15 3d
       0.19565392 -0.10981227 0.09208342 0.03638964
0001d0 d4 e6 34 bc cd 75 bc 3e 17 da 35 be c1 dc 6a be
       -0.011041362 0.36808625 -0.17758976 -0.22935773
0001e0 0f c6 96 be 08 7e 31 be 68 ad 3b be ad 1e 59 3e
       -0.29447982 -0.17333233 -0.18327868 0.21203108
0001f0 54 1d 88 3d 04 48 13 3e 23 94 38 be 49 0e c6 3d
       0.06646219 0.1438294 -0.1802526 0.096706934
000200 4b 14 c5 bd 92 d1 3d 3e ea d8 e1 3d 82 df 2b 3d
       -0.09623011 0.18536976 0.11027701 0.0419612
000210 d4 ff 78 3e 10 bc 8d 3e 57 ce 92 3e 3a c9 3f be
       0.2431634 0.27682543 0.2867305 -0.18729106
000220 74 f8 f6 bd 40 55 90 bd be 58 83 be b7 31 c2 bd
       -0.120591074 -0.0704751 -0.25653642 -0.094821386
000230 97 35 38 be 47 66 14 be 0a 01 dd bd f7 83 fb 3c
       -0.17989193 -0.1449214 -0.10791214 0.030702574
000240 d7 26 3a 3e 33 58 a5 3e 9b aa 40 bc bd d3 cf 3d
       0.18178879 0.32293853 -0.0117594255 0.10147808
000250 6c 12 8e 3d e5 14 f1 3d 56 be 93 be ca 25 39 be
       0.069371074 0.117715634 -0.28856152 -0.18080822
000260 a6 bb b2 3c 8d f3 1a 3d 72 a9 9e 3c d0 ee 86 3e
       0.021817993 0.037829924 0.019367907 0.26354074
000270 b6 cb 81 3e c8 e4 88 be cc 08 83 3e 1e 6d 8e 3d
       0.25350732 -0.26737046 0.2559265 0.06954406
000280 f9 7f 93 be 7e 39 18 bd 98 9b 95 3e 79 9b ee 3d
       -0.28808573 -0.037164204 0.2922027 0.11650748
000290 c6 11 7a 3e 74 d9 f1 bd d3 d6 73 3e 63 4a 09 be
       0.24420843 -0.11809054 0.23812418 -0.13407283
0002a0 a8 d2 df 3d 94 ff 8d be 41 a3 03 be a7 fe 8c 3d
       0.10928851 -0.27734053 -0.12855245 0.068845086
0002b0 76 71 18 3d 8a b5 8f 3e 80 78 14 3e c9 3e 24 3d
       0.03721758 0.2806819 0.14499092 0.04009894
0002c0 77 7a 01 be d1 90 71 3e ae b2 b9 bd 9f 79 97 3e
       -0.12644373 0.235904 -0.090672836 0.29584977
0002d0 78 ca 17 be 00 c9 8a 3d 0f 58 4d be 2a 53 f5 3d
       -0.1482333 0.06776619 -0.20053123 0.11978753
0002e0 0c d9 74 bc f7 75 88 be be 1a 89 be b7 52 07 be
       -0.014944326 -0.266525 -0.26778215 -0.13215147
0002f0 e9 98 57 be 58 73 60 be 5b b7 bb bc 62 63 89 be
       -0.21054424 -0.21919 -0.02291458 -0.26833636

pi.bias f4 [3]
000000 84 0d fc bc 9c ef e3 3c 69 34 09 bd
       -0.030768164 0.027824216 -0.033497248

mu.weight f4 [3, 64]
000000 bf d0 7e 3d f6 46 6b 3e 2c e0 7d 3e dd 6d 12 3d
       0.062210795 0.22976288 0.24792546 0.035749305
000010 4a ab fe 3d f4 28 0f 3e 81 7d ff 3c b1 0f 30 3e
       0.124350145 0.13980466 0.031187775 0.17193486
000020 ac 44 67 3e 2d 3d a1 be 7a e1 c4 bd 5f 89 7b bd
       0.2258479 -0.31491986 -0.09613319 -0.061410304
000030 3c eb 35 be 5a 47 6c 3e 58 5b 83 3e 53 44 8d 3e
       -0.17765516 0.23074093 0.25655627 0.2759119
000040 21 09 a2 3d da 6e 17 be 09 1a 89 bd 1d c6 ac be
       0.079118975 -0.1478838 -0.06694419 -0.33744898
000050 2e a5 f9 3d 0d 2f 49 3c 61 a9 f1 bd 1b 71 1b 3d
       0.12189709 0.012279284 -0.117998846 0.037949663
000060 40 2e 84 3e 12 3d a0 be 1b 40 9e bd c5 24 11 3e
       0.25816536 -0.31296593 -0.07727071 0.14174183
000070 05 94 3d be 4d 0f 50 3d 83 74 a0 3e 5c 70 66 3e
       -0.18513496 0.050795842 0.3133889 0.22503799
000080 2d da 89 3e c5 db a7 3d ec 28 a7 3d 63 2a 97 3e
       0.26924267 0.081962146 0.08162102 0.29524526
000090 f0 8c 85 be e9 22 95 3e 34 55 a9 bd da c9 75 3e
       -0.2608409 0.29128197 -0.08268204 0.24002782
0000a0 dc 9e 7b be a1 d6 86 be 0e 67 8e be f8 df a1 3d
       -0.24572319 -0.26335624 -0.27813 0.07904047
0000b0 32 81 15 bd 70 f8 f6 bd 4c 84 e5 bc 32 6f 97 be
       -0.036500163 -0.120591044 -0.028017186 -0.29577023
0000c0 ff 30 8b be b8 30 20 bc 8b 96 8e be c4 a9 64 be
       -0.2718582 -0.00977724 -0.2784923 -0.22330385
0000d0 a1 13 49 be ce a9 6a 3d 66 5e ac 3d b9 bb b4 bd
       -0.19636394 0.057290845 0.084164426 -0.08824868
0000e0 d8 d2 45 3e 41 c8 b1 bd 41 47 5a be 50 c1 06 3d
       0.19318712 -0.086807735 -0.21316244 0.0328992
0000f0 13 c3 0f bd 03 3a 4e be 65 86 68 3e 6c fa 80 be
       -0.035098147 -0.20139317 0.22707517 -0.25191057
000100 cd fa be 3d 63 65 ea 3d 2d cc 93 3b 0f 8f ce 3c
       0.0932518 0.11445119 0.0045104236 0.0252147
000110 b8 80 90 bd f4 33 d0 3d d6 a7 2e 3e 15 17 12 3e
       -0.07055801 0.10166159 0.17056212 0.14266618
000120 6e 1e 49 3d 3c 18 3b be 74 a4 16 3e 91 89 51 3e
       0.049101286 -0.18270963 0.14711171 0.20462634
000130 b8 38 9c bd 89 93 f5 3d 5b c7 33 3e 49 8a 52 3e
       -0.07628006 0.11991031 0.17556517 0.20560564
000140 e4 c4 df bd 9f f9 89 bd ed a2 1a 3e b1 9e 69 be
       -0.10926226 -0.067370646 0.15101214 -0.22814442
000150 67 c0 92 3e ee 8f 92 be d9 52 51 be d2 59 ff 3d
       0.28662416 -0.28625435 -0.2044176 0.12468304
000160 68 7f b4 3d 7c f6 79 bd 3a 9b 04 bc b0 7a 83 3e
       0.08813363 -0.06102608 -0.0080936495 0.2567954
000170 98 9d 57 bc 57 4f aa be ac 43 d8 3d a6 49 5b 3e
       -0.013160132 -0.33263656 0.105597824 0.21414813
000180 71 16 a7 3e 75 e2 58 3e a5 e8 34 3e e4 e7 bc 3c
       0.3263431 0.21180137 0.17666872 0.023059793
000190 7c 79 52 3d 5c c9 b1 3d d1 5d c3 3d 11 cd 4a bc
       0.051385388 0.086809844 0.095393784 -0.012377993
0001a0 a9 74 9f be 56 8b 78 bd 4e 41 82 be 40 2e 5c 3e
       -0.31143692 -0.060679756 -0.2544045 0.21502018
0001b0 96 0e 39 3e dc 65 37 3e f1 7b dd 3d f9 5d 5c 3c
       0.1807197 0.1790995 0.108146556 0.013450139
0001c0 2c 05 88 be 53 18 b8 3e 90 8e b1 be 98 1b 8f bd
       -0.26566446 0.35956058 -0.3467908 -0.06987685
0001d0 ab a1 e2 bc 03 a8 2c be 5f 0f 2c bc df 5d b5 3d
       -0.02766498 -0.16860966 -0.010501712 0.08855795
0001e0 a9 bd 40 3e fc 22 6d bb 10 4a c8 be 53 d5 11 be
       0.1882235 -0.0036184182 -0.39119005 -0.14241533
0001f0 0b 00 fa 3d c4 9b d7 bd 99 03 d1 3c 6e ca 32 bd
       0.122070394 -0.10527757 0.02551441 -0.043650083
000200 9c 02 e2 3c f8 23 88 be 70 63 4c 3e ff 8d 3b bd
       0.027589135 -0.26589942 0.19959807 -0.045789715
000210 16 40 55 bb 75 91 85 bd 94 65 df bd fc cf c5 3d
       -0.003253942 -0.06521884 -0.10908046 0.096588105
000220 3f ca 8a be d4 d1 5a 3d 43 5c 3d 3e 35 14 4b 3e
       -0.27107427 0.053422764 0.18492226 0.19831927
000230 7b 05 27 3e bf f5 8d bd bf 48 a3 bd c7 05 0c bc
       0.16310684 -0.06931638 -0.079728596 -0.008546299
000240 c7 ef 0d be 20 20 ba bd ec 4c 8f be e0 e6 2f 3e
       -0.13860999 -0.090881586 -0.27988374 0.17177916
000250 d7 b0 17 bd 8d f9 dc 3d 7b d2 3e 3e 12 a6 96 bd
       -0.037033882 0.107897855 0.1863498 -0.07355894
000260 8c 01 41 bd 64 c9 1b 3e 46 cd d6 3d 39 eb 50 3e
       -0.047120616 0.15213543 0.104883716 0.2040223
000270 96 f4 de 3d d5 cb 42 bd d4 c5 e0 3d 3c bd a1 3e
       0.10886495 -0.04755767 0.10975233 0.31589687
000280 8a 7f a1 3e 31 24 18 be 21 84 aa 3e 7d 02 d6 bd
       0.31542617 -0.14857556 0.3330393 -0.10449693
000290 92 e4 30 be f7 32 ff 3d 33 49 6c be a2 c3 d5 3d
       -0.17274693 0.12460893 -0.23074798 0.104377046
0002a0 49 78 84 bd ce cb da bd eb 7f 5f bc e8 95 3e 3e
       -0.06468255 -0.10683404 -0.013641338 0.18611872
0002b0 c5 fd eb bd ff 53 b9 3d 41 62 8b bd d4 0b 9a be
       -0.11523012 0.09049224 -0.0680585 -0.3008715
0002c0 3e 0f dd bd db c6 bd bc c5 bd 57 be 69 88 c7 3d
       -0.10793923 -0.02316611 -0.21068485 0.09742815
0002d0 88 2f 2e 3e a1 b6 27 3e 8f f0 42 be 3d 8a a4 3e
       0.17010319 0.16378261 -0.19037078 0.32136717
0002e0 b1 76 92 3e 86 f5 f9 bd 94 57 87 be d7 00 68 be
       0.2860618 -0.12205033 -0.26434004 -0.2265657
0002f0 44 35 2b 3e ea 7b 83 3e 8d bc 50 be e8 a3 26 be
       0.16719538 0.25680476 -0.20384426 -0.16273463

mu.bias f4 [3]
000000 b0 54 9e 3d 99 d5 d0 3d d2 03 c3 3d
       0.077309966 0.101969905 0.09522213

sigma.weight f4 [3, 64]
000000 71 57 96 3e fe b1 04 3f e4 07 f3 bd e1 f8 e6 3e
       0.29363587 0.51834095 -0.118667394 0.45111755
000010 bf 7d 8f be 07 6b 10 3e 5d 27 0f be a1 64 9f be
       -0.28025624 0.14103328 -0.1397986 -0.3113146
000020 bb 43 7c be 3c 8d ff bd 46 bd 61 be ae 22 bb be
       -0.24635212 -0.1247811 -0.22044858 -0.36549896
000030 f7 00 8c 3e 93 37 62 3e 2d 0a 71 be e7 2a 0b 3f
       0.27344486 0.22091512 -0.23539038 0.5436234
000040 68 98 2a 3e a4 5f ea be 2d 73 b1 be 39 be 52 3e
       0.16659701 -0.45776093 -0.34658185 0.20580377
000050 d8 91 b5 3e dd f3 af be 4d 2c 01 3f 73 31 28 3f
       0.35462832 -0.3436574 0.5045822 0.65700454
000060 c0 ff 00 3e da 75 68 3e 45 6a 81 be ee 7c cf be
       0.12597561 0.22701207 -0.2527639 -0.40525
000070 b5 13 10 3c 04 49 c7 3e 78 22 ba be 35 ed 83 be
       0.008793761 0.38922894 -0.36354423 -0.25766912
000080 c8 0d f2 3e 97 c1 9d be ef 3c a7 be 21 a7 f3 be
       0.4727614 -0.3081176 -0.32663676 -0.47588447
000090 58 b4 dc be 9c 7c 41 be 47 3c 11 3e 87 df e0 be
       -0.4310634 -0.18895191 0.1418315 -0.43920538
0000a0 32 26 9b be 11 dd 72 bd 0d aa 22 bd 22 f1 81 3e
       -0.30302578 -0.059292857 -0.039712954 0.25379282
0000b0 56 08 db be 0f cb 38 be d5 95 89 3e dc 65 65 be
       -0.42779797 -0.1804621 0.26872125 -0.22402138
0000c0 85 31 09 bf c4 57 91 3e e7 15 91 be f7 20 38 be
       -0.53591186 0.28387272 -0.28337023 -0.17981325
0000d0 72 29 0f bf da e5 9f bd f8 7b 38 3e c2 1b 00 3f
       -0.55922616 -0.078075126 0.1801604 0.50042355
0000e0 2f 9b ca 3d 13 75 22 3f 93 a7 bc be d6 29 78 3d
       0.0989288 0.6345989 -0.368466 0.060586773
0000f0 d5 1d 87 be 6b 68 b4 3e 29 dc 29 3e 96 1e 10 bf
       -0.26389948 0.35235915 0.1658789 -0.5629667
000100 94 a5 01 3f 83 19 0d 3f 74 a7 f2 be 92 b6 0a 3f
       0.5064328 0.5511705 -0.47393382 0.5418483
000110 c5 8e 6c be ed 43 6e 3e 2e 42 d7 be 6e df 0e bf
       -0.23101337 0.23268099 -0.4204268 -0.55809677
000120 22 8c d1 be 84 a8 27 be 3d 3c af bb 8d e9 23 bf
       -0.40927225 -0.16372877 -0.005347757 -0.64028245
000130 88 c5 d6 3e fc 5c ff 3d 43 4e 45 be c8 4b 5e 3e
       0.4194758 0.12468907 -0.19268136 0.21708596
000140 18 08 7c 3e 72 c2 cf be ea 95 69 be 2d 71 14 3e
       0.24612463 -0.40578038 -0.22811094 0.14496298
000150 3f 3f a6 bc dc 40 ee bd 9c dc 8b 3e 92 3a 85 3e
       -0.02029383 -0.11633465 0.2731675 0.26021248
000160 75 f2 2d 3e 60 ba da 3e 1d 61 15 bf 3c a1 92 be
       0.16987021 0.42720318 -0.5835131 -0.28638637
000170 69 d8 a8 be 20 60 ad 3e a3 2e 3b be c2 59 09 bf
       -0.32977608 0.338624 -0.18279509 -0.53652585
000180 55 d1 a6 3e 6f 5f 88 3d 34 7c 95 bd cc 08 e0 be
       0.32581583 0.066588275 -0.072990805 -0.4375671
000190 37 81 9f be ed 67 8c be 5c b3 cf 3e 52 cd fe bd
       -0.3115327 -0.2742304 0.40566528 -0.124415055
0001a0 32 a6 ac bd 42 b4 1e be 69 65 bc be 93 2c 85 3c
       -0.08430137 -0.1549845 -0.3679612 0.016256606
0001b0 39 58 08 bf 07 98 8e be a6 74 d3 3e 92 88 72 3b
       -0.5325962 -0.27850363 0.41299933 0.0037007672
0001c0 31 c9 fc bd 3f a9 90 3e 25 e1 26 be 67 50 d9 3b
       -0.12343062 0.28254125 -0.16296823 0.006631899
0001d0 04 4e ee 3c ce 95 d8 3d 1b a5 71 3e 15 fb eb 3c
       0.029089935 0.10575448 0.23598139 0.028806249
0001e0 e5 e6 e0 3d 2e 3b e8 3d 89 e8 11 bf 12 21 93 3e
       0.1098154 0.11339413 -0.56995445 0.28736168
0001f0 ff e3 bd be 10 71 02 3f 7e bb a5 3e e0 6d 0c bf
       -0.3708801 0.5095377 0.32369608 -0.54855156
000200 e9 cf b5 3e 01 09 47 3e ba 4e 04 bf 15 b3 14 3d
       0.35510185 0.19437028 -0.5168263 0.0363036
000210 a8 85 ba bd 74 f9 e7 3e 73 6b 0c bf 00 ed b2 be
       -0.09107524 0.45307505 -0.54851454 -0.34946442
000220 a5 29 23 be 74 57 3b 3e d4 3e 1c 3f c6 95 19 bf
       -0.15933855 0.1829508 0.6103337 -0.5999416
000230 43 62 bd 3d 82 f2 0c 3d 42 c5 ef be 41 ae 0a 3e
       0.092472576 0.03441096 -0.46830183 0.13543035
000240 06 fd 30 be 0b b7 8a 3e fb c8 2d be 89 94 12 3b
       -0.17284021 0.27092776 -0.16971199 0.0022366366
000250 54 d4 96 3d 70 f5 07 be 52 94 bc 3e fe 65 8d 3e
       0.07364717 -0.1327722 0.3683191 0.27616876
000260 95 88 3c 3e 4c cc fc 3e a4 40 32 bf df 79 00 bf
       0.18411477 0.49374616 -0.69629884 -0.5018596
000270 9f b6 a1 be c5 c1 f3 bc 61 a7 f3 be 93 0c b8 be
       -0.3158464 -0.029755482 -0.47588637 -0.35947093
000280 2a 18 ce 3e 4e 95 06 be bf 65 3e bc 6c f1 30 bd
       0.4025281 -0.13142893 -0.011620938 -0.043198988
000290 ec 76 7b be c5 5c 36 3e d7 20 62 3e 94 dc d9 3d
       -0.24557084 0.17808826 0.2208284 0.10637775
0002a0 67 de 3d be 7f aa 1c be 17 5c 3a bd 6f 37 de 3e
       -0.18541871 -0.15299414 -0.04549798 0.43401667
0002b0 93 cb 26 be 6c 34 02 bf d0 95 97 bc 13 32 f6 bd
       -0.16288595 -0.5086124 -0.018504053 -0.1202127
0002c0 6c 09 0c bf 39 17 29 3f 11 ea 9a be 81 3f ce bd
       -0.54701877 0.6605106 -0.30256703 -0.10070706
0002d0 97 41 50 be ef 83 4b be 1a af dc 3e 18 85 b6 3e
       -0.2033752 -0.19874547 0.43102342 0.35648417
0002e0 9f c9 f1 be 9b f4 43 3f 48 af d6 be 5e 85 69 3d
       -0.47224137 0.76545113 -0.41930604 0.057011954
0002f0 4e 62 bf be ae ab 15 3f c3 eb 03 be 39 00 9c be
       -0.37379688 0.5846509 -0.12882905 -0.3046892

sigma.bias f4 [3]
000000 19 c3 cc bd d7 59 19 be aa 16 f8 bc
       -0.099981494 -0.14975677 -0.030284245
