weights/model_weights_exp_ramp.pth (torch, 30882 bytes, 12 tensors)

rnn.weight_ih_l0 f4 [96, 2]
000000 ec 26 8a be 8d 0f 59 bd da b5 c0 3d 9d 5e 26 3d
       -0.2698282 -0.052993346 0.094096854 0.040617574
000010 29 67 06 be 3a 91 b1 3d d2 4a 8f 3d 30 7c 73 be
       -0.1312529 0.08670278 0.06996693 -0.23777843
000020 1f f3 fb 3d b2 2a 95 3d 92 e2 51 bd 42 2b 80 3e
       0.12302231 0.07283534 -0.051241465 0.25033003
000030 62 ba 9f 3b c7 9d 88 be aa eb 19 3c b3 17 b1 3b
       0.0048745135 -0.26682875 0.009394566 0.0054044365
000040 c3 3f 7d be 93 7f 99 bd 29 18 b2 bc 43 cb 9b bd
       -0.24731354 -0.07495036 -0.021740036 -0.076071285
000050 3d b5 89 3d 16 6c cf bb bc 8e a7 3c 89 ff df 3d
       0.067240216 -0.0063300235 0.020453803 0.10937411
000060 b2 8c 2d 3e a4 af 30 3e 75 ef f8 3d ed 66 e1 3d
       0.16948202 0.17254502 0.12155048 0.1100596
000070 a1 f5 64 be 2f 35 8a 3e bc f8 c0 bc 15 56 42 bd
       -0.22359325 0.269937 -0.023556106 -0.047445375
000080 f9 b4 f6 bd 9a 72 ac bd 79 45 9d bd b8 d6 47 bd
       -0.120462365 -0.08420296 -0.076792665 -0.048788756
000090 b2 29 3b be 73 a4 e6 bd 6f b9 53 be 31 5a 9a bd
       -0.18277624 -0.11261835 -0.20676206 -0.07536734
0000a0 fe 4c 70 bd 35 8c b0 3c e5 e7 1b be d1 3a b4 be
       -0.058667175 0.02155123 -0.1522518 -0.35201123
0000b0 5c 4e 35 3e 81 f5 82 bd 23 1d 38 3d be 86 68 3d
       0.17705673 -0.063944824 0.044949662 0.056769125
0000c0 0c a9 20 bd fe 61 9f 3d 79 d3 be bd 5d 89 83 be
       -0.039223716 0.077823624 -0.09317679 -0.25690737
0000d0 23 cd 15 be 84 b9 47 3c c0 8e d6 3d ab d0 14 3e
       -0.14629035 0.012190226 0.10476446 0.14532726
0000e0 e7 6d e9 3d 15 fa 35 be 17 00 b0 be a7 96 8b bb
       0.11397915 -0.1777118 -0.3437507 -0.0042599025
0000f0 ce 76 b3 bd cc aa 05 3e d5 2e 89 bd 6a b1 5d bd
       -0.087628946 0.13053435 -0.066983856 -0.054124273
000100 47 00 f1 3d 57 cf 1b 3b ea 3f 3f 3e 00 21 1b be
       0.11767631 0.0023774707 0.18676725 -0.15149307
000110 67 5e 8b 3b 03 db b6 3d 50 73 0e be 35 6f cc 3d
       0.004253197 0.08928492 -0.13911176 0.099821486
000120 12 9f 77 3d c0 e1 f2 3b f5 d5 07 3d a2 29 20 be
       0.060454436 0.0074121654 0.03316303 -0.15640882
000130 b6 cc 18 be 86 85 9a be 3b e1 95 bd 67 33 00 be
       -0.14921841 -0.30179995 -0.0731835 -0.12519608
000140 24 fd ad bd 37 7e 38 3c 1c 8f 19 bd 95 7f d6 bd
       -0.08495548 0.011260561 -0.037489995 -0.10473553
000150 a5 89 b1 bd 84 1d ff bc e9 3e c7 bd 15 fd 58 3e
       -0.08668832 -0.031142004 -0.09728796 0.21190293
000160 86 a1 8c 3e e3 9e db bd b8 a0 42 3e 81 fd 8a be
       0.27466983 -0.107236646 0.19006622 -0.27146533
000170 08 b2 cf bc 16 b7 3f be 62 dd 99 3d 64 a9 43 be
       -0.025353447 -0.18722185 0.075129285 -0.19107586
000180 9d 51 44 be 50 8b a6 3e 75 c0 0e 3e f7 7e 09 be
       -0.19171758 0.32528162 0.13940604 -0.1342734
000190 39 a6 da 3b 4b 73 97 be 33 67 8c 3d 7b d4 4a be
       0.0066726473 -0.2958015 0.06855621 -0.19807617
0001a0 2d d1 5b bd 4b 17 15 be bf 31 c7 bd ad 22 09 be
       -0.053666282 -0.14559667 -0.09726285 -0.13392134
0001b0 a2 61 e4 3d 13 9d 41 be b9 19 7c 3c 99 02 87 3e
       0.111514345 -0.18907575 0.015386992 0.2636917
0001c0 73 d9 0b 3e df aa f2 bd dc 36 d2 bd 7f 26 1a be
       0.13657169 -0.11848997 -0.1026437 -0.15053748
0001d0 7f 01 d3 3d 95 bd 3c 3d 7d bf 67 bd c3 c3 21 be
       0.1030302 0.046079237 -0.0565791 -0.15797333
0001e0 dc d3 b5 bb 64 6c ba bd a1 5c 2f 3d 63 c7 f5 bd
       -0.0055489372 -0.09102705 0.042812947 -0.120009206
0001f0 d9 a3 62 bd cb ac 56 bd 86 cb c9 bd 4c 31 a2 3c
       -0.05533204 -0.052410882 -0.09853272 0.019798897
000200 c1 19 d6 3d ef 97 d0 3b 20 e5 69 3c 1b a1 03 be
       0.10454131 0.006365768 0.014275819 -0.12854426
000210 3a ea b9 bc a8 93 5c bd a0 cc 49 bd 5d 81 6b be
       -0.022694696 -0.053851753 -0.04926741 -0.22998567
000220 38 ae 06 3e b3 c5 78 bd e0 fb 2a be 72 63 2b be
       0.13152397 -0.060735416 -0.16697645 -0.16737154
000230 c7 5a 2b 3e e1 1f 2c 3e 3d d6 79 bd 55 ed fe bd
       0.16733848 0.16809036 -0.06099533 -0.12447611
000240 03 5e 02 be 90 85 ad be bd 3d 9f bd a8 09 73 be
       -0.12731175 -0.33890963 -0.077754475 -0.23734152
000250 1f 61 cd 3d 07 b8 6e 3e 16 88 07 be 18 a7 7f 3c
       0.1002829 0.23312388 -0.13235506 0.015603803
000260 43 1e 69 3d a3 74 84 bd f3 ff 11 3d f0 3f eb 3d
       0.056913625 -0.06467559 0.035644483 0.114868045
000270 44 cd 29 be 1c 62 93 be 6c aa 10 3e 7c 7e 74 3e
       -0.16582209 -0.2878579 0.14127511 0.23876375
000280 21 7e 1f be 2e b8 2f 3e 2f 1e b3 3c 32 f2 f7 3b
       -0.15575458 0.17160103 0.021864979 0.0075667137
000290 eb 5a 3e bd bf 11 4c be 4a be 1e bb 51 8f 11 be
       -0.046473425 -0.19928645 -0.0024222308 -0.14214827
0002a0 25 da a8 bd 05 16 22 3e 01 a9 db bc d1 09 86 3e
       -0.08244733 0.15828712 -0.026813986 0.26179364
0002b0 bb d2 85 bc fc 9a 66 be b5 0b 26 3e f1 c7 cb bd
       -0.016335836 -0.2252006 0.16215403 -0.09950245
0002c0 b7 c1 06 bd ed 09 df 3d 38 30 38 3e 05 39 bd 3d
       -0.032899585 0.10890565 0.17987144 0.09239391
0002d0 d0 32 04 be 60 aa 44 b9 a7 42 05 be a8 73 aa 3e
       -0.12910008 -0.00018755486 -0.13013707 0.33291364
0002e0 5a d2 fd 3d 4e 9a b7 3d c3 f7 21 3e 7a 3d 9b be
       0.12393637 0.08964978 0.1581717 -0.3032034
0002f0 10 d8 11 bb 36 e4 63 3d c4 cd ce bc 12 ca 48 3d
       -0.0022254027 0.05563756 -0.025244601 0.049020834

rnn.weight_hh_l0 f4 [96, 32]
000000 07 4d 05 3e e8 1e 4d 3d ae f2 f8 bd 7a 7d 1d bd
       0.13017665 0.050078303 -0.121556625 -0.038449742
000010 dc 83 26 3e bd ee da bd 46 10 2e bd 4c be c4 3b
       0.16261238 -0.10690067 -0.04249599 0.0060041305
000020 1c bb 16 3e 7a 83 65 3d 9f 80 40 bd ca 91 09 be
       0.14719814 0.05603359 -0.046997663 -0.1343452
000030 05 21 c6 bd 4f 5b 12 3e a7 8a b5 bc 82 a7 c1 bd
       -0.09674267 0.14292644 -0.022160841 -0.09455778
000040 1e 15 5e bd 42 a0 2a 3e 71 17 93 3c 12 d0 b5 bd
       -0.054219358 0.16662696 0.017955514 -0.08877577
000050 03 40 ff 3c 01 47 a6 3c 6f 4f 6a 3d 1a b6 8c 3d
       0.031158453 0.02029753 0.05720466 0.068706706
000060 c8 66 ec bd f0 ec de bd 60 2f aa bd 3c c5 7f bd
       -0.115430415 -0.10885036 -0.08309817 -0.062443957
000070 76 fd b5 bd 64 5e cf 3d 71 d0 1f 3d 58 15 2f 3e
       -0.088862345 0.101254255 0.039017145 0.17097986
000080 da 49 c7 bd 95 8c a7 3c a4 7d cc 3d 9d dd 01 3e
       -0.09730883 0.020452777 0.099849015 0.12682195
000090 c6 0a 32 be 89 8f be bc 30 cf b9 3d d2 4f fb bd
       -0.17386922 -0.023261802 0.09072721 -0.12271084
0000a0 56 36 e9 3d bf 2c b8 bd a5 2d 66 3b b3 d3 07 be
       0.11387317 -0.0899291 0.003512242 -0.1326435
0000b0 a5 ef 00 3e 24 b6 55 bc d9 97 0f bd 1e 8c 2f 3e
       0.12591417 -0.013043914 -0.035056923 0.17143294
0000c0 30 4c 6e 3a 61 de 0b 3e 8d 92 38 3d 98 86 ba 3d
       0.00090903323 0.1365905 0.045061637 0.09107703
0000d0 a3 f4 1c 3e e8 54 04 3e cb 3f 06 bd f3 08 6d 3d
       0.15327697 0.12923014 -0.03277568 0.057869863
0000e0 38 7d 32 be 85 45 be 3d 6c e2 d5 3c 3f 1a c4 3b
       -0.1743058 0.092906035 0.026108943 0.005984574
0000f0 13 c5 11 3e 26 1b a9 bd 85 24 4d 3c 54 7e 33 3e
       0.14235334 -0.08257131 0.012520914 0.17528659
000100 50 61 bd bd 20 16 11 bd ad 03 91 3d 94 7d 0d 3e
       -0.092470765 -0.03542149 0.07080779 0.13817436
000110 4f 41 8c 3d fd 15 cb 3c b4 fe 49 3d 78 81 00 be
       0.06848394 0.024790758 0.04931517 -0.12549388
000120 b2 90 af 3c 13 c7 cb bc df d8 df 3c 80 7f 65 bd
       0.0214313 -0.0248752 0.027325092 -0.056029797
000130 e4 a8 bc bd 19 6d 30 be 40 04 11 3e 76 ac 4d bc
       -0.09211901 -0.17229117 0.14161777 -0.012553325
000140 12 e5 0b 3e 43 c7 f1 bd fb 40 87 3d 51 f8 6b 3d
       0.13661602 -0.11805584 0.06604191 0.05760986
000150 bf 20 29 be a9 ef f0 3d 32 83 37 3d 20 6b 1e be
       -0.16516398 0.117644615 0.044802852 -0.15470552
000160 3b 9a 5e bd 51 e5 f3 3c a1 99 b4 bd e8 de 19 be
       -0.054346304 0.029772433 -0.08818365 -0.15026438
000170 47 bf e4 bd 1f 5a 5f bd 65 11 4b bc 89 de 24 3d
       -0.11169296 -0.054529306 -0.012394284 0.04025129
000180 d0 2c e9 3c 9d 6e 80 3d 23 61 1e 3e 37 75 fc 3c
       0.028463751 0.06271098 0.15466742 0.030817611
000190 52 d9 26 be 1a 28 b5 3b 95 3b 93 3d a5 7c 93 3b
       -0.16293839 0.005528462 0.07189099 0.004500943
0001a0 f5 b6 94 3b e7 21 fb 3d 96 56 a1 bd 55 f6 44 3b
       0.0045384117 0.12262326 -0.07877843 0.0030054052
0001b0 a3 40 0f be 4c e6 1d 3e c7 98 4c bd 3a db bf 3c
       -0.139895 0.15419883 -0.049950387 0.023419965
0001c0 04 b4 a1 bd 73 7f 40 3d c9 ed 69 3d 0a 51 32 bd
       -0.078956634 0.046996545 0.057111535 -0.043534316
0001d0 d9 10 88 bd ce ee ab bd d6 0f 2e be 42 6d f4 3c
       -0.066438384 -0.08395158 -0.16998228 0.029837254
0001e0 0d bb 33 3e 32 db cf bd e3 f3 16 3d 64 8f 15 3e
       0.17551823 -0.1014923 0.036853682 0.1460548
0001f0 3f 42 8e 3d 1e 0c b7 bd 78 11 ba bc 9a 25 1c bb
       0.06946229 -0.08937858 -0.022713408 -0.0023826123
000200 7b c9 43 3d 49 40 b3 bc 11 87 e7 bc 74 10 1f be
       0.04779957 -0.02188124 -0.028262647 -0.1553362
000210 1d 7f 41 3d d5 6f 61 bd 6a 49 80 3d 8f 32 fe bd
       0.047240365 -0.055038292 0.062640026 -0.12411987
000220 71 ca f6 bd a6 5e 68 bd 7e f6 20 3e fa f2 ce 3d
       -0.120503314 -0.05673089 0.1571903 0.10104938
000230 cb 3d 7c 3d a9 31 3f 3d cf 87 ba bd 62 35 b7 3d
       0.061582368 0.04667822 -0.09107935 0.08945729
000240 c6 ff 76 bd 68 ab 0b be 63 45 f5 3d c5 d4 15 3e
       -0.06030252 -0.13639605 0.11976125 0.14631946
000250 a2 53 8f 3d 46 a0 89 bb 44 31 24 3e b0 41 bc 3d
       0.069983736 -0.0042000143 0.16034418 0.091922164
000260 02 b6 24 3e 81 8c 99 bd dc ad cc bd ab 5e fd 3d
       0.16085055 -0.07497502 -0.099940985 0.12371572
000270 ff 24 1b be cf 7d e5 3d aa ae df 3c ee af be bd
       -0.15150832 0.11205637 0.027304966 -0.093109
000280 5a 3a e0 bd 5e 4b 20 bd 06 e1 fc 3d 9c 9b 0e 3d
       -0.1094863 -0.039134376 0.12347607 0.03481637
000290 ef 6d 0b 3e b1 f2 e9 bd 61 cf 09 3e 61 40 fe 3d
       0.13616155 -0.11423243 0.13458015 0.12414623
0002a0 9e 1e 00 be 49 af 07 3e 34 f0 10 be 61 3b 0a 3e
       -0.1251168 0.1325046 -0.1415413 0.13499214
0002b0 75 fc 29 be 95 f4 12 3e 9e 32 55 bd 93 30 af bd
       -0.16600211 0.14351113 -0.052050225 -0.08554187
0002c0 ef 97 1e be 51 d1 da 3d 93 ab d4 bd 29 67 9d bd
       -0.15487646 0.10684455 -0.10384288 -0.07685692
0002d0 2b 96 c4 ba 83 48 0a be b3 53 c6 bd d9 8d b5 3d
       -0.0014998367 -0.13504224 -0.09683933 0.08864946
0002e0 2f 54 31 bd 7d 7b fe bd b4 83 81 3d 7f 31 7e bc
       -0.043293174 -0.12425897 0.063239485 -0.0155147305
0002f0 b3 ce ef bd fe 9a 15 be e8 54 d0 3d 33 a8 f0 bd
       -0.117093466 -0.14609906 0.101724446 -0.117508315
000300 9d 13 0d be c4 39 27 3d 7b c1 8a bb da 18 5a 3d
       -0.13777013 0.040826574 -0.0042344905 0.053246357
000310 22 80 90 bc e0 c7 01 3e 98 fa 56 3d f3 f7 a8 bd
       -0.017639223 0.12673903 0.05248508 -0.082504176
000320 29 5e 96 3b 2b ad 4d 3d 3d bd a1 bd ae ae 85 3d
       0.0045888615 0.050213974 -0.078974225 0.06527458
000330 c8 a7 95 3d d1 7a 1f 3d 3f b1 fd bd 76 b8 32 3e
       0.07307392 0.038935486 -0.12387323 0.17453179
000340 b0 34 05 3e c2 2f 07 be 6d d6 0b 3d f5 ef fd bd
       0.1300838 -0.13201812 0.03414004 -0.12399284
000350 aa 88 22 3e 66 cc 9f 3d 13 f2 d8 3d 92 f8 b4 bd
       0.15872446 0.07802658 0.10593047 -0.088364735
000360 be a8 03 3e b7 48 1f be f7 65 11 3d ed 03 f7 3d
       0.12857339 -0.15555082 0.035497632 0.12061296
000370 64 b5 28 be 91 12 e2 3d 9a 61 54 3d d6 7e 34 3c
       -0.16475445 0.110386975 0.051850893 0.011016568
000380 e2 16 14 3e 19 e0 12 3e 68 5f f3 bd 77 08 c5 bd
       0.14461854 0.14343299 -0.11883432 -0.09620755
000390 7b 91 e4 3d 15 4a cd bb 19 58 27 3e d1 3e e6 3d
       0.11160561 -0.006264935 0.163422 0.1124245
0003a0 57 85 ec bc 76 66 22 be 96 be 00 be b8 76 6f 3d
       -0.028872175 -0.15859398 -0.12572703 0.05846283
0003b0 a7 be ce 3d 82 a7 e5 bd d9 3e 83 3d 22 8d 01 3e
       0.10094958 -0.1121359 0.064084716 0.12651494
0003c0 e6 99 5e 3d 42 bf ea bd 7b 68 c2 3d 8c 5b 80 bd
       0.054345988 -0.11462261 0.09492584 -0.06267461
0003d0 0e 4c c2 3d 3e 68 9d bd 0c 4d 0e be 5c 13 8e 3d
       0.094871625 -0.07685898 -0.13896579 0.06937286
0003e0 2a 91 f2 3d 2a dd e2 3d 9a 36 99 3d d4 07 f0 3d
       0.11844094 0.1107734 0.074811175 0.11720243
0003f0 c7 70 0a 3e ac 5a 21 3e 14 71 02 be 80 0f 9f 3d
       0.13519584 0.15757245 -0.12738448 0.07766628

rnn.bias_ih_l0 f4 [96]
000000 e6 d5 5b be bb 7f d7 3d 80 6b 69 bd b8 1a 88 be
       -0.21468315 0.105224095 -0.056987286 -0.26582885
000010 40 70 8b 3c f3 05 01 3d 27 b2 75 bc a4 df 3b 3e
       0.017021298 0.031499814 -0.014996088 0.18347031
000020 b3 b0 b3 bd 6f 9e 97 be 96 da db b9 86 59 29 bd
       -0.08773937 -0.29613063 -0.00041933794 -0.04134514
000030 25 42 8e 3e d8 81 93 3d 36 58 8b 3e 23 3f 4a 3e
       0.2778484 0.072025 0.27215737 0.19750647
000040 49 44 4a 3d 5a c9 12 3d 7b b9 d4 bc 5d 09 ee 3d
       0.049381528 0.035836555 -0.02596735 0.1162288
000050 fe fb 54 bc 0e 91 6a ba 21 77 33 be 73 2a 0e be
       -0.012999533 -0.00089480064 -0.17525913 -0.1388338
000060 ce 7c 55 bd a6 36 21 be 2b ab eb bc 7d f0 9f bd
       -0.052120976 -0.15743503 -0.028768143 -0.078095414
000070 70 f3 f5 bd 40 16 d9 bd 2d ef 26 3d 43 04 17 3e
       -0.12009323 -0.10599947 0.04075544 0.1474772
000080 a3 79 fe 3d 7f a6 8a bc bc 44 8c bd b0 bb 43 be
       0.12425544 -0.016925095 -0.068490475 -0.19114566
000090 95 a1 06 3e 63 cd 10 bd d3 16 40 be e4 82 9f bd
       0.13147576 -0.035352122 -0.18758707 -0.07788637
0000a0 04 8a 0e 3d e5 c2 5b be 6a 69 b0 3d 50 54 64 3e
       0.03479959 -0.21461065 0.08613856 0.22297788
0000b0 e5 94 2b 3d b5 32 b6 bd de 07 8d be 58 62 80 bd
       0.041890044 -0.0889639 -0.27545065 -0.062687576
0000c0 c8 af 12 3d 77 8c 55 3c 10 bf 0f 3e 12 af 3e be
       0.03581217 0.013033978 0.14037728 -0.18621472
0000d0 88 6d 0d 3e 84 12 2f be d0 a8 cd bd 71 96 3e 3e
       0.13811314 -0.17096907 -0.10041964 0.18612076
0000e0 be 0f 4d be bb d8 54 be 2f 51 95 bd 17 e3 25 3d
       -0.20025536 -0.20785801 -0.07290875 0.040499773
0000f0 c0 ee 39 3e 2e 67 3b 3d 17 f0 a1 bc 66 16 06 3e
       0.18157482 0.045752697 -0.019767804 0.13094482
000100 35 39 65 3d 16 22 b2 bd b8 2c 19 be d8 04 d2 bd
       0.05596276 -0.086979076 -0.14958465 -0.1025483
000110 44 49 c3 bc 40 34 34 be 78 36 03 3e 75 63 6c be
       -0.023838647 -0.17598057 0.12813747 -0.23084815
000120 5f 16 11 be c1 90 83 be ef c8 87 3d 40 82 c5 3c
       -0.1416869 -0.25696376 0.06630122 0.02410996
000130 3a df 1e be 1f 6d 35 3e 62 b0 35 be 6f cf 17 bd
       -0.15514842 0.17717408 -0.17743066 -0.03706306
000140 3d 9b c1 bd cd 70 6c be ef a5 f4 bb 80 7c e1 bd
       -0.094534375 -0.23089905 -0.00746607 -0.110100746
000150 10 04 6b bd 99 af 62 3e 6b e1 58 be 19 fc 04 3d
       -0.05737692 0.22137298 -0.2117974 0.03246698
000160 f7 69 33 3e 4d 20 6b 3e bc 3f ad bd 89 e1 24 3e
       0.17520891 0.2296154 -0.08459422 0.1610166
000170 ee ed 88 bd 11 8d 7c bd 5c 55 00 3c bf 61 3d 3e
       -0.066860065 -0.06165797 0.007832851 0.18494318

rnn.bias_hh_l0 f4 [96]
000000 15 e2 9c bd 1a b5 98 3d 45 0f ee bd 84 7c 83 3d
       -0.07660309 0.074564174 -0.11624006 0.06420234
000010 62 05 5c 3d b7 c7 38 3d b6 aa 87 bd 21 c8 d8 3d
       0.05371607 0.045112338 -0.066243574 0.105850466
000020 7b f2 0c be 50 38 97 3a c8 0b d7 bd b1 12 92 bd
       -0.13764374 0.0011537168 -0.10500294 -0.07132471
000030 83 92 5b 3e ff b0 59 bd 63 f5 8b 3c bc ff 64 3d
       0.21442609 -0.053147312 0.017084783 0.05590795
000040 c6 f6 64 be 69 66 80 3d 15 b9 b6 3d 2d b0 b7 3d
       -0.22359762 0.06269533 0.0892202 0.0896915
000050 29 93 c2 bd 84 b1 4b be fb 3d 23 be 8e 3f 19 be
       -0.09500725 -0.19891936 -0.15941612 -0.1496565
000060 c2 f0 50 3e 9f d9 b5 bd 73 49 db 3b 83 0e 4e 3e
       0.20404342 -0.088793986 0.0066921054 0.20122723
000070 f2 ac e5 bd a7 f7 53 be 8c 33 06 bd 6b 4e 03 3e
       -0.11214627 -0.2069994 -0.032764003 0.12822883
000080 23 23 b5 3c f6 ad 31 3d c9 5b 1c 3e 36 f7 cb bd
       0.022111481 0.043378793 0.15269388 -0.09959261
000090 21 3f 40 3e 1b ce 66 be 56 f6 9a ba 8e 5d 18 be
       0.18774082 -0.2253956 -0.0011822681 -0.14879438
0000a0 a6 13 fc bd 87 33 8f bd 7d f4 df 3d 17 b6 27 3a
       -0.12308435 -0.0699225 0.10935304 0.0006397678
0000b0 8d ec 3a 3d 64 87 43 3d cf ec 00 be 04 a5 6c 3d
       0.04563575 0.04773654 -0.12590335 0.05777456
0000c0 f3 ef 24 be 49 75 02 be 68 61 0e be 8d a3 5c bb
       -0.16107158 -0.12740053 -0.13904345 -0.003366682
0000d0 dd 94 65 bc 76 a7 c9 bd 04 d9 7e 3d b3 73 52 3e
       -0.014012543 -0.09846394 0.06221868 0.20551948
0000e0 90 b6 6e bd a1 09 39 3b 67 ee c5 3d 27 b3 75 be
       -0.058279574 0.00282345 0.09664612 -0.23994122
0000f0 bf 8b 54 3e a3 4f 18 be 35 e1 24 be b5 1d f1 bd
       0.20756434 -0.14874129 -0.16101535 -0.11773244
000100 f1 df 1a bc 61 34 bb 3d b4 85 9d bd 0b c6 2b 3d
       -0.009452806 0.0914085 -0.076915175 0.041936915
000110 5a 27 f8 bd a0 c0 dd bd 77 eb b3 bd 77 1d 08 be
       -0.12116881 -0.10827756 -0.08785146 -0.1329249
000120 75 bd 22 bc 3d 7b b8 3c 08 06 31 3e 86 99 99 bd
       -0.009932865 0.022519702 0.17287457 -0.074999854
000130 f1 29 8b be 7d b1 2b 3e be 2c 55 be e0 5f 48 3e
       -0.27180436 0.16766925 -0.20817849 0.19567823
000140 5c ba 0b bd db 4f 9a bd 14 b1 69 bd 1a f5 91 bd
       -0.034113273 -0.075347625 -0.05705364 -0.071268275
000150 9e 4f 30 3d 25 3b 2a bd 57 fa c0 3d 5f 6a 81 bd
       0.04304468 -0.04156031 0.094227485 -0.06319117
000160 92 37 73 3e 17 ad 9c bc aa d3 23 3d 12 77 67 3e
       0.23751667 -0.019125504 0.03999678 0.22604015
000170 78 30 20 3d a9 94 f3 bc ca da 44 3e 64 d5 54 3e
       0.039108723 -0.029733973 0.19224086 0.20784527

fc.weight f4 [64, 39]
000000 ec 18 18 3e 13 e6 6f 3e 7a 6d 88 3e 4c 72 7a 3e
       0.14853257 0.2342761 0.26646024 0.24457663
000010 65 56 c3 bb 26 b2 64 bd 1f c7 81 3d 9f 66 d1 3d
       -0.0059612268 -0.055833958 0.063368075 0.102246515
000020 32 d9 57 3e 6d 73 81 bd 12 86 3e 3e ba 78 92 be
       0.21078947 -0.06320844 0.18605831 -0.28607732
000030 5a a6 40 bd 79 97 24 be 2a a1 93 3d e6 0d 29 bd
       -0.047033645 -0.16073407 0.07208474 -0.04127302
000040 95 8e 02 bb 02 ac bb 3c 70 4c 98 bc 48 6d 0b be
       -0.0019921411 0.022909168 -0.018591136 -0.13615906
000050 0c ba 00 3c 6a e7 8b 3d d0 8a b0 3c bf 51 0f 3e
       0.007856857 0.06831248 0.021550566 0.13996027
000060 5f 48 fd 3c 66 4f e6 3d 7c 59 0d 3e 07 5b fc bc
       0.030918298 0.11245613 0.13803667 -0.030805124
000070 ca 6d f1 bd e6 b5 0d bb 5f c4 91 bd 9f 3a 01 be
       -0.11788519 -0.0021623312 -0.07117533 -0.12620018
000080 1c 2e 61 bb 7d d3 95 3d 45 dc 30 3e a6 14 64 be
       -0.0034359759 0.07315729 0.17271526 -0.22273502
000090 9c e8 b6 3d 6e 5d 81 be 5e 76 57 3e b5 25 8a bc
       0.089310855 -0.25266594 0.21041247 -0.016863683
0000a0 9f 69 5c 3e f8 61 93 bd 39 1b a3 3e 0d 53 93 bd
       0.21524666 -0.071964204 0.31856707 -0.07193575
0000b0 64 a3 f1 3d d0 7b b2 bd ea ec 75 3c 6b 2a 22 3e
       0.117987424 -0.087150216 0.015010098 0.15836494
0000c0 31 6b a7 3e 34 ef 65 be b0 4b 44 be 51 77 4d bc
       0.32698968 -0.2245453 -0.19169497 -0.012540654
0000d0 bc 8f 30 3d cb 8e 8a 3e 27 7e ec bd 6e 5e 67 be
       0.043105826 0.27062067 -0.11547499 -0.22594616
0000e0 2d 97 1d bd 8a 49 1d 3e a3 f1 59 3e f8 cf 01 be
       -0.03847425 0.15360084 0.21283583 -0.1267699
0000f0 c4 c8 62 bc f1 ee b1 3e a2 c8 63 3b b0 7b ae be
       -0.013841812 0.3475261 0.0034757038 -0.3407874
000100 07 de 77 bc 6c cb 78 be d2 22 af 3c 7e d0 bb 3d
       -0.015128619 -0.2429635 0.021378908 0.09170626
000110 1e 08 b0 3e a9 6e b3 3d 50 19 33 3d bb 44 eb 3d
       0.34381193 0.08761341 0.04372531 0.11487719
000120 ee 36 d6 3e e7 3d 93 bd 53 0d 6a be 7b e4 9e be
       0.41838783 -0.07189541 -0.22856645 -0.31033692
000130 bd 95 e9 bd 39 9d 5e bd b8 90 07 be 02 72 2b 3e
       -0.114055134 -0.054349158 -0.132388 0.1674271
000140 54 3d b4 3d b1 79 47 3e c5 f7 25 3e ca ba 0f be
       0.0880076 0.19480015 0.16207798 -0.14036098
000150 90 fc 5d bd a7 70 a5 bd 9b 0f 98 bd 75 79 62 3d
       -0.05419594 -0.08078127 -0.074248515 0.05529161
000160 4b 4e f8 bd 93 72 61 bd b3 64 3b 3e ac 57 80 bd
       -0.12124308 -0.055040907 0.18300132 -0.06266722
000170 5d 1a f0 bc 0b a6 22 3e 05 46 e3 bd 1c 83 b2 bd
       -0.029309446 0.15883653 -0.110973395 -0.087164134
000180 07 0c 2c 3e 90 a1 c1 3c 54 0d b5 bd 70 7b b4 bd
       0.16801463 0.02363661 -0.08840433 -0.08812606
000190 80 54 1b be 1d 27 f7 3d ae 4b 23 bd 46 93 11 be
       -0.15168953 0.12068007 -0.039867096 -0.14216337
0001a0 43 37 0d 3e d6 5d 25 3d 40 cb 39 be b1 d3 2a be
       0.13790612 0.040372692 -0.1814394 -0.16682316
0001b0 79 d3 68 3e bf ca 48 3e 21 6c 9a 3e 18 b7 1a bd
       0.2273692 0.19608591 0.3016062 -0.037772268
0001c0 9f 07 cc bd c1 7b 31 3e 60 47 34 3e 42 8e 47 be
       -0.09962391 0.17332365 0.17605352 -0.19487861
0001d0 c2 98 93 be a2 3c bd bd fe 4e 90 3d d0 f9 c9 3c
       -0.28827482 -0.092400804 0.070463166 0.024655253
0001e0 7d 30 8e be c0 e9 07 bd 94 54 da 3c 1f 9c 81 3e
       -0.2777137 -0.033181906 0.026651658 0.25314423
0001f0 2d 4c 1a be 43 1f aa 3d 4a 4d 3a 3d 65 84 55 bd
       -0.15068121 0.08306744 0.045483865 -0.052128214
000200 0a 35 55 3e d6 9e 9c be 84 b1 c2 bd ae 67 a6 be
       0.20821014 -0.30589932 -0.09506515 -0.32500976
000210 11 8c 7f bd 17 a2 f1 bd 1f d9 86 be ed ae ab be
       -0.062389437 -0.11798494 -0.26337525 -0.33531895
000220 46 c8 e5 bd 65 fa 8c 3e 4f 03 e2 3d 0d 41 ae be
       -0.1121984 0.27534786 0.11035787 -0.34034005
000230 53 60 9a be fe 9a 21 3e d2 02 3a 3e a7 5a 2e bd
       -0.30151615 0.15781781 0.18165138 -0.04256692
000240 c0 a3 7e 3e ab 61 02 be cc ae ec 3c 55 fc 20 3e
       0.24867153 -0.1273257 0.028891943 0.15721257
000250 da 89 2a 3e 6c e3 7a bd fc ca 95 be 9c 22 dd 3c
       0.16654149 -0.061252043 -0.29256427 0.026994042
000260 ff 83 da 3d b7 b7 34 3e 08 57 0b bd 35 9f b4 3d
       0.106697075 0.17648207 -0.034018546 0.08819429
000270 7b 9e 46 3e dc f9 4f 3e b4 38 fd 3d 45 b1 b2 bc
       0.19396393 0.20310158 0.12364331 -0.021813044
000280 af 95 56 be 13 65 cf 3c 18 67 a4 3d d6 2e b1 3d
       -0.20955537 0.02531675 0.08027476 0.08651511
000290 25 3a 68 be 49 3e 6a bd b6 5f 68 3e e1 ab 4a be
       -0.2267843 -0.057188306 0.22692761 -0.19792129
0002a0 5f 32 e0 3c a9 95 75 bd 7b 5f b8 3d 2d 15 5a be
       0.027367769 -0.05995718 0.090025865 -0.2129714
0002b0 79 81 91 3b dc 31 7e bd 06 72 81 3c d5 ab 5c 3e
       0.004440483 -0.06205927 0.01580144 0.21549924
0002c0 79 8b 62 3e 84 d4 da 3d 1c 81 35 be f6 22 17 3e
       0.22123517 0.106850654 -0.17725033 0.1475943
0002d0 ab 04 26 be 32 5a 1e 3e cc 98 a9 bc c9 f8 70 3e
       -0.16212718 0.15464094 -0.020702742 0.23532404
0002e0 73 62 e9 bd 75 8a 3d bd 01 25 72 3e 60 ed 3a 3e
       -0.11395731 -0.04627462 0.23646928 0.18254614
0002f0 1e 95 26 3e 7e a0 11 3e 6b 8c 0c be f3 ed 93 3c
       0.16267821 0.14221379 -0.1372544 0.018057799
000300 14 31 bc 3d 07 b0 4a 3e a8 36 0b bf 55 a6 63 bc
       0.091890484 0.19793712 -0.54380274 -0.013894637
000310 a3 08 2a be 0d ac 3d bd a8 44 7f 3e 32 1d 83 3e
       -0.16604857 -0.04630666 0.24928534 0.25608212
000320 54 28 8c 3e 7f 9d e4 bd e3 c7 50 3e 5f 86 84 bc
       0.27374518 -0.111628525 0.2038875 -0.016177354
000330 ff 50 67 3e 4f 0b f3 bd 88 43 7e be 0e dd bb 3d
       0.22589491 -0.11867391 -0.24830449 0.09173022
000340 ee ad 08 be fa 6f 3f 3e ef 2d 18 3e c9 4d 35 bd
       -0.13347599 0.1869506 0.14861272 -0.044263635
000350 ad b5 63 3e 8a 8b c6 bd cf 39 4d 3e ea ec d7 3c
       0.22237273 -0.09694584 0.20041583 0.026358087
000360 56 a2 74 be e6 d1 28 be 53 77 c6 bd 3a f0 25 3e
       -0.23890051 -0.1648632 -0.09690728 0.1620492
000370 26 f0 74 be 3b 9c 70 be 71 da 37 3e 37 27 87 3e
       -0.23919734 -0.23497097 0.17954423 0.26397106
000380 e7 3b 11 3e e0 da 8c 3d c6 9f 85 be 93 8e 8e 3e
       0.14183007 0.068776846 -0.2609846 0.2784315
000390 62 4b 8c 3c 96 f0 3d 3c 67 7a cc bb 73 c2 ba bd
       0.01712579 0.011593005 -0.0062401774 -0.091191195
0003a0 05 01 50 be 47 59 ea be 17 65 1b be 7a ec 44 be
       -0.20312889 -0.45771238 -0.15175281 -0.19230834
0003b0 1c 90 cf 3d 5d 19 4a 3d 44 8e 86 3d 57 49 3b be
       0.101349086 0.049340595 0.06570104 -0.18289696
0003c0 ae b2 c7 bc b0 85 8a bd 61 6e 79 bd 7a e7 f4 3d
       -0.024377193 -0.0676378 -0.06089628 0.11958213
0003d0 47 e5 a0 bd ce ef 3f 3e 0e 7a 16 be c4 5e 14 bd
       -0.07856231 0.18743822 -0.14694998 -0.036223188
0003e0 41 f1 cf 3d eb 92 9f 3d 3a 2f 24 3e ce a6 ae bd
       0.101534374 0.07791694 0.1603364 -0.08527909
0003f0 da 5f 36 be 3c f1 f7 bd cf 43 c1 bd b5 e8 c6 3d
       -0.17810002 -0.12106559 -0.094367616 0.09712354

fc.bias f4 [64]
000000 84 9a 04 be c3 42 7d be 4c c6 a5 3d 0e ca 63 3e
       -0.12949568 -0.24732499 0.08094463 0.22245046
000010 6a 29 b6 3d 1b 3e 31 be 04 06 a4 3d 04 d2 18 bc
       0.08894618 -0.17308848 0.0800896 -0.009327415
000020 95 50 29 be fe 80 21 be e3 54 89 be 9f 22 0c 3e
       -0.16534646 -0.15771863 -0.26822576 0.13685082
000030 ea d1 65 3d 98 fc 90 be d2 99 78 3d b4 06 a7 bc
       0.056108393 -0.28317714 0.06069357 -0.020388938
000040 7f a1 5b 3d 31 b0 6f 3d 22 0a 3a bc 9e 01 39 3d
       0.05362081 0.05851764 -0.011354955 0.045167558
000050 e1 7f 98 3d f8 ea 2e be 03 f4 92 bd 3c bc 32 3e
       0.07446266 -0.17081821 -0.07175448 0.17454618
000060 5c d4 08 bd a6 6e 4b be 0f 28 0f bc 38 dd 2b 3d
       -0.033405647 -0.19866428 -0.008737578 0.041959018
000070 64 3f 2a 3e da 42 7d 3d 35 88 87 3b ef 6a df bd
       0.16625744 0.061831333 0.00413611 -0.10909068
000080 1d ed 6a bd 0d ef b4 3d 02 ca 47 be 17 87 b8 3d
       -0.057355035 0.08834658 -0.19510654 0.09010141
000090 56 8e dd bd 08 fe 8c 3e 83 61 c4 3b ba 8c 54 3c
       -0.10818164 0.2753756 0.0059930696 0.012973005
0000a0 a3 aa 1b 3e 94 ed 55 be ad fb c6 3c 1e 38 77 3e
       0.15201811 -0.2089141 0.02428993 0.24142501
0000b0 27 b8 a1 3d 17 84 95 be c5 46 13 3e 09 08 a4 3d
       0.078964524 -0.2920234 0.14382465 0.08009345
0000c0 38 2a 03 be 86 42 68 3d c7 2c e9 3c 19 30 4b 3c
       -0.12809074 0.056704067 0.028463734 0.012401604
0000d0 53 34 fc 3d 8b 5e 9a 3d 17 b7 d0 bd 2c c2 3d 3e
       0.123146676 0.07537564 -0.101911716 0.18531102
0000e0 fa 2c 81 3d 8d c1 06 3e 5a 49 26 bd 19 ca 74 3e
       0.06307407 0.13159771 -0.040597297 0.23905219
0000f0 4c cc 3f be fc 1c 27 3b 54 00 84 be ea 32 1f be
       -0.18730277 0.0025499454 -0.257815 -0.15546766

pi.weight f4 [3, 64]
000000 2b 45 b3 bc b5 b3 61 be 21 75 10 be 81 64 a2 be
       -0.021883568 -0.22041209 -0.14107181 -0.31717303
000010 cf cf c0 3d 13 54 ab 3e 08 68 95 bd 30 40 e2 bd
       0.09414636 0.3346258 -0.07295233 -0.11047399
000020 e4 e6 b2 bc 40 ae 9d 3d 78 83 24 3e ba 3c 7d bd
       -0.021838613 0.07699251 0.16065776 -0.06182549
000030 38 38 04 3e bd 0c 9e be 47 ef 9b 3d 73 0a 60 be
       0.12912071 -0.30869094 0.07613998 -0.21878986
000040 d7 3d 13 be 42 22 77 3c d6 2c 84 be 83 06 10 3e
       -0.14379059 0.015083851 -0.25815457 0.14064984
000050 a6 15 60 bd e3 6f 16 3e 81 61 08 bd 07 03 64 3e
       -0.054708146 0.14691119 -0.033296112 0.2226678
000060 d2 65 ef bd db cb 59 3e cd 32 82 be a4 c1 da 3a
       -0.116893426 0.21269171 -0.25429383 0.001668979
000070 ac 83 ec bd 23 0f 2f be 1a 5e a5 3d 55 2b 5d 3e
       -0.11548552 -0.17095618 0.08074589 0.21598561
000080 47 0e 49 3e 61 5e 84 be 55 8f f0 bd aa 42 2f 3d
       0.19634353 -0.25853255 -0.117460884 0.042788185
000090 e8 2e b6 be 4a de 17 3d 00 2d 6d be 43 1d 22 bd
       -0.35582662 0.037077226 -0.23161697 -0.039578687
0000a0 16 a2 e5 bd 05 fc 7f 3e 2c 93 f9 3e 69 07 2c be
       -0.11212556 0.24998482 0.48745096 -0.16799702
0000b0 f0 df 15 3e cd f2 83 3e 02 a3 b9 3c 2f 0d be bc
       0.14636207 0.2577118 0.022660736 -0.023199646
0000c0 3c e1 0d be 31 7f f2 3c f3 aa 69 3d 9e 76 26 bd
       -0.13855451 0.029601665 0.057047796 -0.040640466
0000d0 85 d4 a6 3c a2 f8 8d 3d 17 94 73 be c0 ea 0d be
       0.02036501 0.069321886 -0.2378696 -0.13859081
0000e0 86 09 8a be 89 cf cf 3d 8c b5 83 3e 7d 0d b2 3d
       -0.2696039 0.10147006 0.25724447 0.08693979
0000f0 cb 19 6d bd 7d 87 20 3e 54 1e 8c 3c ef 02 6e bd
       -0.057885926 0.15676685 0.017104305 -0.058108266
000100 59 1d e2 bc 1b b6 18 be 0c 00 4b 3e ca f2 c4 3c
       -0.027601885 -0.14913218 0.19824237 0.024041552
000110 08 48 37 be c7 3f b4 3c 3b 9c 89 bc 56 d7 f0 bd
       -0.17898571 0.022003068 -0.01679813 -0.11759822
000120 18 02 f3 38 b8 10 cf bb f5 92 ab be ae ce 27 bd
       0.00011587533 -0.0063191317 -0.33510557 -0.04096859
000130 cd 59 57 be 95 68 92 3e 44 37 87 be 2b 83 b8 3d
       -0.2103035 0.28595415 -0.26409352 0.09009393
000140 97 cd 44 3e 49 6c 2a be f8 bf 8a 3e 63 ec d9 3b
       0.19219051 -0.1664287 0.27099586 0.006650494
000150 43 16 78 3c 95 4d bd 3c 36 87 88 be b0 01 89 bd
       0.015142026 0.023108283 -0.26665658 -0.06689775
000160 54 5c fd 3d 93 5d fe 3d 1c 2c 99 3e 62 ce ce be
       0.12371126 0.124201916 0.29916465 -0.40391833
000170 1f 5d 70 3c 20 e3 2b be 36 19 fa bc 6b 9a ca 3d
       0.014670639 -0.1678586 -0.0305296 0.09892734
000180 66 44 9e 3d ae e0 18 3c 2a 7e 54 3e 55 64 09 3d
       0.0772789 0.009330912 0.20751253 0.03354295
000190 c1 52 a1 bd 4c f6 34 bd a6 a9 19 3e 94 fb 2c 3e
       -0.07877112 -0.0441802 0.15006122 0.16892844
0001a0 18 f5 7d 3c 3d 83 04 be 10 9b 85 be 31 42 51 3d
       0.015500329 -0.12940688 -0.26094866 0.051088516
0001b0 13 7a 80 3e 7f 06 33 3e 39 f6 05 3e 44 4d c9 3d
       0.25093135 0.17482947 0.13082208 0.098291904
0001c0 cf 01 41 be fd a2 86 be 85 5c bc bd f3 7c c4 bd
       -0.18848346 -0.26296225 -0.09197334 -0.09594145
0001d0 a5 1e 2e be d0 88 31 3e d9 8e c0 3e 24 6b 64 3e
       -0.17003877 0.17337346 0.37608984 0.22306496
0001e0 ee 17 8e 3e e2 0e db ba c1 fe 44 be 8a 96 03 bf
       0.27752632 -0.001671281 -0.19237806 -0.5140158
0001f0 30 2c 98 be 02 c9 17 be 37 42 87 bd 71 0e 6a be
       -0.29721212 -0.14822772 -0.06604426 -0.22857071
000200 ed e6 77 3e 5b c1 82 be 77 ce 8e bd 26 66 a9 3e
       0.24209185 -0.25538144 -0.06972974 0.33085746
000210 08 43 83 3e 74 47 f1 bd d6 91 e6 3d af 46 ed bd
       0.25637078 -0.11781207 0.11258285 -0.115857475
000220 bb ca 69 be af 44 4b 3e 44 48 9d 3c 41 3f c6 3e
       -0.22831242 0.1985042 0.019199498 0.38720134
000230 27 4b 94 3b 2f 32 f0 3e f8 e1 f7 be 86 51 20 3e
       0.0045255604 0.46913287 -0.48414588 0.15656099
000240 92 63 81 bd a0 35 c0 be 5f 2a e1 3d ef 4e 5f 3e
       -0.0631782 -0.37540913 0.1099441 0.21807455
000250 15 3e 80 3e da 9a fd 3b 59 11 e5 3d 06 c4 ee bd
       0.25047365 0.007739407 0.111849494 -0.11658482
000260 f8 56 02 be d8 17 83 3e c0 50 d3 3e 4b f7 84 bc
       -0.12728488 0.2560413 0.41272545 -0.0162312
000270 07 83 a7 3e 64 a2 f6 3d a9 92 4d be de 7c 23 be
       0.32717153 0.12042692 -0.20075478 -0.15965602
000280 9d 28 6b be 75 54 dd 3e e1 4c 2d be 65 0d c3 bd
       -0.22964711 0.43228498 -0.16923858 -0.09524039
000290 4b dc 1e 3e cb 88 78 be 30 58 f0 3d d1 d2 9e 3b
       0.15513723 -0.24270932 0.117355704 0.0048469086
0002a0 0e 1f b2 3c f7 43 83 3e 1d 62 9e 3d 3c db 2a be
       0.021743324 0.2563779 0.077335574 -0.16685194
0002b0 53 61 35 bc 2a 79 59 3d 5d 05 28 3c ec 3f 4b bd
       -0.011070567 0.053094067 0.010255185 -0.049621508
0002c0 88 fc 36 3e 3e fb 1c bd ea 6e 24 3e 07 32 cb 3d
       0.1786977 -0.03832554 0.16057935 0.09921651
0002d0 e5 55 41 3d c2 1e b5 bd 90 b5 c0 3e 2e fb 9a 3e
       0.047201056 -0.08843757 0.3763852 0.3026976
0002e0 26 7d e1 3d f6 c8 e3 bd c0 bf 5b 3d 41 42 26 be
       0.11010198 -0.11122315 0.053649664 -0.16236211
0002f0 e8 8e 95 3d 30 cc b9 3d f4 52 a1 3d 64 39 52 be
       0.07302648 0.09072149 0.0787715 -0.20529705

pi.bias f4 [3]
000000 18 ff 4f 3d 7e 35 86 3d fe eb f9 3d
       0.050780386 0.065531716 0.12203215

mu.weight f4 [3, 64]
000000 1b f8 7b be 63 ae 63 bd 0c eb 83 3e a1 55 12 be
       -0.24606363 -0.05558623 0.25765264 -0.14290477
000010 f8 3a 30 bc cc 44 b1 bc 1e 06 b9 3d 57 e9 f1 3e
       -0.010756247 -0.02163925 0.0903437 0.47248337
000020 d6 5e e1 bd cb 8c 5f be 4b fa c5 3d 9b 99 e1 3c
       -0.11004417 -0.21831052 0.0966688 0.027539065
000030 3a 7e 00 3e 13 0f ad be 4f 19 00 3e 85 94 05 be
       0.12548152 -0.33800563 0.12509654 -0.13044937
000040 47 fd 48 be 88 09 87 bb 0e fb 54 3d 59 58 60 be
       -0.19627868 -0.0041210093 0.051997237 -0.21908702
000050 f5 3d 80 3e 36 c7 34 3e 17 ab 80 3e f6 63 6f be
       0.2504727 0.17654118 0.2513053 -0.23377976
000060 d3 f4 76 be 36 2d 7b be 51 90 d7 bd c1 ff 62 3e
       -0.2411683 -0.24528965 -0.10525573 0.22167875
000070 0b d2 07 3e 57 55 b0 be 2d cf 81 be 3b 0e 4c 3e
       0.13263719 -0.3444011 -0.25353375 0.19927303
000080 17 30 da 3d f1 71 94 3e 07 bd 7e be e7 a7 c6 bc
       0.10653704 0.2899318 -0.24876796 -0.024249984
000090 9c 00 a3 3d d3 82 10 be 73 0c 91 bd 4e aa d5 bc
       0.079591006 -0.14112405 -0.070824526 -0.026082184
0000a0 2c 7a 13 be 17 6b 59 3e b7 26 97 3e f8 8d 6b be
       -0.14402074 0.21232258 0.29521725 -0.23003376
0000b0 27 e9 23 3e 96 b0 51 be 89 01 4f be f9 ab b8 3c
       0.1600691 -0.20477518 -0.2021543 0.02254294
0000c0 2d a7 1a be b3 47 c4 3d 58 1a 07 3d 13 46 af bc
       -0.15102835 0.09583988 0.032984108 -0.021395719
0000d0 65 5a 5b 3d f1 a6 50 be 03 bb 49 3e 63 44 17 3e
       0.053553004 -0.20376183 0.19700246 0.14772181
0000e0 d8 73 7d be 5f 27 67 3e 5e 53 c5 be bc d3 d8 bd
       -0.24751222 0.22573613 -0.38540167 -0.1058726
0000f0 a6 bb dd 3d ba d4 92 3e 42 f1 70 3e 7c fc 78 3e
       0.10826807 0.28677922 0.23529533 0.24315065
000100 b1 b2 86 3e e2 ba 2a bd 66 24 83 be b2 a4 a7 3c
       0.26308206 -0.04168213 -0.25613707 0.020464275
000110 94 ab 92 be bf d6 2c be 2f e0 5f be 18 bb c2 3e
       -0.2864653 -0.16878794 -0.21862863 0.38033366
000120 5b 71 ca bc 39 43 a2 be 35 50 e8 3d 32 d3 35 3e
       -0.024712255 -0.31691912 0.11343423 0.17756346
000130 d8 bc e4 bd 27 bf 5a 3c 4f f0 d3 bd a1 28 0e 3e
       -0.111688316 0.013351238 -0.103485696 0.13882686
000140 f0 01 b9 3c 52 40 92 3d cf 47 59 be 81 55 78 bd
       0.022583932 0.071411744 -0.21218799 -0.060628418
000150 7d 83 6e be d5 1a 32 be eb 0c ce bc f7 99 18 3e
       -0.23292346 -0.17393048 -0.025152644 0.14902483
000160 95 ce 07 3e 01 ea 23 be 5f a6 b4 be b2 13 38 be
       0.13262399 -0.16007234 -0.3528318 -0.17976263
000170 25 67 45 be b9 27 25 3e fc 61 4b be be ec c0 bc
       -0.19277628 0.16128434 -0.19861597 -0.023550387
000180 5a 2f 59 be 37 d6 51 3e cf 83 01 3e b2 17 93 3d
       -0.2120947 0.20491873 0.12647937 0.07182254
000190 b4 0e 6d 3e 0f 0d 28 bc 06 f9 8a 3b ac b1 7e be
       0.2315014 -0.01025702 0.0042411117 -0.24872464
0001a0 73 86 4d be 80 89 4f 3e 49 89 12 be 26 62 cb 3d
       -0.2007082 0.20267296 -0.14310183 0.0993083
0001b0 d5 a7 a1 3e 75 00 0c 3e fb c5 04 3e 3f 6d 41 3d
       0.31573358 0.1367205 0.12966149 0.047223326
0001c0 a9 ce 69 3e 4d 56 44 be 11 d1 e0 bd b7 59 8d be
       0.22832741 -0.19173546 -0.10977376 -0.2760751
0001d0 21 bd 40 be f5 c6 e2 bd f9 b2 66 be d1 50 21 3e
       -0.18822147 -0.11073104 -0.2252921 0.15753485
0001e0 54 de 54 be bb 05 2b be 49 0d 99 be b1 23 31 3d
       -0.20787936 -0.16701405 -0.29892948 0.04324693
0001f0 10 6c 39 3d 24 51 16 be 4f d5 0d be 3a 55 2d bd
       0.045269072 -0.1467939 -0.13850902 -0.042317607
000200 f7 be 2c 3e 3f bf 3c be cc 30 1a be 50 33 8b 3d
       0.16869722 -0.1843233 -0.15057677 0.067968965
000210 92 ca 80 be af 03 73 be 85 7c 27 be fb 1d 01 3f
       -0.2515455 -0.23731874 -0.16356094 0.5043637
000220 f1 03 94 be 61 68 15 be 7b 6a 82 3c 6b 5a 61 3e
       -0.28909257 -0.14590599 0.015919914 0.22007148
000230 f1 c7 fe bd bd a1 97 be 97 40 22 3a 84 70 0b 3e
       -0.124404795 -0.29615584 0.0006189434 0.1361714
000240 8b 21 84 3e a1 bc 8b 3e 96 4f 94 be 69 66 31 3e
       0.2580684 0.2729235 -0.2896697 0.17324223
000250 19 3c 98 bd de ca 1e be 28 e1 9c 3e 86 de 8d bd
       -0.07433338 -0.15507075 0.3064053 -0.069272086
000260 ad 4b a8 bb e1 51 c1 3d 18 de 2a 3e 43 2b 92 3c
       -0.0051359744 0.09439445 0.16686285 0.017842894
000270 0a c0 77 3e f0 17 a1 be f6 96 63 be 8a 11 83 be
       0.24194351 -0.31463575 -0.22225556 -0.2559932
000280 a5 c2 5c 3e 61 6e 96 3d 64 73 8f be 53 0b 48 be
       0.21558626 0.07345272 -0.28017724 -0.1953557
000290 9f 2b 6f bd ee 42 ef bc 0d e7 37 be 7b c5 0e bd
       -0.05839121 -0.02920672 -0.17959233 -0.0348563
0002a0 4f 62 13 be 49 94 59 3d cd 4a 1e 3c a0 72 92 be
       -0.1439297 0.05311993 0.009661389 -0.28603077
0002b0 7b 9b 84 be 2f b2 b4 3d 3d 1d f9 3d 05 b9 71 3e
       -0.25899872 0.08823048 0.1216378 0.23605736
0002c0 80 f1 77 3e 42 2f 1b be c2 01 79 3e 35 04 cd be
       0.24213219 -0.15154746 0.24317077 -0.40042272
0002d0 04 70 8c 3c e9 9c 8b bd c1 13 c2 bd 79 69 31 3e
       0.017143257 -0.068170376 -0.09476424 0.17325391
0002e0 33 dc 61 be 7f 55 96 3d 8f d8 a2 be 58 95 54 be
       -0.22056656 0.07340526 -0.31805846 -0.20760095
0002f0 bf 6d 85 be a7 53 99 3e 4a 63 28 3d 34 67 4d 3e
       -0.26060292 0.29946634 0.041110314 0.200589

mu.bias f4 [3]
000000 b1 5c 21 bd de d2 c5 bd a9 db 7e bd
       -0.039395038 -0.0965936 -0.062221203

sigma.weight f4 [3, 64]
000000 48 53 da 3e 96 68 ee 3e 54 01 a4 be d0 a6 04 bf
       0.42641664 0.46564168 -0.32032263 -0.51817036
000010 be f5 03 bf c8 0c e5 bb d3 23 fd bd d6 63 fb 3c
       -0.5154685 -0.006990049 -0.123603486 0.030687254
000020 c5 a3 8d 3e c1 d0 e2 3e 36 88 55 3e c5 75 f8 be
       0.2766401 0.44299892 0.20852742 -0.4852735
000030 5a 60 39 3f a9 da 90 3d 8b c0 52 bf b6 e4 97 3d
       0.72412646 0.07072956 -0.8232505 0.0741667
000040 a3 35 e9 3e 44 ff 4f 3f 12 ea d9 be 60 2e 11 bf
       0.45548734 0.8124888 -0.42561394 -0.5671139
000050 82 de 80 bd 16 e1 80 3e 96 7b a0 3e b8 db 88 be
       -0.0629244 0.25171727 0.3134429 -0.26730132
000060 34 20 8d 3e 0b d5 46 3e 29 57 de bd 20 f9 de 3e
       0.27563632 0.19417207 -0.10856468 0.43549442
000070 3f 96 3f bd 66 03 7c 3f 26 53 8a 3e df 03 98 3e
       -0.046774145 0.98442686 0.27016562 0.29690453
000080 2a 09 b8 3e 55 a2 12 bf 55 5e 21 bd 9d bd e7 be
       0.35944492 -0.5727895 -0.039396603 -0.4526185
000090 b3 fd 1a bf c5 7c ae be 33 ca aa 3e 5f c9 bc be
       -0.60543364 -0.34079567 0.3335739 -0.36872384
0000a0 ff da 58 bf 0c fc 27 3f 83 19 53 3f 19 b5 82 be
       -0.8470916 0.6561897 0.824608 -0.25528792
0000b0 05 23 19 be 15 29 8c bc 39 c0 b4 bd 4c 75 27 3f
       -0.14954765 -0.017109433 -0.08825726 0.65413356
0000c0 83 45 19 3e 40 e5 61 3f cd 50 53 be d8 69 08 3d
       0.14967923 0.8824043 -0.20636292 0.033304065
0000d0 3a 05 41 bf 66 07 8b bf aa c6 43 be 6e 1c dd 3b
       -0.753986 -1.0861633 -0.19118753 0.006747774
0000e0 a0 96 fc 3e 3f a1 74 3d eb 6f 22 be da 2a 5c bf
       0.49333668 0.05972409 -0.15863006 -0.86002886
0000f0 1a 5d 1c 3c a3 bc c7 3c d8 22 74 bd f6 2e c1 3e
       0.0095436815 0.024381941 -0.059603542 0.3773114
000100 36 f4 39 3d 69 de b8 3e 31 a0 b2 3d 9c 29 22 3e
       0.045398913 0.36107185 0.0872196 0.15836185
000110 28 1d a9 bc 27 ac af 3e 40 0f c8 be 3d d7 10 3d
       -0.020643786 0.3431103 -0.39074135 0.035361517
000120 29 89 97 3d 91 ee 10 bc c0 eb bf 3e fa 83 50 be
       0.07399208 -0.008845941 0.3748455 -0.20362845
000130 3f c1 8b 3d 6a c6 f8 3e fd 01 3c bf c6 7d bf 3d
       0.06823968 0.48588878 -0.73440534 0.09350161
000140 34 1a b2 3d 1d 75 c3 be 84 d6 6b be 96 30 af be
       0.08696404 -0.38175288 -0.2303105 -0.34216756
000150 d3 76 7d be 4e 6d 73 3e 03 6e 87 3e 10 c5 ed be
       -0.24752359 0.23772165 0.2645112 -0.4643941
000160 60 93 60 3e 0c 55 3d 3e 24 20 19 3f 15 68 de be
       0.21931219 0.18489474 0.5981467 -0.43438783
000170 e7 06 b2 be f9 3e 9b 3e 12 33 e7 3e ea 50 1b be
       -0.3477089 0.30321482 0.4515615 -0.15167585
000180 34 83 43 3e 04 f1 44 be f4 8e d0 3e ba 27 7b bd
       0.19093019 -0.19232565 0.40734065 -0.061317183
000190 04 cb 9e 3d 79 bc 18 bf 9e 48 a6 bd 56 6b 8a be
       0.07753566 -0.59662586 -0.081193194 -0.27035016
0001a0 2a 92 5f be 4b d9 aa 3e c4 f2 0f 3e e4 c4 0b be
       -0.21833101 0.33368906 0.14057451 -0.13649327
0001b0 7e 7f 78 be 8c 54 02 3f c3 28 d8 bc ae 55 4f 3e
       -0.24267384 0.5091026 -0.026386624 0.20247528
0001c0 71 08 46 3e e0 0a 08 3e b3 c0 cc 3d fc 51 83 bd
       0.19339158 0.13285398 0.09997692 -0.06412122
0001d0 0f b7 20 bf ea 7b c9 be 08 5e 58 3f 29 2a 0d bf
       -0.62779325 -0.3935235 0.8451848 -0.55142456
0001e0 a9 9a ff 3e 1c bf b3 be 18 32 ed 3e 3f 18 36 bf
       0.49922684 -0.35106742 0.4632728 -0.71130747
0001f0 cc c6 4c 3e a7 23 85 3e 24 b7 d0 3e 40 34 9b 3e
       0.1999771 0.26003763 0.40764725 0.303133
000200 63 43 15 3e 24 13 bf 3e be c0 2c 3e d2 4c b5 be
       0.14576487 0.3731929 0.168704 -0.35410172
000210 a4 19 98 bd f3 33 58 3e bb 97 b1 bc fe 16 9a 3e
       -0.074267656 0.21113567 -0.021678796 0.30095667
000220 ef 3f ce 3e 61 74 d0 bd d2 ee 94 3e be 22 da bd
       0.40283152 -0.101784475 0.29088455 -0.10651158
000230 14 b1 01 3d fa 06 29 3f be d2 34 bf e6 b0 07 3d
       0.031663015 0.6602627 -0.7063407 0.033127688
000240 55 74 72 3e ff 56 39 bf f0 2a c6 bd 20 c8 b2 be
       0.2367719 -0.7239837 -0.096761584 -0.34918308
000250 6c 5b 7e be 4b 75 0f 3c 06 88 27 3e b3 b3 4e be
       -0.24839562 0.008755992 0.16360483 -0.20185737
000260 84 c6 ad 3d 50 16 74 3d 11 87 03 3f f4 34 1e bf
       0.084851295 0.05959159 0.5137797 -0.6179955
000270 cb ac 05 be 94 25 9a bd 18 76 b0 3e d6 1e 7a 3e
       -0.13054197 -0.07526699 0.34465098 0.24425825
000280 06 fe a5 3e 45 2f 95 be c4 38 92 3e de dc 9f be
       0.32420367 -0.29137626 0.28558934 -0.31223196
000290 70 c5 27 3e db 5b 2e bf 20 cc e3 3c 14 f2 0e be
       0.1638391 -0.6810891 0.027807295 -0.13959533
0002a0 1f 0d 61 bd 65 3a 97 3e 5a 3b 2c 3e a2 8a 01 bf
       -0.054944154 0.2953674 0.16819516 -0.5060216
0002b0 87 1b d6 be 8b b8 10 3f 2a 0b 44 bd 90 d9 fb 3d
       -0.41817877 0.5653159 -0.04786221 0.12297356
0002c0 4c 4a f2 3e 87 f0 1e 3e a3 87 3d bc 99 13 a7 3d
       0.4732231 0.15521441 -0.011567983 0.08158035
0002d0 f3 dd ab bd b9 89 91 be ed 73 6b 3f 0e 1c 9d be
       -0.08391943 -0.28425387 0.91973764 -0.30685467
0002e0 99 32 3e 3e 2e f8 29 be b8 db 03 be 9e 5e 3b bf
       0.18573989 -0.1659858 -0.12876785 -0.7319125
0002f0 9f 7a de 3e 06 ec aa bc 83 2f ae 3e a8 50 51 3e
       0.43452927 -0.020864498 0.34020624 0.20440924

sigma.bias f4 [3]
000000 65 12 f8 bb 13 63 60 3c 8c c0 06 be
       -0.007570552 0.013695496 -0.13159388
