weights/model_weights.pth (torch, 29258 bytes, 12 tensors)

rnn.weight_ih_l0 f4 [96, 3]
0	0xbdc1e3dc	-0.09467289
1	0x3ded56cd	0.115888216
2	0x3e2957ec	0.16537446
3	0xbe500849	-0.2031566
4	0x3d12a00e	0.03579717
5	0xbd690954	-0.05689366
6	0xbd94185f	-0.07231211
7	0xbdc09447	-0.09403282
8	0xbd5366c9	-0.051611695
9	0x3d458ab7	0.048227992
10	0xbd390e6f	-0.04517978
11	0xbe949c23	-0.29025373
12	0xbde8e072	-0.113709345
13	0x3dc613b9	0.096717305
14	0xbddbd769	-0.107344456
15	0x3e3448eb	0.17605941
16	0x3e5969b1	0.21231724
17	0xbe4bfb65	-0.19920118
18	0xbe111480	-0.14167976
19	0x3e8c4b8f	0.27401397
20	0xbe4770a0	-0.19476557
21	0xbe53c487	-0.20680438
22	0x3cfde1a1	0.030991377
23	0x3e539314	0.20661575
24	0xbde25621	-0.11051584
25	0x3c8b8676	0.01703189
26	0x3e926df4	0.28599513
27	0xbd054317	-0.032534685
28	0x3b85296c	0.0040637758
29	0xbe4b057e	-0.19826314
30	0x3c181e27	0.009284533
31	0x3dd4708a	0.103730276
32	0x3e23cfcf	0.15997241
33	0xbe91005c	-0.28320587
34	0xbec65782	-0.38738638
35	0xbe2e184b	-0.17001455
36	0xba9d3974	-0.0011995272
37	0x3e904b27	0.28182337
38	0xbd59e7da	-0.053199627
39	0x3dad6efc	0.08468434
40	0x3e0a383c	0.13498014
41	0xbe4898f3	-0.19589595
42	0x3dd23b3c	0.10265204
43	0xbe7ce478	-0.24696529
44	0xbda436b3	-0.080182455
45	0xbdbbf39e	-0.09177326
46	0x3e441cdb	0.19151632
47	0xbebdf134	-0.37098086
48	0xbd843ac6	-0.06456523
49	0xbde6bb49	-0.112661906
50	0x3d693ef1	0.05694479
51	0x3d434ee7	0.04768267
52	0xbb86acbd	-0.0041099475
53	0xbf1a47dc	-0.602659
54	0xbe1f354e	-0.15547678
55	0x3e04ec96	0.12980875
56	0x3e4afb84	0.19822508
57	0xbe699685	-0.22811325
58	0x3dfda92b	0.12385782
59	0xbdc25183	-0.094882034
60	0x3c274211	0.010208623
61	0xbcb6980a	-0.022289295
62	0xbcfc6b1e	-0.030812796
63	0xbba6e514	-0.005093226
64	0x3de747da	0.112930015
65	0xbe98ec14	-0.29867613
66	0x3d3d4950	0.046212494
67	0xbe4bb61e	-0.19893691
68	0x3e2021d6	0.15637907
69	0xbe64df06	-0.22350702
70	0x3d98263a	0.07429166
71	0x3f597c78	0.8495555
72	0x3e817db9	0.2529123
73	0xbdcd2fee	-0.100189075
74	0x3e4f4291	0.20240237
75	0xbe079744	-0.13241297
76	0x3ce1131d	0.027474934
77	0x3e77f75e	0.24215457
78	0xbe249099	-0.16070785
79	0x3d1ebc5c	0.038753852
80	0xbee48a15	-0.44636598
81	0x3db7ba03	0.08971026
82	0x3c8a184c	0.016857289
83	0x3d6bcbf9	0.05756757
84	0x3d2e9ef9	0.042632077
85	0x3d3befa0	0.04588282
86	0x3d8777de	0.0661466
87	0xbe0e4cee	-0.13896534
88	0x3d79dcfa	0.061001755
89	0x3d1d3679	0.038382027
90	0x3e1a657f	0.1507778
91	0xbded3fb5	-0.11584417
92	0x3df2ca69	0.11855013
93	0x3e05cab9	0.13065614
94	0x3d2c0da1	0.042005185
95	0x3d0fc117	0.035096254
96	0x3cfb783d	0.030696983
97	0x3e297211	0.16547419
98	0xbea11ac4	-0.31465733
99	0x3d6a3539	0.057179663
100	0x3ea2c8c9	0.31793812
101	0x3e497842	0.19674781
102	0x3e366eea	0.17815748
103	0x3e8acdce	0.27110142
104	0xbe33e2b2	-0.17566946
105	0xbda2c2ad	-0.07947288
106	0xbeaa68ea	-0.33283168
107	0x3eab4622	0.33451945
108	0x3d728e86	0.059217952
109	0x3eb2d370	0.3492694
110	0x3e756874	0.23965627
111	0x3e2c315c	0.16815704
112	0xbea2e50a	-0.31815368
113	0x3dede364	0.11615637
114	0x3e19ff83	0.15038876
115	0xbf486ed1	-0.7829409
116	0x3e31861a	0.17336312
117	0xbc97c5c7	-0.018526925
118	0x3df8f052	0.121552125
119	0xbdd4ddee	-0.10393892
120	0xbca9fb60	-0.020749748
121	0x3f640bd1	0.8908053
122	0xbe79ca8d	-0.24393673
123	0x3c50d4c5	0.012746041
124	0x3f7d5fc4	0.9897425
125	0x3d9f9b55	0.07793299
126	0x3dd4d85d	0.103928305
127	0xbe1e997a	-0.15488234
128	0xbe0c39e8	-0.13693964
129	0xbebabc64	-0.36471856
130	0x3f3eafa5	0.7448676
131	0x3d154a3e	0.036447756
132	0x3dae8c4a	0.08522852
133	0x3ec37fb4	0.38183367
134	0xbe7ab8b4	-0.24484521
135	0xbcbf82c8	-0.023377791
136	0xbe1b056e	-0.1513879
137	0x3b78a811	0.0037941972
138	0x3db7c365	0.089728154
139	0x3d427120	0.047471166
140	0x3d58888e	0.052864604
141	0x3e12355a	0.14278165
142	0x3f3a314f	0.7273149
143	0xbe0c33a6	-0.13691577
144	0x3d99cd7e	0.07509898
145	0x3e395289	0.18097891
146	0xbea5ed84	-0.32407773
147	0xbe3c7eb8	-0.18407714
148	0x3f79faeb	0.97648495
149	0xbef191dc	-0.47181594
150	0x3e10b128	0.1413008
151	0x3e170687	0.14748584
152	0x3c95ff7b	0.0183103
153	0x3e727d4a	0.23680606
154	0x3e7d7291	0.24750735
155	0xbdb96521	-0.09052492
156	0xbd83fc35	-0.06444589
157	0x3da294e4	0.07938555
158	0x3e5c2e0f	0.21501945
159	0x3dd3cfd4	0.103423744
160	0x3ee2ecad	0.44321194
161	0x3e8f93bd	0.28042403
162	0x3daac4e8	0.08338338
163	0x3da81e93	0.082089566
164	0xbe932e16	-0.28746098
165	0x3d3f1f64	0.046660796
166	0x3f6da9c7	0.92837185
167	0xbf557203	-0.83377093
168	0x3ead66d9	0.3386753
169	0x3e7e653c	0.24843305
170	0xbe487caf	-0.19578813
171	0xbd764ff1	-0.06013483
172	0x3f110c5d	0.5665949
173	0xbe9f041b	-0.3105782
174	0x3e13b86b	0.14425819
175	0x3f6c4c76	0.9230417
176	0xbe1bbb92	-0.15208271
177	0x3d3c8758	0.04602751
178	0x3e187d3a	0.1489152
179	0xbe52717b	-0.20551102
180	0xbd6c4918	-0.057686895
181	0x3d97016e	0.073733196
182	0xbea27ee2	-0.3173743
183	0x3dbc9c9c	0.09209558
184	0x3e0975d9	0.13423862
185	0xbc912e80	-0.017722368
186	0xbdc3bccd	-0.09557495
187	0x3e1ebd10	0.15501809
188	0x3ab4c36c	0.001379115
189	0x3d8f7673	0.07005014
190	0x3f311cf6	0.69184816
191	0xbea4f9ec	-0.32221925
192	0x3dafa558	0.08576459
193	0xbe1c8a79	-0.15287198
194	0xbec010c1	-0.37512782
195	0x3e04107a	0.1289691
196	0x3d831f86	0.06402497
197	0x3d9b1d3a	0.07573934
198	0xbd99656e	-0.07490049
199	0x3dabbdbc	0.08385798
200	0x3e3b3782	0.18282893
201	0xbdfeee49	-0.12447793
202	0xbd9090eb	-0.07058891
203	0x3e06d3c2	0.13166717
204	0x3e00025e	0.12500903
205	0xbde246ab	-0.11048635
206	0xbd503646	-0.05083301
207	0x3ca0470d	0.01956513
208	0x3e43262c	0.1905753
209	0xbcb50dbb	-0.022101274
210	0xbe0977b0	-0.13424563
211	0x3e07b493	0.13252477
212	0xbcdb120e	-0.026742008
213	0xbd7f8b7a	-0.062388875
214	0x3df3054c	0.11866245
215	0xbdc33661	-0.09531856
216	0xbca28913	-0.019840753
217	0xbca2b0e8	-0.019859746
218	0x3ea1051e	0.31449217
219	0x3c215054	0.009845812
220	0xbe010403	-0.12599187
221	0xbdc35082	-0.0953684
222	0xbc9118b3	-0.017711973
223	0xbd578d2c	-0.052624866
224	0x3caf55bb	0.021403184
225	0x3d3f28f5	0.04666992
226	0x3ec86665	0.3914062
227	0x3e1f07c2	0.15530303
228	0xbd9d835b	-0.0769107
229	0xbd883f4c	-0.06652698
230	0x3e869741	0.26287273
231	0x3db68ee1	0.08913971
232	0x3e55282c	0.20816106
233	0x3c2fef55	0.010738214
234	0xbd857f84	-0.06518462
235	0x3ca553e8	0.020181611
236	0xbcf9f8f5	-0.03051422
237	0xbe2ce297	-0.16883312
238	0xbd4e346b	-0.05034296
239	0xbe6eba36	-0.23313221
240	0xbe0204b7	-0.12697111
241	0xbe0af9ff	-0.13571928
242	0x3e173487	0.14766131
243	0x3e0d71ff	0.13813017
244	0xbe5870aa	-0.21136728
245	0x3f290959	0.6602989
246	0x3bc35257	0.0059607434
247	0xbe063251	-0.13105132
248	0xbe7ffaa6	-0.24997959
249	0x3e130465	0.14357145
250	0xbe94783c	-0.28997982
251	0xbe466191	-0.19373156
252	0xbba26424	-0.0049557853
253	0xbd813ad1	-0.063100465
254	0x3dab06d5	0.083509125
255	0x3ca760f2	0.02043197

rnn.weight_hh_l0 f4 [96, 32]
0	0x3d06c95f	0.032906886
1	0xbdec685e	-0.11543344
2	0x3ddfdec7	0.10931163
3	0x3e22a939	0.15884866
4	0xbe1600e3	-0.14648776
5	0x3df11a95	0.11772648
6	0xbe2f9e8a	-0.17150322
7	0xbdff5932	-0.124681845
8	0x3dbf493b	0.093401395
9	0xbe323c70	-0.17405868
10	0xbe13dc4f	-0.1443951
11	0xbe276922	-0.16348699
12	0xbdb42688	-0.08796412
13	0xbdc18b57	-0.09450405
14	0x3df60a2e	0.1201366
15	0x3d5e8a2c	0.05433099
16	0xbe035a12	-0.12827328
17	0xbd51c8bb	-0.051216822
18	0x3e07a406	0.13246164
19	0xbe2e14fd	-0.17000194
20	0x3e0fdbd5	0.14048703
21	0x3dd6ddaa	0.10491498
22	0x3de6cab0	0.11269128
23	0x3d966c84	0.073449165
24	0xbdf677a4	-0.120345384
25	0xbc337a3a	-0.010954434
26	0x3dced588	0.100993216
27	0xbe00b332	-0.12568358
28	0xbe245adb	-0.16050284
29	0x3e33e85b	0.17569105
30	0xbd32c83c	-0.04364799
31	0xbdb0b54f	-0.08628332
32	0xbdd7cb10	-0.10536778
33	0x3df0249c	0.11725733
34	0xbd530890	-0.051521838
35	0x3d7dc080	0.06195116
36	0x3e08df65	0.13366468
37	0x3dd57146	0.10421996
38	0x3da4365c	0.08018181
39	0x3e2515ca	0.16121593
40	0x3dcfe224	0.10150555
41	0x3dde5609	0.10856254
42	0x3c4edade	0.012625424
43	0xbce4525e	-0.027871307
44	0x3d9c87b2	0.07643069
45	0x3c513771	0.012769566
46	0xbd94bbfa	-0.07262416
47	0x3de0946a	0.10965808
48	0xbd93c2cc	-0.07214889
49	0xbe2a2b2b	-0.1661803
50	0x3dfc714a	0.12326296
51	0x3ddf238f	0.10895454
52	0x3d5fe403	0.05466081
53	0xbd99784c	-0.07493648
54	0x3b3268d8	0.0027223136
55	0x3dfb709e	0.122773394
56	0x3bbb0c24	0.0057082344
57	0x3e0759b0	0.13217807
58	0x3e32f44e	0.17476007
59	0x3e23d6e0	0.15999937
60	0xbe01dd75	-0.12682135
61	0xbe262dbc	-0.16228384
62	0x3e334a7e	0.17508885
63	0xbcbc31d0	-0.022972971
64	0x3e34bc2f	0.17649911
65	0xbde4f62c	-0.11179766
66	0xba2abc26	-0.00065130217
67	0xbd18cf61	-0.037307147
68	0x3d8f5491	0.06998552
69	0xbe272851	-0.16323973
70	0xbd8bebc6	-0.068320796
71	0x3d6758c3	0.056481134
72	0x3d87850e	0.06617175
73	0x3d7a1111	0.061051432
74	0xbe0b8766	-0.13625869
75	0xbd8fbd24	-0.070184976
76	0xbdfeb37b	-0.12436577
77	0xbe1de4a8	-0.15419257
78	0xbcac93be	-0.021066543
79	0x3df8100c	0.12112436
80	0xbdba4f91	-0.09097207
81	0xbe2f8464	-0.17140347
82	0xbd405b32	-0.04696197
83	0x3e236d98	0.15959775
84	0x3e24d0f2	0.16095331
85	0x3e30fc43	0.1728373
86	0xbdb357d0	-0.08756983
87	0xbd1f5147	-0.03889587
88	0x3d09ef1f	0.03367531
89	0xbc5a52c6	-0.013325399
90	0x3c9d2acb	0.019185444
91	0x3e2da726	0.16958293
92	0x3db669a1	0.08906866
93	0x3deeb971	0.11656464
94	0x3de31bea	0.110893086
95	0x3d5cb184	0.05388023
96	0xbcd1f7dd	-0.025630886
97	0x3e07c50f	0.13258766
98	0xbe11ec24	-0.14250237
99	0xbdc1aec6	-0.094571635
100	0x3d9e047c	0.07715699
101	0xbd3573ca	-0.04429988
102	0x3c2b7b55	0.010466416
103	0xbdfa0e50	-0.12209761
104	0x3bf1f7c9	0.0073842746
105	0xbe017c34	-0.12645036
106	0x3db116fa	0.086469606
107	0x3db2b19f	0.08725285
108	0xbdb8ed51	-0.090296395
109	0x3e135dc6	0.1439124
110	0xbb95a453	-0.004566708
111	0xbe341506	-0.17586145
112	0xbdabf037	-0.08395427
113	0x3da8ffe2	0.08251931
114	0xbe0a3d05	-0.1349984
115	0x3d084bc3	0.033275377
116	0x3dad2954	0.08455148
117	0xbdc27edf	-0.09496855
118	0xbcd5104f	-0.026008753
119	0x3e3414d9	0.17586078
120	0x3d146457	0.036228504
121	0xbc6c9230	-0.014439151
122	0x3d8ecf77	0.069731645
123	0x3ded19e5	0.115772046
124	0xbdb66fba	-0.08908029
125	0x3e276faa	0.1635119
126	0xbdd7a3a4	-0.10529259
127	0x3d6031d7	0.05473503
128	0xbdf94fe7	-0.12173443
129	0xbde8f287	-0.113743834
130	0xbd98d08c	-0.07461652
131	0x3e2073b3	0.15669136
132	0x3dcfb4c4	0.101419
133	0xbdd09add	-0.10185788
134	0xbe089698	-0.13338697
135	0x3e1a695c	0.15079254
136	0xbda9384c	-0.08262691
137	0xbd1310e8	-0.035904795
138	0x3cf86676	0.030322295
139	0xbdf6a5f2	-0.1204337
140	0x3e0032ab	0.12519328
141	0x3dd54be8	0.104148686
142	0xbd9f9ef5	-0.077939905
143	0xbd2c1d42	-0.04202009
144	0x3dc1414e	0.09436284
145	0x3e1a2341	0.15052511
146	0x3d9486c7	0.07252269
147	0x3c0ce957	0.008600554
148	0xbe23b1eb	-0.15985839
149	0x3e325904	0.1741677
150	0xbde741e4	-0.112918645
151	0x3e1245cb	0.14284436
152	0x3c2ca686	0.010537749
153	0x3dd0f0b9	0.10202164
154	0x3e0feee4	0.14055973
155	0x3e0d2de9	0.13787045
156	0x3d203979	0.03911731
157	0x3d80bf43	0.0628648
158	0xbd8db6ad	-0.06919608
159	0x3d28e361	0.04123247
160	0x3d9ed638	0.07755703
161	0xbc6ca010	-0.014442459
162	0x3e169b6d	0.14707728
163	0x3e0c4fd6	0.1370233
164	0x3e0aff12	0.13573864
165	0xbd571c69	-0.05251733
166	0xbd0e935f	-0.034808513
167	0x3d74f206	0.059801124
168	0xbc488600	-0.012238979
169	0xbdd56b68	-0.10420877
170	0x3df4a895	0.11946217
171	0xbc1b450e	-0.009476913
172	0xbd369c4f	-0.04458266
173	0xbe33ccc7	-0.17558585
174	0xbe2958da	-0.165378
175	0x3dca6b00	0.0988369
176	0x3dc0d3ea	0.094154194
177	0xbdadde37	-0.0848965
178	0x3e3086db	0.17238943
179	0xbd23424c	-0.039858148
180	0xbe1cd7b3	-0.15316658
181	0xbe07dfdd	-0.13268991
182	0x3de4c40c	0.111702055
183	0x3e22a04f	0.15881465
184	0xbbc40a03	-0.005982639
185	0xbd8c5fac	-0.068541855
186	0xbdfca584	-0.12336257
187	0x3d5bee3e	0.053694002
188	0x3d62042d	0.055179764
189	0x3d463f31	0.048400108
190	0x3e277bcb	0.16355817
191	0xbde5a022	-0.112121835
192	0x3e1ee1e8	0.15515864
193	0x3dfd60be	0.12371968
194	0x3dbc2308	0.09186369
195	0x3d452d13	0.04813869
196	0x3de4f638	0.11179775
197	0xbcb6f699	-0.022334384
198	0x3e1037f9	0.14083852
199	0x3dc4d7bd	0.09611461
200	0x3d460eff	0.048354145
201	0x3c4cb1bb	0.012493546
202	0x3e0431aa	0.1290957
203	0x3e16b241	0.14716436
204	0xbdf0e64d	-0.117626764
205	0xbbf9f243	-0.007627757
206	0x3dd26cec	0.102746814
207	0x3db31a87	0.08745294
208	0xbd7f7d23	-0.0623752
209	0x3e235930	0.15951991
210	0x3d90b5be	0.070659146
211	0xbe163c90	-0.1467154
212	0xbd9242a1	-0.07141615
213	0x3e2ecf42	0.1707125
214	0xbcf173ff	-0.029474257
215	0xbd7d0fa8	-0.06178251
216	0xbe177b63	-0.14793162
217	0xbb95965c	-0.0045650434
218	0xbc93b784	-0.018031843
219	0x3d5d47dd	0.054023612
220	0xbdcfa807	-0.101394705
221	0x3daca5f3	0.0843009
222	0x3d8ea21f	0.06964516
223	0x3dce4857	0.100723915
224	0x3e2db8ac	0.16964978
225	0x3db01e19	0.08599491
226	0xbe2135fe	-0.15743253
227	0x3ceb8d38	0.028753862
228	0x3da25e44	0.07928136
229	0xbdc9c70a	-0.09852417
230	0x3d912459	0.07087011
231	0xbce74f3c	-0.028236024
232	0x3e074493	0.13209753
233	0xbd841c27	-0.06450682
234	0xbe23feb4	-0.1601513
235	0x3df1ff93	0.11816325
236	0xbd5b6f4c	-0.053572938
237	0xbd969327	-0.07352286
238	0xbdf66278	-0.120305
239	0xbdc5fcfa	-0.09667392
240	0xbcc5539d	-0.024087721
241	0xbdeb4d86	-0.11489396
242	0x3e0e6051	0.1390393
243	0xbdc6c530	-0.09705579
244	0xbd8dc86e	-0.069229946
245	0x3ba9fbfe	0.0051875105
246	0x3cf71b9f	0.030164538
247	0xbcf7b598	-0.030237958
248	0xbe078fae	-0.13238403
249	0x3dc18b27	0.09450369
250	0x3c9ffe4c	0.019530438
251	0xbd72b161	-0.059251193
252	0xbd6ffd0e	-0.05859094
253	0xbe003454	-0.12519962
254	0xbc041d8e	-0.008063687
255	0xbe1f4627	-0.15554105

rnn.bias_ih_l0 f4 [96]
0	0xbd6dd949	-0.058068547
1	0x3e3c3e1a	0.18383065
2	0x3c2409ae	0.010012073
3	0xbd7d4eac	-0.061842605
4	0xbe3bf1f7	-0.18354021
5	0xbdb31821	-0.087448366
6	0xbe4d973a	-0.2007722
7	0x3de97036	0.11398356
8	0xbe341462	-0.175859
9	0x3d3bd332	0.04585571
10	0x3c088ea8	0.008334793
11	0xbd3be937	-0.045876708
12	0xbe9fb35d	-0.3119153
13	0xbec5e8d8	-0.38654208
14	0xbdfae371	-0.12250412
15	0x3d3b33aa	0.045703568
16	0x3e4524a2	0.19252256
17	0x3d8bff46	0.06835799
18	0x3d5c5406	0.05379107
19	0xbe57dd5e	-0.21080539
20	0xbd081a1c	-0.033228025
21	0xbe9a522a	-0.3014081
22	0x3db80c83	0.089867614
23	0xbd1eb085	-0.03874256
24	0x3d14b7d6	0.036308132
25	0xbdd3c340	-0.10339975
26	0xbe604e54	-0.2190488
27	0xbd353b0e	-0.044245772
28	0x3e681933	0.22665863
29	0xbe07d39a	-0.13264313
30	0x3c8705f0	0.016482323
31	0xbd0e0d2e	-0.034680538
32	0xbd522bc3	-0.051311266
33	0x3d9a6afe	0.075399384
34	0xbda547f5	-0.08070365
35	0xbe0323e5	-0.12806661
36	0x3e4403aa	0.19142023
37	0x3d5255d8	0.0513514
38	0x3dc6de28	0.09710342
39	0xbc5e85e2	-0.013581725
40	0x3cf5be7f	0.029998062
41	0x3e4cc8af	0.1999843
42	0xbd2df025	-0.042465348
43	0x3d16046c	0.03662531
44	0xbe0f84fc	-0.14015573
45	0x3d20032d	0.03906553
46	0xbdfae5be	-0.12250851
47	0xbd8432bf	-0.064549915
48	0x3e3067b0	0.17227054
49	0xbebb7346	-0.36611384
50	0x3c1ef977	0.009703032
51	0x3cd72016	0.026260417
52	0x3d84e474	0.064888865
53	0x3e7a887f	0.24466132
54	0xbdb0b2e3	-0.0862787
55	0xbe92c748	-0.28667665
56	0xbdffcdfc	-0.1249046
57	0xbe31e21a	-0.17371407
58	0x3de25480	0.11051273
59	0x3d7e7774	0.062125638
60	0xbe3f4c16	-0.18681368
61	0xbce03752	-0.027370129
62	0x3c59e87a	0.013300056
63	0x3dbb4abf	0.09145116
64	0xbe03065d	-0.12795396
65	0x3d5b1219	0.053484056
66	0x3e12f002	0.14349368
67	0xbe3d0abb	-0.18461125
68	0xbd27cb69	-0.04096547
69	0x3dac4dba	0.08413263
70	0x3de2e833	0.11079445
71	0xbe22ae5c	-0.15886825
72	0xbd9de980	-0.07710552
73	0x3d77da3e	0.060510866
74	0x3e03ae09	0.12859358
75	0x3c40b017	0.011760733
76	0x3e07829f	0.13233422
77	0xbdcde722	-0.10053851
78	0xbe4e2c25	-0.20134027
79	0xbc0d360f	-0.008618846
80	0x3d6a341a	0.057178594
81	0xbd2ebe7f	-0.04266214
82	0xbdfba563	-0.122874044
83	0xbd6d1070	-0.057877004
84	0xbe328fed	-0.17437716
85	0xbcad843a	-0.021181215
86	0xbe4295e4	-0.19002491
87	0xbdf1ff33	-0.118162535
88	0xbddfb35a	-0.109228805
89	0xbe0720c5	-0.13196094
90	0x3bbd07fa	0.005768773
91	0xbd3c9e9d	-0.046049703
92	0x3e5fd2be	0.21857736
93	0xbd88070a	-0.066419676
94	0xbdc42bce	-0.095786676
95	0x3df25e20	0.11834359

rnn.bias_hh_l0 f4 [96]
0	0x3d9e09b4	0.077166945
1	0xbdca8512	-0.098886624
2	0x3d2fe1e3	0.04294003
3	0xbe2e452c	-0.17018574
4	0xbea5d803	-0.32391366
5	0xbd4f019e	-0.05053865
6	0x3bdc8a9e	0.0067303916
7	0x3d70ba7c	0.058771595
8	0xbd3985f5	-0.045293767
9	0xbe781ed6	-0.24230513
10	0xbdeed5d8	-0.11661881
11	0x3d99cb56	0.075094864
12	0xbe85c7f2	-0.2612911
13	0xbea1d27f	-0.31605908
14	0xbe8425c7	-0.25810072
15	0xbdf358f0	-0.11882198
16	0x3e40852e	0.18800804
17	0xbd62dd6e	-0.055386953
18	0xbda4366a	-0.08018191
19	0x3c92ceb6	0.017920833
20	0xbdffb05a	-0.12484808
21	0xbe960642	-0.2930165
22	0xbb1a4df3	-0.0023544997
23	0xbde63090	-0.11239731
24	0x3c4c4634	0.01246791
25	0xbdda65a2	-0.10663916
26	0xbcc7bd58	-0.024382278
27	0xbd278b7d	-0.04090451
28	0xbd759f99	-0.059966657
29	0xbe615c2f	-0.22007822
30	0x3a13e37f	0.00056415045
31	0xbdb21ceb	-0.08696922
32	0xbdbbfe60	-0.091793776
33	0xbdd1f89f	-0.10252499
34	0xbdd14883	-0.10218909
35	0x3d0d0ff5	0.034439046
36	0x3e19b4fe	0.1501045
37	0x3db874ab	0.09006628
38	0x3e1b4fb1	0.15167119
39	0x3d4ebe0f	0.050474223
40	0xbd5820fa	-0.052765824
41	0x3e0731db	0.13202612
42	0xbd756937	-0.059914794
43	0x3df7fb67	0.12108498
44	0xbe38cad6	-0.18046126
45	0x3d75f18d	0.060044814
46	0x3ded98aa	0.11601384
47	0x3dbefe58	0.09325856
48	0xbd40e8da	-0.047097065
49	0xbe45290e	-0.19253942
50	0x3db26871	0.08711327
51	0x3e490c14	0.19633514
52	0xbd82327b	-0.06357285
53	0x3e55c29c	0.20875019
54	0x3dada890	0.08479416
55	0xbeda336f	-0.42617366
56	0xbcf65928	-0.03007181
57	0xbd83f4aa	-0.0644315
58	0x3cbe3ad0	0.023221403
59	0x3d552dd6	0.052045666
60	0x3b95635d	0.004558964
61	0x3ca5ab4f	0.020223288
62	0xbe154692	-0.14577702
63	0x3e0ffc42	0.14061072
64	0xbe13ac3d	-0.14421172
65	0x3dc98497	0.09839743
66	0x3d5f6cc1	0.054547075
67	0xbcf5fd02	-0.03002787
68	0xbcce06af	-0.025149671
69	0x3d2d00a3	0.042236935
70	0x3d5aaa85	0.053385276
71	0xbe6295c1	-0.22127439
72	0x3def4e53	0.11684861
73	0xbcb6908d	-0.022285724
74	0x3ddd1d97	0.107966594
75	0xbdb632a3	-0.08896377
76	0xbd21e2a7	-0.039522793
77	0x3d4fa818	0.050697416
78	0xbc66926e	-0.0140729975
79	0x3de6ca1f	0.1126902
80	0xbe22feb3	-0.15917473
81	0xbe31ffa5	-0.17382677
82	0xbe57a6d6	-0.21059737
83	0xbd8b14a7	-0.067910485
84	0xbe02b9fc	-0.1276626
85	0xbcf099a1	-0.029370131
86	0xbda51f2f	-0.080625884
87	0x3e04273c	0.12905592
88	0x3da465fc	0.080272645
89	0xbe70d31a	-0.23518029
90	0x3dbeccdd	0.09316418
91	0xbe473b72	-0.1945627
92	0x3e49f573	0.19722538
93	0xbd3bb2f4	-0.04582496
94	0x3e58710b	0.21136872
95	0xbdaf733d	-0.08566902

fc.weight f4 [64, 37]
0	0x3e332a1a	0.17496529
1	0x3e7f8658	0.24953592
2	0x3ddb37e5	0.107040204
3	0x3db6dabc	0.08928439
4	0x3c6b8ff4	0.014377583
5	0xbd88e7a2	-0.066848055
6	0xbe4103c5	-0.18849094
7	0x3e47125e	0.194406
8	0x3daeed6b	0.08541378
9	0xbe4bcd31	-0.19902493
10	0x3dff9fa7	0.12481623
11	0x3dbd9232	0.092564
12	0xbd053f2b	-0.032530945
13	0xbdaf6564	-0.085642606
14	0xbe2fcba6	-0.1716753
15	0x3e10d23a	0.14142695
16	0x3cf47ccb	0.029844662
17	0xbd2e93cb	-0.042621415
18	0x3d22617d	0.039643753
19	0x3dd7d838	0.10539287
20	0xbe4df047	-0.2011119
21	0xbd663cd9	-0.056210373
22	0x3b777a4f	0.003776211
23	0x3e514c4d	0.20439263
24	0xbca52d20	-0.020163119
25	0xbdc84632	-0.09779014
26	0x3bfc65b6	0.0077025546
27	0xbd703256	-0.058641754
28	0x3e1612c7	0.146556
29	0xbd688c92	-0.056774683
30	0xbd820331	-0.06348265
31	0x3d0bbf5b	0.034118038
32	0xbcdcee3d	-0.02696907
33	0x3dac563c	0.084148854
34	0xbe3371f7	-0.17523943
35	0xbe0f0b70	-0.13969207
36	0xbce80f1f	-0.028327523
37	0xbcf13c36	-0.029447656
38	0x3df8742e	0.121315345
39	0xbd83216f	-0.06402861
40	0x3d64ce36	0.05586072
41	0x3d637403	0.05553056
42	0xba8decde	-0.0010828038
43	0xbdbb2566	-0.091379926
44	0x3d149460	0.036274314
45	0x3d6ad1b0	0.05732888
46	0x3e876300	0.26442719
47	0xbe0e1c5d	-0.13878007
48	0xbe7131dd	-0.23554178
49	0xbcdf48b8	-0.027256355
50	0xbe0fa9ff	-0.14029692
51	0x3dd8af50	0.10580313
52	0x3db0d8e3	0.08635118
53	0x3d8a00b0	0.067384124
54	0x3e3486ad	0.176295
55	0xbe34637c	-0.17616075
56	0x3e059a94	0.13047248
57	0x3d922f5a	0.07137938
58	0xbe281c56	-0.1641706
59	0x3d975d22	0.073908105
60	0x3d325676	0.043539487
61	0x3cb573b5	0.0221499
62	0xbdd2080b	-0.1025544
63	0x3e4443de	0.19166514
64	0x3bd274ae	0.0064226007
65	0xbe552401	-0.20814516
66	0xbe36c9ad	-0.1785037
67	0xbe559bc5	-0.20860203
68	0x3cbbe9f0	0.022938699
69	0xbd192b1d	-0.03739463
70	0xbe8c0407	-0.27346823
71	0x3e96daff	0.29463956
72	0xbe467c67	-0.19383393
73	0x3dee9f2d	0.11651454
74	0x3e9a6868	0.3015778
75	0xbe80d7db	-0.25164685
76	0xbda98add	-0.08278439
77	0x3d9f9b7c	0.07793328
78	0xbe5fd5ee	-0.21858951
79	0xbdbd82fd	-0.092535
80	0xbeb470b0	-0.35242224
81	0x3e03966f	0.12850355
82	0xbe92ec4e	-0.2869591
83	0x3bd7bb8e	0.0065836376
84	0xbe1b2e02	-0.1515427
85	0xbe4fad7d	-0.20281024
86	0xbd9fa95f	-0.07795977
87	0x3dc1895d	0.09450028
88	0x3e6c86f0	0.2309835
89	0xbe661129	-0.22467484
90	0x3e30c3ff	0.17262267
91	0xbe10b37a	-0.14130965
92	0x3de66ec9	0.11251599
93	0x3e27285d	0.16323991
94	0xbdb2cc8d	-0.08730421
95	0x3d3005d9	0.042974327
96	0x3dde7480	0.10862064
97	0xbe382178	-0.17981517
98	0xbdb16491	-0.0866176
99	0x3ea198f3	0.31562003
100	0x3e5ca9e5	0.21549185
101	0x39a5e9a6	0.00031645334
102	0xbe82d368	-0.25551915
103	0x3ea49b99	0.32149962
104	0xbdb2190b	-0.08696183
105	0x3e68157d	0.22664447
106	0xbe138f7b	-0.14410202
107	0xbe44939b	-0.19196932
108	0xbe7444e6	-0.23854408
109	0xbe0f221e	-0.13977858
110	0xbea7d65b	-0.32780728
111	0xbdb9b255	-0.09067217
112	0xbd0a62ff	-0.033785816
113	0xbc7c0d7d	-0.015384075
114	0xbe31c6ed	-0.1736104
115	0x3dfbe1f3	0.12298956
116	0x3da68fbe	0.081328854
117	0x3e1426e4	0.1446796
118	0xbd8766f7	-0.06611436
119	0xbd1d8aa1	-0.038462285
120	0x3e650b90	0.22367692
121	0xbdae3bbc	-0.08507487
122	0xbe1e1109	-0.15436186
123	0xbd82e1a5	-0.063906945
124	0x3e05713b	0.13031475
125	0x3daac2f8	0.083379686
126	0x3e307926	0.17233714
127	0xbe057151	-0.13031508
128	0x3e704149	0.23462404
129	0xbdb3492d	-0.087541915
130	0xbd550b68	-0.05201283
131	0xbe77e555	-0.24208577
132	0x3e5ae3c8	0.21375954
133	0xbc802109	-0.015640752
134	0xbdf18d46	-0.11794524
135	0xbdfb824f	-0.12280714
136	0x3dce2799	0.100661464
137	0xbd864171	-0.06555451
138	0x3e3e94ad	0.18611403
139	0xbe09e9e3	-0.13468127
140	0xbe78b4d7	-0.24287735
141	0xbc562a14	-0.013071556
142	0x3dcfc346	0.10144667
143	0xbe844261	-0.25831893
144	0xbd8dcbb2	-0.069236174
145	0x3c5a5989	0.013327011
146	0xbe091f61	-0.13390876
147	0x3e6aa73a	0.22915354
148	0xbe958099	-0.29199675
149	0xbd9efa0a	-0.07762535
150	0x3e4c8700	0.19973373
151	0xbeaa5792	-0.33269936
152	0x3c8ed3e6	0.017435025
153	0x3c8e2370	0.017350882
154	0x3dfc3dde	0.12316488
155	0xbe83ec9a	-0.2576645
156	0x3e67b7a3	0.22628646
157	0x3d836908	0.064165175
158	0xbd0dbeab	-0.034605663
159	0x3e2fc680	0.17165565
160	0x3d8c5477	0.06852048
161	0x3d90c948	0.07069641
162	0xbea4bae6	-0.32173842
163	0x3e8b2a22	0.27180582
164	0x3e59d444	0.21272379
165	0x3bdfe50c	0.0068327244
166	0xbe0f37d2	-0.13986138
167	0xbd3ae964	-0.045632735
168	0x3c29020a	0.010315428
169	0xbda3f050	-0.0800482
170	0xbded45ca	-0.11585577
171	0x3dd97d31	0.106195815
172	0x3d1981ea	0.03747741
173	0xbe7a94e6	-0.24470863
174	0x3e6adc0b	0.22935502
175	0xbd61595a	-0.055016853
176	0x3e612355	0.21986134
177	0x3db46348	0.08807999
178	0xbd4eb167	-0.050462153
179	0x3e316c1e	0.173264
180	0xbec4f558	-0.38468432
181	0xbd86bd82	-0.065791145
182	0x3e385fbc	0.1800527
183	0x3eb7b31a	0.3587883
184	0xbe5f9f98	-0.21838224
185	0xbdffa445	-0.12482504
186	0x3d2c1bac	0.042018577
187	0x3d950675	0.07276622
188	0xbd372c54	-0.04472001
189	0xbe4a8fee	-0.19781467
190	0xbe5099e4	-0.20371205
191	0xbe6abd73	-0.22923832
192	0xbe1b10a5	-0.15143068
193	0x3e8905b5	0.26762167
194	0x3c9318a1	0.01795608
195	0x3d2f18d5	0.04274829
196	0x3ea8b45e	0.3295011
197	0x3e1218d1	0.14267279
198	0x3e4ecd48	0.20195496
199	0xbe1c3f81	-0.152586
200	0xbe7a1687	-0.24422656
201	0x3e690cd6	0.22758803
202	0x3ea27f8a	0.3173793
203	0xbdcef994	-0.10106197
204	0xbd51bf6e	-0.051207952
205	0x3e3a45d0	0.18190694
206	0x3e76f188	0.24115574
207	0xbe582122	-0.21106389
208	0x3ed392c9	0.41322926
209	0x3de1bb34	0.11022034
210	0xbe775298	-0.24152601
211	0xbeada8ad	-0.33917752
212	0xbe7bc02e	-0.2458503
213	0xbcbd8dc8	-0.023138896
214	0x3d243ac5	0.04009511
215	0x3e84ca45	0.2593557
216	0xbe10859e	-0.14113471
217	0xbd392d27	-0.045209076
218	0xbeaaaa94	-0.33333266
219	0x3eacbcd4	0.33737814
220	0x3e0e3119	0.13885917
221	0xbed3591b	-0.4127892
222	0xbde2da04	-0.110767394
223	0xbd949d7b	-0.072565995
224	0x3e9ee01b	0.31030354
225	0x3d8a8bc5	0.0676494
226	0xbcdb3dc4	-0.02676285
227	0x3e35ad8c	0.17741984
228	0x3e66cd06	0.22539148
229	0xbe6e6109	-0.23279203
230	0x3e6eeaa4	0.23331696
231	0x3dae03e6	0.08496837
232	0xbd3c36ac	-0.045950577
233	0x3e7040d8	0.23462236
234	0x3d836846	0.06416373
235	0xbd8a357a	-0.06748481
236	0xbe023595	-0.12715752
237	0xbe0a0c38	-0.13481224
238	0xbca97d6a	-0.020689685
239	0x3e26409b	0.16235583
240	0x3d8f8203	0.0700722
241	0xbe795ec6	-0.2435256
242	0xbe5d0760	-0.21584845
243	0x3e291cf3	0.1651495
244	0xbe84617e	-0.2585563
245	0x3e099185	0.13434418
246	0x3dacbbc5	0.08434252
247	0x3cd86350	0.026414543
248	0xbe6ff7b3	-0.23434334
249	0xbe816387	-0.25271246
250	0x3e9b5df0	0.30345106
251	0x3e0c6db8	0.1371373
252	0x3d790a40	0.06080079
253	0x3ce2d330	0.027688593
254	0xbe22fb67	-0.15916215
255	0x3e9e4c16	0.30917424

fc.bias f4 [64]
0	0xbe1e51f9	-0.15460958
1	0x3c3610cf	0.011112406
2	0xbe210885	-0.15725906
3	0xbd89430d	-0.06702242
4	0x3d879fef	0.06622302
5	0x3e513768	0.20431292
6	0x3e825ab3	0.25459823
7	0x3e26831b	0.1626095
8	0x3da7c9ab	0.08192762
9	0x3c34ccf0	0.011035189
10	0x3d9bc230	0.07605398
11	0x3dac0a13	0.08400359
12	0x3e2b006f	0.16699384
13	0xbe031d84	-0.12804228
14	0xbe467619	-0.19380988
15	0xbe0a19c1	-0.13486387
16	0x3d1c144b	0.03810529
17	0x3d852096	0.06500356
18	0x3e1bd668	0.15218508
19	0xbe949be5	-0.29025188
20	0xbcf36c3c	-0.029714696
21	0xbccbaa50	-0.024861485
22	0x3ca7381e	0.020412501
23	0x3d539e5b	0.05166469
24	0x3e261a37	0.16220938
25	0x3d21c018	0.039489836
26	0xbe575f43	-0.21032433
27	0xbcdde44f	-0.027086405
28	0x3d81370a	0.06309326
29	0xbd2960c7	-0.04135206
30	0x38b91e04	8.827078e-05
31	0x3e419e08	0.1890794
32	0xbdfa399f	-0.122180216
33	0x3d9c48b1	0.07631052
34	0xbe57e6f1	-0.21084191
35	0xbe04d295	-0.12970956
36	0xbd9d9819	-0.07695026
37	0xbd931146	-0.07181029
38	0xbe0e86f8	-0.13918674
39	0x3d0b97a9	0.03408018
40	0x3d6d879d	0.05799066
41	0xbd8950ca	-0.067048624
42	0xbdb1c005	-0.08679203
43	0xbe22af74	-0.15887243
44	0xbdc6b66f	-0.09702765
45	0xbe904269	-0.28175667
46	0x3e09b785	0.13448913
47	0xbde94506	-0.11390118
48	0x3df72606	0.12067799
49	0xbda96d55	-0.082728066
50	0xbc35d14f	-0.011097266
51	0x3d3576fa	0.044302918
52	0xbe705113	-0.23468427
53	0x3dc1da78	0.09465498
54	0xbe20728e	-0.15668699
55	0xbe91460d	-0.28373757
56	0xbe031946	-0.1280261
57	0xbe63b868	-0.22238314
58	0x3daf9e19	0.085750766
59	0x3d78038a	0.06055025
60	0xbe0fe5c0	-0.14052486
61	0x3d8c1da5	0.06841592
62	0xbd5314b9	-0.051533435
63	0x3e67217e	0.2257137

pi.weight f4 [2, 64]
0	0xbde9b50c	-0.11411485
1	0x3e548484	0.20753676
2	0xbdc6929d	-0.09695933
3	0x3d716dad	0.058942486
4	0xbe73873e	-0.2378206
5	0x3e530fa1	0.2061143
6	0xbe7634f4	-0.24043638
7	0x3e5ddea0	0.21666956
8	0xbe4ba24f	-0.19886135
9	0xbeabbc70	-0.33542204
10	0x3e2b8e35	0.16753466
11	0xbdbe8934	-0.09303513
12	0xbe83cfe0	-0.25744534
13	0xbe6f6b96	-0.23380885
14	0x3e3ce6c2	0.18447402
15	0xbd2078a6	-0.03917756
16	0xbe64076d	-0.22268458
17	0x3d0274ee	0.031849794
18	0x3dafc102	0.08581735
19	0xbb450efc	-0.0030068746
20	0xbe19f953	-0.15036516
21	0x3e79e682	0.24404338
22	0xbdf74948	-0.12074524
23	0x3e4bfa2f	0.19919656
24	0x3dc1eaba	0.09468599
25	0x3e94babd	0.2904872
26	0xbdeba274	-0.11505595
27	0xbe7fbaa4	-0.24973541
28	0x3b37dc47	0.002805488
29	0xbe2c1867	-0.16806184
30	0x3e21c9c7	0.15799628
31	0x3dc45ea6	0.09588365
32	0x3e6645d9	0.22487582
33	0xbdc873e6	-0.09787731
34	0x3e485a38	0.19565666
35	0xbe3e82c2	-0.18604568
36	0xbdb0a1f5	-0.08624641
37	0x3c20950e	0.009801162
38	0x3eb011f0	0.34388685
39	0xbd2a099b	-0.041513067
40	0x3cd7a9b2	0.026326034
41	0x3e05e528	0.13075697
42	0x3e02056f	0.12697385
43	0xbd42d5b1	-0.047567073
44	0xbd5a39b7	-0.053277697
45	0xbe624809	-0.22097792
46	0xbea7c52f	-0.32767627
47	0x3e39b11d	0.1813397
48	0x3e009610	0.12557244
49	0x3d5a80de	0.053345554
50	0x3e880624	0.26567185
51	0xbe037118	-0.1283611
52	0xbe82cfbe	-0.2554912
53	0xbe1afb8d	-0.15135022
54	0xbdbbb9c7	-0.091662936
55	0x3dd7ccb4	0.10537091
56	0xbe823305	-0.2542955
57	0x3e4c465d	0.19948716
58	0xbe479154	-0.19489032
59	0x3d6edd81	0.05831671
60	0xbd94b486	-0.072609946
61	0x3e3dcddd	0.18535562
62	0x3db16238	0.08661312
63	0xbd73116e	-0.059342794
64	0x3da4141d	0.08011649
65	0xbdb5cd6d	-0.088770725
66	0xbd8fd80d	-0.0702363
67	0x3e767adf	0.24070309
68	0x3dc69664	0.096966535
69	0x3e8dc017	0.27685615
70	0xbe5f5064	-0.2180801
71	0x3e7af66e	0.24508068
72	0x3e8578a0	0.26068592
73	0x3da5cfdc	0.08096287
74	0x3bcf0391	0.006317564
75	0x3e845840	0.2584858
76	0xbe2b8dd6	-0.16753325
77	0x3d84b8f5	0.0648059
78	0x3e00c13d	0.12573715
79	0x3dd2bf51	0.10290397
80	0x3e90d883	0.28290185
81	0xbe6ff501	-0.23433305
82	0xbe07ab93	-0.13249044
83	0xbe266f57	-0.1625341
84	0xbd592537	-0.053014006
85	0xbe81e45a	-0.2536953
86	0x3d6ff3f1	0.05858225
87	0x3e88528a	0.26625472
88	0x3df8247a	0.12116332
89	0x3c3bc208	0.011459835
90	0x3e0d5dec	0.1380536
91	0xbe3437ae	-0.17599365
92	0x3e2b296e	0.16715023
93	0xbd4c7afd	-0.04992198
94	0x3e2a9d1f	0.166615
95	0xbd790541	-0.060796026
96	0x3e1f6998	0.15567625
97	0xbdc0f2ed	-0.094213344
98	0xbdf66c56	-0.12032382
99	0x3de9df3f	0.11419534
100	0x3b890556	0.0041815443
101	0xbe8e78d6	-0.27826566
102	0x3e150456	0.14552435
103	0xbe8095eb	-0.25114378
104	0x3e4633aa	0.19355646
105	0xbd7665e2	-0.060155757
106	0xbd070f48	-0.032973558
107	0xbe8262b4	-0.2546593
108	0x3e1a3755	0.1506017
109	0xbe7e66a9	-0.24843849
110	0x3d19b423	0.037525307
111	0x3e7fc2b6	0.2497662
112	0x3e3bea53	0.18351106
113	0xbebcb017	-0.36853096
114	0xbe7543b0	-0.23951602
115	0x3e11c43c	0.14235014
116	0x3db46328	0.08807975
117	0x3e166c12	0.14689663
118	0x3db9f060	0.09079051
119	0x3c54e47c	0.012993928
120	0xbe6504ea	-0.22365156
121	0x3e0039ef	0.125221
122	0xbd503039	-0.05082724
123	0xbae76d6e	-0.0017656514
124	0x3e4974a2	0.19673398
125	0xbda1ec75	-0.07906429
126	0x3e8cba16	0.27485722
127	0x3dc017b6	0.093795225

pi.bias f4 [2]
0	0xbd03271b	-0.032019716
1	0x3d674121	0.056458596

mu.weight f4 [2, 64]
0	0x3e651e7d	0.22374912
1	0xbd89b217	-0.06723421
2	0xbe238f7d	-0.15972705
3	0x3dcd0b93	0.10011973
4	0xbe544f14	-0.20733291
5	0xbe83dbdc	-0.25753677
6	0x3e35e14f	0.1776173
7	0x3e208b09	0.15678038
8	0xbe96c383	-0.2944604
9	0x3e1d315f	0.15350865
10	0x3dd75e71	0.1051606
11	0xbdaadb24	-0.08342579
12	0xbdcca661	-0.09992672
13	0x3e511643	0.20418648
14	0xbdcef37f	-0.10105037
15	0xbdb8e9d1	-0.09028972
16	0x3dba2efa	0.09090991
17	0x3cf38b4f	0.029729513
18	0xbe3991ff	-0.181221
19	0xbd9e7cc5	-0.07738642
20	0x3dd1cd26	0.10244207
21	0xbcdb7dde	-0.026793417
22	0xbdf5034b	-0.11963519
23	0x3dcde590	0.10053551
24	0x3e5b7b8f	0.21433853
25	0x3e66ff63	0.2255836
26	0xbcb5d0a5	-0.022194216
27	0xbcf38d56	-0.02973048
28	0x3e02ff3e	0.1279268
29	0x3e8dc7ee	0.27691597
30	0x3e30e27d	0.17273898
31	0xbe561e88	-0.20910084
32	0xbe8dd6e4	-0.2770301
33	0x3e0b0f59	0.13580073
34	0x3e4001bb	0.1875066
35	0x3e5457c3	0.20736603
36	0x3d035dea	0.032071985
37	0xbe6a5a2f	-0.22885965
38	0x3ea0c5b9	0.3140085
39	0xbe429b84	-0.19004637
40	0xbe8feb94	-0.2810942
41	0x3e8a8cf2	0.27060658
42	0xbb2fcf00	-0.0026826262
43	0x3b93ad0c	0.004506713
44	0xbe4a1d91	-0.19737841
45	0x3e4c15a4	0.1993013
46	0x3e1dfb96	0.15428004
47	0x3e2b63e7	0.16737328
48	0xbdbcb228	-0.09213668
49	0xbe3ee7a2	-0.18643048
50	0xbca51921	-0.020153584
51	0xbcd52f59	-0.026023554
52	0xbe235541	-0.1595049
53	0xbce74f13	-0.028235948
54	0xbea111f8	-0.31459022
55	0xbe1133a2	-0.14179853
56	0xbd4302dc	-0.04761015
57	0xbe5ce6b5	-0.21572383
58	0xbcbc5930	-0.022991747
59	0xbea49a90	-0.32149172
60	0xbe1eb5b6	-0.15499005
61	0xbe5bd34c	-0.21467322
62	0x3e8b2718	0.27178264
63	0xbb447a18	-0.002998
64	0x3d4d826d	0.05017321
65	0xbe89999c	-0.26875007
66	0xbcda8d2b	-0.026678642
67	0x3e456919	0.19278373
68	0x3d9f5cb5	0.07781354
69	0xbea6e3b8	-0.3259561
70	0x3e3b1c4d	0.18272515
71	0xbe8bbe18	-0.27293468
72	0x3d464dfa	0.048414208
73	0x3cebb284	0.028771646
74	0x3d87e0b0	0.066346526
75	0xbea26282	-0.3171578
76	0x3d855dcb	0.0651203
77	0x3e48839e	0.19581458
78	0xbeb99e81	-0.3625374
79	0x3e415df3	0.18883495
80	0xbe57c445	-0.21070965
81	0x3e0fc560	0.14040136
82	0xbdf37ed7	-0.11889427
83	0xbe0317c5	-0.12802036
84	0xbea0452a	-0.31302768
85	0x3d012878	0.031532735
86	0x3d91915d	0.07107804
87	0xbe8676cd	-0.26262513
88	0xbe5e2e36	-0.21697316
89	0xbe1e9037	-0.15484701
90	0xbd8ff8f3	-0.07029905
91	0xbe02fdbd	-0.12792106
92	0xbce0eaae	-0.027455654
93	0xbe485d82	-0.1956692
94	0x3d401244	0.04689242
95	0xbe20d52d	-0.1570632
96	0xbe222017	-0.15832554
97	0xbe4bd67d	-0.1990604
98	0xbd28a8a1	-0.041176442
99	0xbda0d64b	-0.07853373
100	0xbe2fdd42	-0.17174247
101	0xbd53d192	-0.051713534
102	0xba355e4c	-0.00069186534
103	0xbc9a28ca	-0.018818278
104	0x3e5d1511	0.21590067
105	0x3e8dca59	0.27693442
106	0xbe8f12a5	-0.27943912
107	0x3d7a3241	0.061083082
108	0x3ac5b7af	0.0015084649
109	0x3e984f26	0.29747885
110	0xbe617658	-0.22017801
111	0xbe16ad04	-0.14714438
112	0x3da10d03	0.0786381
113	0x3ceb4ec6	0.028724086
114	0x3d3ae271	0.045626108
115	0x3dfdcc68	0.12392503
116	0x3e116ec3	0.14202408
117	0xbbce4369	-0.006294657
118	0xbe90ce51	-0.28282407
119	0x3c501213	0.012699622
120	0xbe446eff	-0.19182967
121	0xbe169226	-0.14704189
122	0x3e779bde	0.24180552
123	0xbe989f63	-0.29809102
124	0xbd6a93cf	-0.057269868
125	0xbe51965f	-0.20467518
126	0xbe784dab	-0.24248378
127	0xbe47c1da	-0.19507542

mu.bias f4 [2]
0	0xbd67f922	-0.056634076
1	0x3db82789	0.08991916

sigma.weight f4 [2, 64]
0	0x3dbefd1d	0.09325621
1	0xbdda27d0	-0.10652125
2	0x3e80d9a5	0.2516605
3	0xbd1d4718	-0.03839788
4	0xbec0e559	-0.37674978
5	0x3c712caf	0.014720126
6	0xbe0bbcd0	-0.13646245
7	0x3da2ba39	0.079456754
8	0xbc6baa57	-0.014383874
9	0xbc910b91	-0.01770571
10	0xbca8161a	-0.020518351
11	0x3e7144c0	0.23561382
12	0xbecb06e0	-0.39653683
13	0x3e096e28	0.13420928
14	0x3e81a188	0.2531855
15	0x3dc1f4c3	0.09470513
16	0x3e2db153	0.16962175
17	0xbe2e688b	-0.17032067
18	0x3d9f8150	0.07788336
19	0x3ed408bb	0.4141291
20	0x3deceb81	0.11568356
21	0xbe3d8684	-0.18508345
22	0xbc93fb88	-0.018064275
23	0xbe3b7947	-0.18307982
24	0xbe850553	-0.25980625
25	0xbe458dc9	-0.19292368
26	0x3e166749	0.14687838
27	0x3e06f299	0.13178481
28	0x3e0e1864	0.13876492
29	0x3dfe2ed0	0.124112725
30	0xbdb19197	-0.08670347
31	0xbeb5c42b	-0.35501227
32	0x3e640b9a	0.2227005
33	0xbe0a0da0	-0.1348176
34	0x3de6563b	0.11246916
35	0x3ebe1f9f	0.371335
36	0x3e79b631	0.24385907
37	0x3e18b515	0.14912827
38	0x3e73fcf2	0.2382696
39	0xbc374398	-0.011185549
40	0x3e12cbde	0.14335582
41	0x3ea17d54	0.3154093
42	0x3eba4581	0.36381152
43	0x3caa9874	0.020824648
44	0x3d88dace	0.06682359
45	0x3e87f3f7	0.26553318
46	0xbea17cea	-0.31540614
47	0x3e90eae2	0.283042
48	0xbec2bf16	-0.38036412
49	0x3e0c2459	0.1368574
50	0xbb4b56ad	-0.0031027005
51	0xbd5d4cb8	-0.054028243
52	0x3eb35207	0.3502352
53	0xbd072937	-0.03299829
54	0x3e493251	0.196481
55	0x3e89a4d8	0.26883578
56	0x3d77c11c	0.060486898
57	0x3ea65796	0.32488698
58	0xbdc1395c	-0.094347686
59	0xbdb9c09f	-0.09069943
60	0x3e744367	0.23853837
61	0xbe022601	-0.1270981
62	0xbd925b35	-0.071463026
63	0xbe0863e1	-0.13319351
64	0x3e82d5cd	0.25553742
65	0xbdc11463	-0.094277166
66	0x3cc1f299	0.02367525
67	0x3e8b556a	0.27213603
68	0xbe96c708	-0.29448724
69	0xbe932435	-0.2873856
70	0xbeb22f1c	-0.34801567
71	0xbe9f3215	-0.31092897
72	0xbeb784e3	-0.35843572
73	0xbd51bc48	-0.05120495
74	0xbe31d6b6	-0.17367062
75	0xbd947236	-0.072483465
76	0xbe9b8e81	-0.3038216
77	0x3dcef80e	0.101059064
78	0x3e9111cd	0.28333893
79	0x3e76f45c	0.24116653
80	0xbe345281	-0.17609598
81	0xbea6018c	-0.32423055
82	0xbee53265	-0.4476501
83	0x3ec39973	0.3820301
84	0x3c81a02b	0.015823444
85	0x3da7bcf4	0.08190337
86	0xbe8094c2	-0.25113493
87	0xbe9c9329	-0.30581024
88	0xbe9c1e92	-0.30492073
89	0xbda755b8	-0.081706464
90	0x3ed0e0b5	0.40796438
91	0x3d11274a	0.03543786
92	0xbd8bb897	-0.06822317
93	0xbe4d5c15	-0.20054658
94	0xbd5ec893	-0.0543905
95	0xbe0fb340	-0.14033222
96	0xbd3d7728	-0.046256214
97	0xbe38ed05	-0.18059166
98	0x3e858a47	0.2608206
99	0x3e658ecb	0.22417752
100	0x3e40daf9	0.18833531
101	0xbd3d9220	-0.046281934
102	0x3dd698b3	0.10478344
103	0x3c318258	0.010834299
104	0x3e6cd98c	0.23129863
105	0x3d62cffc	0.05537413
106	0x3e59741b	0.21235697
107	0x3ec30318	0.38088298
108	0xbdc267ef	-0.0949248
109	0x3ec020aa	0.3752492
110	0xbe4a4d9c	-0.19756168
111	0xbd8a986f	-0.06767356
112	0x3d5b6e9d	0.053572286
113	0xbc3dd3f4	-0.011586178
114	0x3e37c8c7	0.17947684
115	0x3aa60cb9	0.0012668587
116	0x3c28c62d	0.010301155
117	0x3c3008d2	0.01074429
118	0xbd5b1bad	-0.05349319
119	0x3e9b5084	0.30334866
120	0x3e813884	0.2523843
121	0x3e81d9fa	0.25361615
122	0x3e6f8cb3	0.23393516
123	0xbd144dba	-0.03620694
124	0x3e979838	0.2960832
125	0x3c319cf7	0.010840646
126	0x3e92fe67	0.2870972
127	0xbe448345	-0.191907

sigma.bias f4 [2]
0	0xbd9fc748	-0.07801682
1	0xbddefd4f	-0.108881585
